Version1/model/best_model_5.pth (torch, 37922 bytes, 21 tensors)

layer1.weight f4 [32, 6]
0	0x3dff002f	0.12451207
1	0xbdf3598b	-0.11882313
2	0x3ab848b6	0.0014059755
3	0xbf525faf	-0.8217725
4	0x3f293087	0.6608967
5	0x3d67b2ea	0.05656711
6	0x3cd24bb0	0.025670856
7	0x3e4da7f4	0.200836
8	0x3d8e9352	0.06961693
9	0xbe722887	-0.23648272
10	0x3ea1164c	0.31462324
11	0xbef3beaf	-0.47606418
12	0xbe2eca0a	-0.1706926
13	0x3f4c2592	0.7974483
14	0xbe8df8a8	-0.27728772
15	0xc030839d	-2.758033
16	0x3f445a5d	0.76700383
17	0xbfc7f637	-1.5622014
18	0xbd64f6d2	-0.05589945
19	0x3f3375a7	0.701014
20	0xbdb3a669	-0.087719746
21	0xbc1e93f6	-0.009678831
22	0x3de82e7a	0.1133699
23	0xbe44ffd8	-0.19238222
24	0xbf826944	-1.0188375
25	0x3f01f254	0.5076039
26	0x3f26e080	0.6518631
27	0xbec066a9	-0.37578323
28	0x3f27160e	0.6526803
29	0xc013f0b9	-2.3115675
30	0x3d24a8be	0.040199988
31	0x3f6cae0e	0.92453086
32	0xbe92de63	-0.28685293
33	0x3f51bccf	0.81928724
34	0x3dc93ae2	0.09825684
35	0x3f2865ea	0.6578051
36	0xbf38eaeb	-0.72233456
37	0x3f06639d	0.5249575
38	0xbe149821	-0.14511158
39	0xbf879db2	-1.0595
40	0xbeb1f7c1	-0.34759334
41	0xc012def2	-2.2948575
42	0x3e0f052b	0.13966815
43	0x3e8511b3	0.25990066
44	0xbf3905f2	-0.72274697
45	0xbec37028	-0.38171506
46	0xbe4631a3	-0.19354872
47	0x3ef9ac7b	0.48764405
48	0x3dcfd350	0.101477265
49	0x3e02dec6	0.12780294
50	0xbf3b5b5f	-0.73186296
51	0x3e80e275	0.25172773
52	0x3e206871	0.15664841
53	0x3ee3f72e	0.4452452
54	0xbdabbae9	-0.0838526
55	0xbeb50e80	-0.35362625
56	0xbde3d1b0	-0.11123979
57	0xbe8887a8	-0.26665998
58	0x3c3717d5	0.011175116
59	0x3e0977a0	0.1342454
60	0xbec1fb9e	-0.3788728
61	0x3df387b8	0.11891121
62	0x3e51f470	0.20503402
63	0xbc91e6f0	-0.017810315
64	0x3e2cebf4	0.16886884
65	0x3e743c00	0.23851013
66	0x3e4a2b6b	0.19743125
67	0x3ea79b52	0.32735687
68	0x3ed1bdb1	0.40965036
69	0x3eb39f84	0.35082638
70	0xbe4426de	-0.19155452
71	0x3ff0bf63	1.8808407
72	0x3e86c9f3	0.2632595
73	0xbd501337	-0.050799575
74	0x3ec97bc0	0.39352226
75	0xbf431d94	-0.7621701
76	0xbda2b35b	-0.079443656
77	0x3dde8685	0.10865501
78	0xbebea74d	-0.37237015
79	0xbed2cf81	-0.41173938
80	0x3cc65230	0.024209112
81	0x3e8c0071	0.27344087
82	0x3e60aa2c	0.21939915
83	0xbeabcfec	-0.3355707
84	0xbd5875a0	-0.05284655
85	0xbe4ae67e	-0.19814488
86	0xbeb63b2f	-0.35592028
87	0xbd8a66e8	-0.06757909
88	0xbde00b28	-0.10939628
89	0xbea94ef4	-0.3306805
90	0x3d456925	0.048195977
91	0x3ecf9ac1	0.40547755
92	0xbe8199ee	-0.25312752
93	0xbdeca47b	-0.1155481
94	0x3e317285	0.17328842
95	0xbe1143bd	-0.14185996
96	0x3dee906f	0.11648642
97	0xbde2d8cf	-0.11076509
98	0x3ea462bc	0.32106578
99	0xbf02b8d1	-0.5106326
100	0x3efb97cf	0.49139258
101	0xbed71576	-0.4200856
102	0xbf18e6ab	-0.5972697
103	0x3eae5752	0.34050995
104	0xbf7d1083	-0.9885332
105	0xbfd29e41	-1.6454545
106	0x3dc597f7	0.096481256
107	0xbf67b8a8	-0.9051614
108	0xbd4f5bcf	-0.050624665
109	0x3e16bd6d	0.14720698
110	0x3e0ab506	0.13545617
111	0x3dd1f2cf	0.1025139
112	0x3ed1e93e	0.40998262
113	0xbe6da5b0	-0.23207736
114	0xbeb65dbf	-0.35618398
115	0xbe723b8d	-0.2365553
116	0xbe6f9a6d	-0.23398753
117	0xbe9b969d	-0.30388346
118	0x3e299f20	0.16564608
119	0xbe8c12a0	-0.2735796
120	0xbed4f674	-0.4159428
121	0x3f18aa4c	0.5963485
122	0xbe5cd615	-0.21566041
123	0xbdf7bcb0	-0.12096536
124	0xbf909009	-1.1293956
125	0x3f9150b2	1.1352751
126	0x3e7966e3	0.24355654
127	0x3e19b42c	0.15010136
128	0xbe414610	-0.18874383
129	0xbf436b25	-0.76335365
130	0xbea0038c	-0.31252706
131	0x3ed29ce2	0.41135317
132	0x3eb114af	0.34586093
133	0xbe10daa8	-0.1414591
134	0x3d1c155d	0.03810631
135	0xbfe5050d	-1.7892166
136	0x3f245ddf	0.64205736
137	0xbfcb8990	-1.5901356
138	0xbe11cef9	-0.1423911
139	0x3f5f331e	0.87187374
140	0xbe74d002	-0.23907474
141	0x3f4b60d5	0.7944463
142	0x3f048fa0	0.51781654
143	0x3f39f25c	0.72635436
144	0xbf154c88	-0.583199
145	0xbeaea5a6	-0.34110755
146	0xbe7c5760	-0.24642706
147	0x3eefd570	0.46842527
148	0x3f187ca1	0.5956517
149	0xbf2f80ab	-0.68555707
150	0xbc13d14c	-0.009022068
151	0x3e3e4675	0.18581565
152	0x3ef26867	0.47345278
153	0x3fdc11e4	1.719296
154	0x3f281d0d	0.6566933
155	0x3f643eb1	0.8915816
156	0xbe37d03b	-0.17950527
157	0x3e9e2201	0.30885318
158	0xbea2a77e	-0.3176841
159	0x400b2e22	2.1746907
160	0x3cc05d4e	0.023481991
161	0xbf07f473	-0.53107375
162	0x3e9e75fc	0.3094939
163	0x3e7cb89f	0.24679802
164	0x3ec61234	0.38685763
165	0xc01bde04	-2.4354258
166	0xbef5a6b9	-0.47978762
167	0xc001425b	-2.019675
168	0x3e97dbdd	0.2965993
169	0x3ef1ffd4	0.47265494
170	0xbe879732	-0.2648254
171	0xbf8f1bb2	-1.1180327
172	0x3f3724fc	0.7154081
173	0xc00104b5	-2.0159123
174	0xbdc5c42d	-0.09656558
175	0x3e1254fd	0.14290233
176	0x3cd81a74	0.026379801
177	0xc04951d3	-3.1456192
178	0x3eebacad	0.4603018
179	0xc04fa702	-3.2445683
180	0xbecfe07e	-0.4060096
181	0x3e800610	0.25004625
182	0x3d99f418	0.0751726
183	0xbdddd19c	-0.108309954
184	0xbecad6fa	-0.3961714
185	0xbd0db888	-0.03459981
186	0xbb4320f2	-0.0029774276
187	0x3e5448d5	0.20730908
188	0x3e829d5a	0.25510675
189	0x3cbebf89	0.02328469
190	0x3d8f11f2	0.06985845
191	0xbf6d40f6	-0.9267725

layer1.bias f4 [32]
0	0x40e32826	7.098651
1	0x40e90370	7.2816696
2	0x3f5db516	0.8660444
3	0x40ed7b2b	7.421285
4	0xc0273ffd	-2.6132805
5	0xc0cd29ba	-6.4113436
6	0x3e95709d	0.2918748
7	0x40bc14e0	5.877548
8	0xc0db8c5d	-6.860884
9	0x3e1266f0	0.1429708
10	0x3e60048c	0.21876734
11	0xc0f7c4cc	-7.742773
12	0x40df6395	6.980906
13	0xbe1f8714	-0.15578872
14	0xbe52bfc0	-0.2058096
15	0x40e9c84d	7.305701
16	0x40e9bc9d	7.304274
17	0xbe4f1109	-0.20221342
18	0x4101a4b9	8.1027155
19	0x3e98bb66	0.29830474
20	0xc0b2195f	-5.565597
21	0x40d44f8b	6.63471
22	0xc0916fe9	-4.544911
23	0xc0c2aa21	-6.0832677
24	0xc0a634f9	-5.1939664
25	0xc0c8d25e	-6.2756796
26	0xc0269606	-2.6029067
27	0xc03672f5	-2.8507664
28	0xc0b79398	-5.736767
29	0x40b3fc5b	5.624555
30	0x3e7fdb98	0.24986112
31	0x40fba003	7.8632827

layer2.weight f4 [32, 32]
0	0xbecec952	-0.4038797
1	0xbe8ee57b	-0.27909455
2	0xbe1c788f	-0.15280364
3	0xbe7740ff	-0.24145888
4	0xbe0e8e69	-0.13921513
5	0xbe8402cd	-0.25783387
6	0x3c775360	0.015095562
7	0xbe74f8fa	-0.23923102
8	0xbe2172a7	-0.15766393
9	0xbd6f39da	-0.05840478
10	0x3ca9f3c0	0.020746112
11	0xbdaadcc0	-0.08342886
12	0xbede3d4d	-0.43406144
13	0xbd9816c7	-0.074262194
14	0xbdef7e90	-0.11694062
15	0xbe432487	-0.19056903
16	0xbecf1852	-0.40448242
17	0xbde15ad7	-0.110036545
18	0xbe97cccf	-0.29648444
19	0xbcd22198	-0.025650784
20	0xbe1f7b2c	-0.1557433
21	0xbe89753c	-0.26847255
22	0xbdfbf9d9	-0.12303514
23	0xbec17c8e	-0.3779034
24	0xbe8d64b3	-0.2761589
25	0xbe784c4d	-0.24247856
26	0xbe24b3cd	-0.16084214
27	0xbd23a5cc	-0.039953038
28	0xbe719c39	-0.2359475
29	0xbec96a60	-0.3933897
30	0x3e332487	0.17494403
31	0xbe7e7b2c	-0.24851674
32	0x3f753c54	0.9579518
33	0x3f036e34	0.5134003
34	0xbf91520a	-1.1353161
35	0x3f823a83	1.0174106
36	0xbede75ee	-0.43449348
37	0xbf1645b4	-0.5870011
38	0xbfa4c426	-1.287236
39	0x3f347b4f	0.70500654
40	0xbf5787e6	-0.8419174
41	0xbe185f35	-0.14880069
42	0xbe2438c4	-0.1603728
43	0xbec0e7d3	-0.37676868
44	0x3f8771e2	1.0581629
45	0xbdc7dce7	-0.09758931
46	0xbd6d4fa8	-0.057937294
47	0x3f0ea357	0.55717987
48	0x3faecd75	1.365645
49	0xbee7d6e4	-0.45281136
50	0x3fc09417	1.5045193
51	0x3d8f0b26	0.06984548
52	0xbf27852c	-0.6543758
53	0x3f6c736a	0.9236361
54	0xbf92c2b6	-1.1465671
55	0xbf8ac36c	-1.0840888
56	0xbf81fbc7	-1.0154961
57	0xbff3518a	-1.9009259
58	0xc067d345	-3.6222699
59	0xbfc04fd1	-1.5024358
60	0xbf65ed37	-0.89815086
61	0xbefadbb3	-0.48995742
62	0xbdbee2ec	-0.09320626
63	0x3f4e13bf	0.8049888
64	0x3e91d53d	0.28483
65	0xbe0029b3	-0.12515907
66	0x3cd46b39	0.025930034
67	0x3f101013	0.5627453
68	0xbf030ffc	-0.51196265
69	0xbf6c24ca	-0.92243636
70	0xbf80307e	-1.0014799
71	0x3dc9dfb5	0.09857122
72	0xbf0b8856	-0.5450491
73	0x3e5990c7	0.21246634
74	0xbe01b223	-0.1266561
75	0xbf641ac3	-0.89103335
76	0x3ec3ef28	0.382684
77	0x3de5bb70	0.112173915
78	0xbe015cd8	-0.12633073
79	0x3dd2fcc7	0.1030212
80	0x3e85a736	0.26104134
81	0xbef31f40	-0.4748478
82	0x3f073e50	0.52829456
83	0xbe05f266	-0.13080749
84	0xbf1d0456	-0.6133474
85	0x3e62246c	0.22084206
86	0xbfae9de7	-1.3641938
87	0xbf7a75fc	-0.9783628
88	0xbefff175	-0.49988905
89	0xbff65b95	-1.9246699
90	0xc006049b	-2.094031
91	0xbe3a3b80	-0.1818676
92	0xbf85777b	-1.0427088
93	0x3e15a100	0.14612198
94	0xbc710990	-0.0147117525
95	0xbcbf9bc3	-0.023389703
96	0xbff3cda0	-1.9047127
97	0x3d32396e	0.0435118
98	0xbfe4b840	-1.7868729
99	0x3f12502e	0.57153594
100	0xbfce94bc	-1.613914
101	0x3d894526	0.06702642
102	0x3f72abd2	0.94793427
103	0x3edade35	0.42747656
104	0xbf91d809	-1.1394054
105	0x3d7be6be	0.06149935
106	0x3c06d850	0.008230284
107	0xbf6daa93	-0.928384
108	0xbf96288d	-1.1731125
109	0x3c46ff75	0.012145867
110	0xbd854dfd	-0.06509016
111	0x3ee29fc6	0.44262522
112	0xbf8f03a1	-1.1172982
113	0x3f93f0e0	1.1557884
114	0x3f2db4ae	0.6785382
115	0x3d003244	0.031297937
116	0x3fe526a4	1.7902417
117	0xbf861233	-1.0474304
118	0xbf97f0a8	-1.1870317
119	0x3dde26bf	0.10847234
120	0xbdec8fe6	-0.11550884
121	0x3eae522b	0.34047064
122	0x3f26c44d	0.6514328
123	0x3f179779	0.59215504
124	0xbf0a76eb	-0.54087704
125	0xbddf4139	-0.10901112
126	0xbdd54d75	-0.104151644
127	0x3f309613	0.68978995
128	0xbe0a0683	-0.13479047
129	0xbd4413dc	-0.047870502
130	0x3d802e38	0.062588155
131	0xbeadbc2e	-0.33932632
132	0xbe2f961a	-0.17147103
133	0xbec4b2a9	-0.38417557
134	0x3db6fe16	0.08935182
135	0xbd8fd7fd	-0.07023618
136	0xbe5eaa42	-0.21744636
137	0xbdefff94	-0.117186695
138	0xbd977603	-0.07395556
139	0xbeb2b27c	-0.34901798
140	0xbeb02087	-0.34399816
141	0xbdc1a4c8	-0.09455258
142	0xbc49b650	-0.012311533
143	0xbd9c1914	-0.07621971
144	0xbe754592	-0.2395232
145	0xbdf627ad	-0.12019286
146	0xbe8f3004	-0.2796632
147	0x3db42176	0.08795445
148	0xbd12b6c0	-0.035818815
149	0xbeaea9be	-0.34113878
150	0x3c54ecc0	0.012995899
151	0xbe94f661	-0.29094222
152	0xbd8c9134	-0.06863633
153	0xbe7d58cf	-0.24740909
154	0xbe4e09a7	-0.2012087
155	0xbd1cc0cc	-0.038269803
156	0x3de7b0be	0.11313008
157	0x3e27c875	0.16385062
158	0x3cc90930	0.024540514
159	0xbe8c55f0	-0.27409315
160	0x3dc81556	0.097696945
161	0xbd9c3004	-0.07626346
162	0xbc906268	-0.017625049
163	0xbdd7c3a2	-0.10535361
164	0xbdd54041	-0.10412646
165	0xbdc4f547	-0.096170954
166	0xbddec476	-0.10877316
167	0xbd090154	-0.033448532
168	0x3e20455b	0.15651457
169	0xbe2e4303	-0.1701775
170	0xbe1943b8	-0.14967239
171	0xbe20b366	-0.15693435
172	0xbe11946a	-0.14216772
173	0x3d6ca9ec	0.057779238
174	0xbd0e59c8	-0.03475359
175	0xbd9a6f6f	-0.075407855
176	0xbe2ea4be	-0.17055032
177	0x3d601b2c	0.054713413
178	0xbdc71c93	-0.09722247
179	0xbe271031	-0.1631477
180	0xbe205926	-0.15659007
181	0x3caf3120	0.02138573
182	0x3db862f6	0.0900325
183	0x3df05902	0.11735727
184	0xbdfe844c	-0.124275774
185	0xbe0d296e	-0.13785335
186	0x3e04c87d	0.12967105
187	0xbd399e3c	-0.04531692
188	0xba914880	-0.0011084229
189	0x3daaf68e	0.08347808
190	0xbe0b1ce4	-0.1358524
191	0xbbdfccc0	-0.006829828
192	0xbd3487be	-0.044074766
193	0xbe5280ed	-0.20556994
194	0xbe05d324	-0.13068825
195	0xbe26dd39	-0.16295327
196	0xbe23c685	-0.15993698
197	0x3dac5f93	0.08416667
198	0xbc11b9a8	-0.008894362
199	0x3d960818	0.073257625
200	0xbd88a160	-0.06671405
201	0xbe191f0b	-0.14953248
202	0xbdea9814	-0.11454788
203	0xbe688bb4	-0.22709543
204	0x3ca367f2	0.019947026
205	0x3dda59eb	0.10661682
206	0x3e2e6bf7	0.17033373
207	0xbdcd2912	-0.10017599
208	0x3ba25407	0.0049538645
209	0xbdee3d6c	-0.11632809
210	0xbe1a1003	-0.1504517
211	0xbddc059e	-0.10743259
212	0xbe1cc7b0	-0.1531055
213	0xbdcc5ae0	-0.099782705
214	0xbe26c2f4	-0.16285306
215	0xbd193824	-0.037407055
216	0xbe665832	-0.22494581
217	0xbd2901c1	-0.04126144
218	0x3d629ef4	0.05532737
219	0x3d3a6181	0.045503143
220	0x3c890b1a	0.016728926
221	0x3dc48015	0.09594742
222	0x3e2a4fdd	0.16632028
223	0xbe5375f7	-0.20650469
224	0x3f4f1019	0.8088394
225	0x3f0fd18d	0.56179124
226	0x3f9c9d43	1.2235492
227	0x3f4631a8	0.7741952
228	0x3ea01261	0.31264022
229	0xbf341ec5	-0.7035945
230	0x3f06a186	0.52590215
231	0x3c1a4fa1	0.009418399
232	0xbf284a5b	-0.6573846
233	0x3d421890	0.047386706
234	0x3ddb094e	0.10695134
235	0xbf7ba21b	-0.9829423
236	0x3f39ffd5	0.72655994
237	0x3d27ed83	0.040997993
238	0xbd9a1db2	-0.07525195
239	0x3f013f1c	0.5048692
240	0x3f93fc2e	1.1561334
241	0xbf81f80a	-1.015382
242	0x3fb78a61	1.4339105
243	0x3dd37726	0.1032546
244	0xbf391abf	-0.72306436
245	0x3e5ec4ba	0.21754733
246	0xbecdc9e6	-0.401931
247	0xbf733b1b	-0.9501206
248	0xbec52b11	-0.3850942
249	0xc0173668	-2.3626957
250	0xc0136e3e	-2.3036036
251	0x3e7da3d0	0.24769521
252	0x3efe787e	0.49701303
253	0x3f8bdd99	1.0927001
254	0xbdca0518	-0.09864253
255	0x3f5f80fa	0.8730618

layer2.bias f4 [32]
0	0xbe657b18	-0.22410238
1	0x40a6ba2a	5.210225
2	0x40420aab	3.0319011
3	0xc0297ab4	-2.6481142
4	0x3ca8c923	0.020603722
5	0x3da9210e	0.08258258
6	0xbe6e42d6	-0.23267683
7	0x409c814e	4.8907843
8	0x40d06b14	6.513071
9	0x403ce35a	2.9513764
10	0xbe163c88	-0.14671528
11	0xbd86bd5e	-0.06579088
12	0x40b822b5	5.7542367
13	0xbdd8b489	-0.10581309
14	0x3dd5aa96	0.10432927
15	0x4056582a	3.349131
16	0xbd3436f8	-0.043997735
17	0x40cedec1	6.4646916
18	0x4096ef5d	4.716719
19	0xbe0fe520	-0.14052248
20	0x4072c67d	3.7933648
21	0x40629ac5	3.5406964
22	0xbe15a39a	-0.1461319
23	0x3d2d5ba8	0.04232374
24	0xbe66cec8	-0.22539818
25	0xbe630022	-0.2216802
26	0xc0a74236	-5.2268324
27	0xbe218a1e	-0.15775344
28	0x40b75632	5.729272
29	0xc034aba1	-2.8229754
30	0xbe222def	-0.15837835
31	0x4085a352	4.1761866

layer3.weight f4 [32, 32]
0	0xbda7e059	-0.08197088
1	0x3c93b767	0.018031789
2	0x3a57f064	0.000823742
3	0xbe3a5982	-0.18198207
4	0x3dae1ece	0.08501969
5	0x3c7b79a0	0.015348822
6	0xbda9c376	-0.08289234
7	0xbe66309d	-0.22479482
8	0xbd7fb1ec	-0.06242554
9	0x3cfa9f97	0.030593676
10	0xbe2dbe50	-0.1696713
11	0xbe1143ba	-0.14185992
12	0xbe214a43	-0.15750985
13	0x3d07ea74	0.033182576
14	0xbdea9c00	-0.11455536
15	0xbd683d83	-0.056699287
16	0xbbdee920	-0.006802693
17	0xbc979905	-0.018505583
18	0xbbaa9df6	-0.0052068187
19	0xbe048df2	-0.12944773
20	0xbe57041f	-0.20997666
21	0xbe65dccf	-0.22447513
22	0xbdec54ba	-0.11539598
23	0x3d901306	0.070348784
24	0xbe01c715	-0.126736
25	0x3e258f57	0.16167961
26	0xbdc51295	-0.09622685
27	0xbd6dfd99	-0.058103178
28	0x3b8b806d	0.004257253
29	0xbdf2d0d1	-0.11856235
30	0xbdc3c3f9	-0.09558863
31	0x3de98cd1	0.11403812
32	0x3e12af92	0.14324787
33	0x4020ea27	2.5142915
34	0x3f88c2f5	1.0684496
35	0xbe9a9119	-0.30188826
36	0x3e1d258c	0.15346354
37	0xbdc39dad	-0.09551559
38	0x3d91c3cd	0.07117424
39	0x3fa32f14	1.2748742
40	0x3fe6e781	1.8039399
41	0x3fb435a6	1.4078872
42	0x3e4628f4	0.1935156
43	0x3db51493	0.08841815
44	0x3fafda78	1.3738546
45	0x3d7114e8	0.05885783
46	0xbdef263c	-0.116772145
47	0x3f9f1ae7	1.2430085
48	0x3facd5e3	1.3502773
49	0x3fc12a8d	1.509111
50	0x3fd70ebb	1.680137
51	0x3a671aa0	0.0008815918
52	0xbdb8f926	-0.09031896
53	0x3f01b045	0.5065959
54	0xbe5177dc	-0.20455879
55	0x3d2a66b4	0.04160185
56	0x3e076d1c	0.13225216
57	0xbe30fa6c	-0.17283028
58	0x3f30276e	0.68810165
59	0xbe0d8a0b	-0.1382219
60	0x3f9d0ba8	1.2269182
61	0x3e55ca15	0.2087787
62	0xbdf6b077	-0.12045377
63	0x3fe26667	1.7687501
64	0xbd8b341d	-0.06797049
65	0xbd293cec	-0.041317865
66	0x3cb4e73d	0.02208292
67	0x3d906ee3	0.070524
68	0x3e29eb4b	0.16593663
69	0xbe138202	-0.14405063
70	0xbcaaef28	-0.020865992
71	0xbec74600	-0.38920593
72	0xbecc8c27	-0.39950678
73	0xbe52631c	-0.2054562
74	0xbe29d53d	-0.1658525
75	0xbde3927e	-0.111119255
76	0xbeadfbe0	-0.33981228
77	0x3e18db75	0.14927466
78	0x3d3286e4	0.043585673
79	0xbe0577a8	-0.13033926
80	0xbe3b1ef8	-0.18273532
81	0x3ebd8dfd	0.3702239
82	0xbe3cfa58	-0.18454874
83	0x3df25352	0.11832298
84	0xbf0faa8f	-0.56119627
85	0xbdc11d37	-0.094294004
86	0x3e218e0b	0.15776841
87	0xbde8145f	-0.113320105
88	0xbe237808	-0.15963757
89	0xbdf9643e	-0.12177323
90	0xbe940e4f	-0.28917167
91	0x3c87ad9b	0.016562274
92	0xbedf003e	-0.43554872
93	0xbf097520	-0.53694344
94	0x3d93a83a	0.07209821
95	0xbed1ee0d	-0.4100193
96	0xbe3fc0fa	-0.18725958
97	0xbfa472bf	-1.2847518
98	0xbffed393	-1.9908317
99	0x3e3d0f5f	0.18462895
100	0xbd65e447	-0.056125905
101	0x3e2980bb	0.16553013
102	0x3de47254	0.11154619
103	0xc014aaaf	-2.3229177
104	0xbf8826ef	-1.0636882
105	0xc017afab	-2.370097
106	0xbcd8fc9c	-0.026487641
107	0xbe0fc2b8	-0.14039123
108	0x3edaba11	0.42720082
109	0xbdecca1d	-0.115619875
110	0xbd15a15c	-0.036530837
111	0xbffacc06	-1.9593513
112	0x3f729914	0.9476483
113	0x3ea1e863	0.3162261
114	0xbf8804a7	-1.062642
115	0xbca5831d	-0.020204121
116	0xc0c6fe5a	-6.218549
117	0xc0124cb7	-2.2859323
118	0x3e26cdc7	0.16289435
119	0xbdbfa4dc	-0.09357616
120	0xbe19a101	-0.15002824
121	0x3e9fcc54	0.31210577
122	0xbffbc326	-1.966893
123	0xbe30a34e	-0.17249796
124	0x3ef21daf	0.47288272
125	0x3f47e61f	0.7808551
126	0x3df21fba	0.118224576
127	0xc00d48ab	-2.2075603
128	0x3e20e317	0.15711628
129	0x402ac79c	2.6684332
130	0x3faa6f05	1.331513
131	0xbe7476cf	-0.23873447
132	0x3e7b47cd	0.24539109
133	0xbdec82e6	-0.115484044
134	0x3e4a8b45	0.1977969
135	0x40023138	2.034254
136	0x400b16fd	2.173278
137	0x3ffc9260	1.973217
138	0x3e5835fd	0.21114345
139	0x3d175d2c	0.03695409
140	0x3fbdf12f	1.4839228
141	0xbcb03a4d	-0.021512175
142	0x3d176e50	0.036970437
143	0x3faabeb8	1.3339453
144	0x3f8f44b0	1.1192837
145	0x3fe13956	1.7595623
146	0x3ffa95a4	1.9576917
147	0x3db92230	0.09039724
148	0x3e9ea76c	0.30987108
149	0x3f54bf24	0.8310416
150	0xbd9b21d1	-0.07574809
151	0xbcb6dba8	-0.022321537
152	0x3dfe525b	0.12418052
153	0xbea35bce	-0.3190598
154	0x3f34ccc4	0.7062495
155	0xbe38abc1	-0.18034269
156	0x3fbc499c	1.4709964
157	0x3e8f3cd5	0.279761
158	0xbe32acae	-0.17448685
159	0x3ffeca4b	1.9905485
160	0xbdd42016	-0.103576824
161	0x3c28fadc	0.010313716
162	0xbe464ddc	-0.19365638
163	0x3d67e508	0.056614906
164	0x3d589908	0.052880317
165	0xbda8ff4a	-0.082518175
166	0xbe439ce5	-0.1910282
167	0xbd679b15	-0.056544382
168	0xbc212510	-0.009835497
169	0xbe5b1760	-0.21395636
170	0xbc64ad64	-0.013957355
171	0x3d2144de	0.039372317
172	0xbc9b381c	-0.018947653
173	0xbe2c4917	-0.16824757
174	0xbdda8b70	-0.10671127
175	0xbe421f16	-0.18957171
176	0xbdd51f88	-0.10406405
177	0xbd0e915c	-0.034806594
178	0xbce2e9d5	-0.02769939
179	0x3e11fb15	0.14255936
180	0x3cdbdb7c	0.026838057
181	0x3c1329f8	0.008982174
182	0x3e485705	0.19564445
183	0x3ddf4d42	0.10903408
184	0xbe027182	-0.12738612
185	0xbddc54a3	-0.10758331
186	0xbdad3734	-0.08457795
187	0xbe24e51b	-0.16103022
188	0xbdd19d88	-0.10235125
189	0xbdb8dfba	-0.090270475
190	0xbdcbddd4	-0.0995442
191	0xbe374357	-0.17896782
192	0x3db9ced2	0.09072651
193	0xbdcf9351	-0.1013552
194	0xbcbeac1e	-0.023275431
195	0xbc79c692	-0.015245097
196	0xbe0cadb6	-0.1373814
197	0xbd2cac94	-0.04215677
198	0x3d9f1a3a	0.07768674
199	0x3c2eb1c0	0.010662496
200	0xbdccebf4	-0.10005942
201	0xbdbe8d41	-0.09304286
202	0xbe5b4f12	-0.21416882
203	0xbe05750d	-0.13032933
204	0x3ce08558	0.027407333
205	0xbe268b02	-0.16263965
206	0x3cb7c050	0.022430569
207	0x3d948ab1	0.07253016
208	0xbdce6480	-0.100777626
209	0xbdd383dc	-0.103278846
210	0xbdde77a6	-0.10862665
211	0x3d9511ae	0.07278763
212	0x3dceaa46	0.10091071
213	0xbe0ba3fe	-0.13636777
214	0x3dbda63a	0.09260221
215	0xbe331042	-0.1748667
216	0xbc8f8720	-0.017520487
217	0x3e2c46cb	0.1682388
218	0xbdc7f713	-0.097639225
219	0xbdc646c6	-0.09681468
220	0xbe3316bb	-0.1748914
221	0xbdd9fbba	-0.10643716
222	0xbde2c769	-0.11073191
223	0xbe061d54	-0.13097125
224	0xbcd9fb10	-0.026608974
225	0xbcd39ae8	-0.025830701
226	0x3d843f60	0.064574
227	0xbebfcf8e	-0.3746304
228	0x3e321caf	0.17393754
229	0x3cf0a250	0.029374272
230	0xbe2dc6b7	-0.16970335
231	0xbd6c4809	-0.057685886
232	0xbe42459c	-0.18971866
233	0xbd87bc14	-0.0662767
234	0x3dd1d8e2	0.10246445
235	0xbdaa6d18	-0.08321589
236	0xbeacf8d4	-0.3378359
237	0x3db3107a	0.08743377
238	0xbdca12d9	-0.09866876
239	0xbd60aef8	-0.054854363
240	0xbe8d4d25	-0.2759792
241	0xbe9c335a	-0.30507928
242	0xbdd2d477	-0.10294431
243	0xbdf6894a	-0.120379046
244	0xbd902734	-0.070387274
245	0x3d232a24	0.03983511
246	0x3d86fd48	0.06591278
247	0x3d4f6cb8	0.05064079
248	0xbc696980	-0.014246345
249	0xbddc4ca3	-0.10756805
250	0xbe20e7b6	-0.1571339
251	0xbe3c3c80	-0.18382454
252	0xbeac0a47	-0.3360159
253	0xbe14a583	-0.14516263
254	0x3daeb606	0.08530812
255	0xbe84312d	-0.25818768

layer3.bias f4 [32]
0	0xbe32dc5a	-0.1746687
1	0x40116e6e	2.272365
2	0xbe5c1c9b	-0.21495287
3	0xbf50d81a	-0.81579745
4	0x4050fb95	3.2653553
5	0x3ceb39da	0.02871411
6	0xbcb17757	-0.021663351
7	0xbe8a69aa	-0.2703374
8	0xbfa859dd	-1.3152424
9	0xbf87721e	-1.0581701
10	0x4000de85	2.0135815
11	0xc00bd4ea	-2.1848702
12	0x403fa2f1	2.9943202
13	0xbfcb1bea	-1.5867894
14	0xbfee5e01	-1.8622438
15	0xbe021d6d	-0.12706538
16	0xbfb100c4	-1.3828359
17	0xbf762ab5	-0.96158916
18	0xbea438e6	-0.3207466
19	0x40414269	3.0196784
20	0xbe1cd098	-0.15313947
21	0x3c572c2f	0.013133093
22	0xbf63d932	-0.8900329
23	0xbd8813c5	-0.06644396
24	0x3ff16d4d	1.8861481
25	0xbfc2d737	-1.5221928
26	0x4023973b	2.5561054
27	0xbd901be3	-0.07036569
28	0x3dc51d41	0.0962472
29	0xbd932f93	-0.071868084
30	0xbf2181a2	-0.6308843
31	0xbfeaa3f7	-1.8331288

output_layer.weight f4 [1, 32]
0	0x3d2bece3	0.04197396
1	0x3fdd2551	1.7277013
2	0x3e9fc796	0.3120696
3	0xc0104da4	-2.2547388
4	0x3fd3bafb	1.6541437
5	0x3b4f1ff5	0.0031604741
6	0x3d364ecb	0.044508737
7	0x3d9d6344	0.07684949
8	0xc0186760	-2.3813095
9	0xc00283ca	-2.0392938
10	0x3fe14a6a	1.7600834
11	0xc01b157d	-2.4231865
12	0x3fdf3ffa	1.7441399
13	0xbfbdbba5	-1.482289
14	0xc01d4bc7	-2.45775
15	0x3cabe66e	0.0209839
16	0xc024edeb	-2.5770214
17	0xc01bfc96	-2.4372916
18	0xbe08b934	-0.133519
19	0x3fde8d9c	1.7386966
20	0xbd2fcfc5	-0.042922754
21	0xbda51ecf	-0.08062517
22	0xc0310449	-2.7658865
23	0xbc60360b	-0.01368476
24	0x3fd2a16a	1.645551
25	0xbf89b59e	-1.075855
26	0x3fddfea8	1.734334
27	0x384bc8ba	4.8585913e-05
28	0xbc8f5558	-0.01749675
29	0xbe028d58	-0.12749231
30	0xc01e2a24	-2.471322
31	0xc0104bdc	-2.25463

exp_avg f4 [32, 6]
0	0xbc1b51e2	-0.009479972
1	0xbc2f3d82	-0.010695817
2	0xba1ba8d3	-0.00059379375
3	0x39ce2a2b	0.000393228
4	0xbbec342e	-0.0072083687
5	0xb9d6538a	-0.00040879502
6	0xbba93a51	-0.0051644226
7	0xbbf183f8	-0.007370468
8	0xb9e99eda	-0.00044559577
9	0x399edaff	0.00030299273
10	0xbbac87e9	-0.005265225
11	0xb990da11	-0.00027628292
12	0xbc4bce87	-0.012439377
13	0xbbf21fa4	-0.0073890258
14	0x38245693	3.9181275e-05
15	0xb9c7e873	-0.00038129426
16	0xbb3e1036	-0.0029001362
17	0xb7cec992	-2.4650977e-05
18	0xbc4b3df5	-0.012404908
19	0xbc38ba7e	-0.011274932
20	0xba2d78cf	-0.0006617428
21	0x3a9fd0f5	0.0012193011
22	0xbbfb2c89	-0.007665221
23	0xb9f87926	-0.0004739251
24	0x00000004	6e-45
25	0x00000004	6e-45
26	0x00000004	6e-45
27	0x00000004	6e-45
28	0x00000004	6e-45
29	0x00000004	6e-45
30	0x3c004589	0.0078290785
31	0x3be5134d	0.006990826
32	0x39a375da	0.0003117759
33	0xba050b12	-0.0005075197
34	0x3b8556df	0.0040691937
35	0x3987414f	0.00025797865
36	0x00000004	6e-45
37	0x00000004	6e-45
38	0x00000004	6e-45
39	0x00000004	6e-45
40	0x00000004	6e-45
41	0x00000004	6e-45
42	0xbb344a32	-0.0027510044
43	0xbb8ce9a6	-0.004300314
44	0xb9a6e168	-0.00031829928
45	0x398dea0f	0.00027068003
46	0xbb5e95ad	-0.0033963725
47	0xb95c2415	-0.00020994277
48	0x3b4ecdba	0.0031555728
49	0x3b9d9f6a	0.0048102634
50	0x393a8061	0.00017786167
51	0xba026b27	-0.00049750734
52	0x3ae94fd5	0.0017800281
53	0x39857896	0.0002545758
54	0x00000004	6e-45
55	0x00000004	6e-45
56	0x00000000	0.0
57	0x00000004	6e-45
58	0x00000004	6e-45
59	0x00000000	0.0
60	0x00000000	0.0
61	0x00000000	0.0
62	0x00000000	0.0
63	0x00000000	0.0
64	0x00000000	0.0
65	0x00000000	0.0
66	0x3b9fd750	0.004877962
67	0x3bf40aac	0.0074475612
68	0x397e61ee	0.0002425981
69	0xb9f666e4	-0.00046997436
70	0x3b452e4e	0.0030087414
71	0x399b6ce5	0.00029645037
72	0xbbf3733e	-0.0074295094
73	0xbc0ea25f	-0.0087057045
74	0xba104183	-0.0005502926
75	0x39d8b689	0.0004133473
76	0xbbcd7c54	-0.0062709246
77	0xb9c52626	-0.0003760319
78	0x00000004	6e-45
79	0x00000004	6e-45
80	0x00000000	0.0
81	0x00000004	6e-45
82	0x00000004	6e-45
83	0x00000000	0.0
84	0x00000000	0.0
85	0x00000000	0.0
86	0x00000000	0.0
87	0x00000000	0.0
88	0x00000000	0.0
89	0x00000000	0.0
90	0xbbaf0c80	-0.0053420663
91	0xbbec4239	-0.007210043
92	0xb9e37752	-0.00043385715
93	0x395d2cff	0.00021092965
94	0xbba86afe	-0.0051397076
95	0xb98d6c2b	-0.00026974207
96	0xbc3f3283	-0.011669758
97	0xbc582e91	-0.013194696
98	0xba4c2b37	-0.0007788422
99	0x3a54ac0b	0.00081127946
100	0xbc16f233	-0.009213018
101	0xba0c9503	-0.00053627806
102	0x00000004	6e-45
103	0x00000004	6e-45
104	0x00000004	6e-45
105	0x00000004	6e-45
106	0x00000004	6e-45
107	0x00000004	6e-45
108	0xbcaa3b16	-0.020780127
109	0xbc6f45ec	-0.014604073
110	0xba68649b	-0.0008865089
111	0x3a891622	0.0010458867
112	0xbc28e42c	-0.010308307
113	0xba1ccb30	-0.0005981205
114	0x00000000	0.0
115	0x00000000	0.0
116	0x00000000	0.0
117	0x00000000	0.0
118	0x00000000	0.0
119	0x00000000	0.0
120	0x00000004	6e-45
121	0x00000004	6e-45
122	0x00000004	6e-45
123	0x00000004	6e-45
124	0x00000004	6e-45
125	0x00000004	6e-45
126	0xbba19910	-0.0049315766
127	0xbbcbf8a3	-0.006224708
128	0xb9e81a23	-0.00044269962
129	0x39c932ab	0.00038375458
130	0xbb9c3f8a	-0.0047683166
131	0xb99ec6cc	-0.00030284224
132	0xbb2cc22a	-0.0026360848
133	0x3b629c4a	0.0034578019
134	0x398a0e5d	0.00026332113
135	0xba66cc38	-0.00088042347
136	0x3b0bd356	0.0021335683
137	0x398eef1c	0.000272625
138	0x3cf3a043	0.029739505
139	0x3c32905e	0.010898678
140	0x3942a237	0.00018561711
141	0x3a4f9745	0.0007918964
142	0x3b8046d6	0.0039146943
143	0x398a4c29	0.00026378155
144	0x00000004	6e-45
145	0x00000004	6e-45
146	0x80000004	-6e-45
147	0x00000004	6e-45
148	0x00000004	6e-45
149	0x00000004	6e-45
150	0x3d56e556	0.052464806
151	0x3c9cd331	0.019143673
152	0x3a794ce5	0.00095100544
153	0xba3c549f	-0.00071842404
154	0x3c46c112	0.0121309925
155	0x3a42ac6b	0.0007426205
156	0xbd3011e3	-0.042985808
157	0x3b096064	0.0020961994
158	0x3a9617d7	0.0011451197
159	0xbbbc642f	-0.0057492475
160	0xbb00accc	-0.0019634245
161	0xb86d9b3e	-5.6649784e-05
162	0x3c6cbe5f	0.014449685
163	0x3b98de2b	0.0046651564
164	0xb8cb4236	-9.692127e-05
165	0x3ab5e998	0.001387882
166	0x3985d698	0.00025527622
167	0x39bcf805	0.00036042943
168	0xbb3f2d59	-0.0029171316
169	0x3b2f8b26	0.002678582
170	0x396c7b45	0.00022552635
171	0xbaa1a94e	-0.0012333782
172	0x3b053424	0.0020325268
173	0x3957adcc	0.00020568742
174	0xbbbb1c3f	-0.0057101543
175	0xbbf1dcbb	-0.0073810495
176	0xb893e120	-7.051439e-05
177	0xb9c7540a	-0.00038018852
178	0xbabb92bc	-0.0014310698
179	0xb8316d33	-4.230179e-05
180	0x00000000	0.0
181	0x00000000	0.0
182	0x00000000	0.0
183	0x00000000	0.0
184	0x00000000	0.0
185	0x00000000	0.0
186	0xbbfb8456	-0.007675688
187	0xbc2add69	-0.010428765
188	0xba2bb97f	-0.00065507734
189	0x3a110863	0.0005532561
190	0xbbfa2392	-0.007633635
191	0xb9d7c1f8	-0.00041152514

exp_avg_sq f4 [32, 6]
0	0x3d5c3a77	0.053766694
1	0x3b25ff8b	0.0025329317
2	0x376db3de	1.4168179e-05
3	0x39dcb5b1	0.0004209704
4	0x3b34ad58	0.0027569141
5	0x3685cfd8	3.987905e-06
6	0x3cb27240	0.021782994
7	0x3a89f696	0.0010525759
8	0x36ca1317	6.0222915e-06
9	0x39430417	0.00018598173
10	0x3a9a9fab	0.0011796852
11	0x35dab406	1.6294659e-06
12	0x3bbf068c	0.005829638
13	0x3a8df996	0.0010831829
14	0x35286dd9	6.2744726e-07
15	0x37512cb2	1.2467777e-05
16	0x39cceb82	0.0003908538
17	0x3484d32c	2.4740564e-07
18	0x3d78905e	0.060684554
19	0x3b371254	0.0027934508
20	0x3786c2c6	1.6064743e-05
21	0x3a6735e6	0.0008819982
22	0x3b46c059	0.003032705
23	0x369ed6fa	4.7337935e-06
24	0x36d0280b	6.2035447e-06
25	0x36b12ce6	5.280238e-06
26	0x30874731	9.842777e-10
27	0x328e7b10	1.6586938e-08
28	0x3579de65	9.3083355e-07
29	0x2f9f9af3	2.903203e-10
30	0x3cbd726f	0.023125855
31	0x3a8bc191	0.0010662546
32	0x36bfa57d	5.711509e-06
33	0x394e2343	0.00019658827
34	0x3a8f45f4	0.0010930882
35	0x35e5ebd5	1.7130466e-06
36	0x2b6a18bc	8.3167826e-13
37	0x2bfb8f51	1.7874401e-12
38	0x245a27a3	4.7304788e-17
39	0x24e0725b	9.733824e-17
40	0x298068fa	5.7025524e-14
41	0x24ef65db	1.0382228e-16
42	0x3c337fa1	0.010955722
43	0x39e9761c	0.00044529221
44	0x364a1e54	3.0118e-06
45	0x38fdd525	0.000121036814
46	0x3a18b6a9	0.00058255583
47	0x355c4337	8.2054197e-07
48	0x3c6fa11e	0.014625816
49	0x3a1acc17	0.00059050455
50	0x363492a5	2.6907449e-06
51	0x38f210eb	0.000115426104
52	0x3a080d12	0.0005189936
53	0x3591ee26	1.0872652e-06
54	0x033b0e31	5.497065e-37
55	0x00425309	6.09093e-39
56	0x00000000	0.0
57	0x00953aee	1.3704629e-38
58	0x033b0e31	5.497065e-37
59	0x00000000	0.0
60	0x00000000	0.0
61	0x00000000	0.0
62	0x00000000	0.0
63	0x00000000	0.0
64	0x00000000	0.0
65	0x00000000	0.0
66	0x3cfda3f0	0.03096196
67	0x3ac51f1f	0.0015039182
68	0x36d4e16e	6.344336e-06
69	0x3994faa3	0.000284155
70	0x3a94b91e	0.0011346673
71	0x360ff723	2.1452513e-06
72	0x3d1f83fc	0.03894423
73	0x3ae76e5e	0.0017656793
74	0x3737909d	1.094132e-05
75	0x39a780db	0.00031948727
76	0x3b086773	0.0020813614
77	0x364d6de1	3.0611338e-06
78	0x0b574e6b	4.146649e-32
79	0x084d518c	6.17858e-34
80	0x00000000	0.0
81	0x0ad964b7	2.0934225e-32
82	0x09a3173a	3.9262665e-33
83	0x00000000	0.0
84	0x00000000	0.0
85	0x00000000	0.0
86	0x00000000	0.0
87	0x00000000	0.0
88	0x00000000	0.0
89	0x00000000	0.0
90	0x3cb9ad5c	0.022665672
91	0x3a893b28	0.00104699
92	0x36c8b088	5.9810154e-06
93	0x398fe899	0.00027448384
94	0x3a9c4b4a	0.0011924293
95	0x35dac9ca	1.6300994e-06
96	0x3da8e82b	0.082474075
97	0x3b77fb9c	0.003783918
98	0x37bdc56b	2.2622486e-05
99	0x3a34bbbb	0.0006894429
100	0x3b8c1743	0.004275234
101	0x36d75fa5	6.418634e-06
102	0x2559fe8d	1.8907995e-16
103	0x253c992b	1.6358296e-16
104	0x1e8b6389	1.4758364e-20
105	0x20d1c6cd	3.5537533e-19
106	0x23ea70bc	2.5418076e-17
107	0x1ecfb6cf	2.1992585e-20
108	0x3dd44f4b	0.103666864
109	0x3b945619	0.004526865
110	0x37e4b37b	2.7263295e-05
111	0x3ae8240c	0.0017710938
112	0x3ba7af77	0.0051173526
113	0x3706cdce	8.03494e-06
114	0x00000000	0.0
115	0x00000000	0.0
116	0x00000000	0.0
117	0x00000000	0.0
118	0x00000000	0.0
119	0x00000000	0.0
120	0x33084d1b	3.1735095e-08
121	0x330fc8c1	3.3477367e-08
122	0x2cc4c274	5.5922437e-12
123	0x2f142311	1.347298e-10
124	0x310f5fcf	2.08637e-09
125	0x2bc6f0cd	1.4135582e-12
126	0x3cb6a48a	0.022295255
127	0x3a7d7d2d	0.0009669837
128	0x36d72919	6.4122837e-06
129	0x393b2cd9	0.00017850417
130	0x3a9f7f8b	0.0012168748
131	0x35ed22d6	1.7668015e-06
132	0x3c71bae2	0.014754029
133	0x39f091e3	0.0004588506
134	0x365fbddf	3.334011e-06
135	0x3907a4d2	0.00012936004
136	0x3a0562f5	0.0005088293
137	0x359362a8	1.0981066e-06
138	0x3d2f8fb2	0.042861648
139	0x3b11d95c	0.00222548
140	0x3713b914	8.804975e-06
141	0x39bd5de3	0.0003611884
142	0x3b11dea1	0.0022257941
143	0x363fa6a4	2.8558215e-06
144	0x2ed55125	9.700533e-11
145	0x2c60302d	3.1859057e-12
146	0x2887815d	1.5044113e-14
147	0x2bc7182b	1.4146508e-12
148	0x2d5aed11	1.2444505e-11
149	0x279c0367	4.3302387e-15
150	0x3e1cd3d8	0.15315187
151	0x3bdeb948	0.0067969896
152	0x38293e75	4.0350908e-05
153	0x3a9dc2bf	0.0012036188
154	0x3bed105d	0.0072346167
155	0x374b4c19	1.2117461e-05
156	0x3d94d8b1	0.07267893
157	0x3b0dc907	0.0021634714
158	0x371ba12f	9.276248e-06
159	0x3a4e1bab	0.0007862399
160	0x3b0950e8	0.0020952765
161	0x36532766	3.1464383e-06
162	0x3cdc5a37	0.026898487
163	0x3a5437b6	0.000809546
164	0x36711343	3.592301e-06
165	0x3905fb3b	0.00012777459
166	0x3a37a57c	0.0007005555
167	0x35b668a2	1.3590509e-06
168	0x3c49bcd9	0.012313091
169	0x39cc5843	0.00038975672
170	0x3636dc94	2.7248507e-06
171	0x39392ce7	0.00017659702
172	0x3a07f7d8	0.0005186773
173	0x355dc070	8.260895e-07
174	0x3cab3b71	0.020902367
175	0x3b05ad27	0.0020397396
176	0x36586bc8	3.2249245e-06
177	0x37fb71cf	2.9974528e-05
178	0x3a9dea2b	0.0012047937
179	0x35305a00	6.5696076e-07
180	0x00000000	0.0
181	0x00000000	0.0
182	0x00000000	0.0
183	0x00000000	0.0
184	0x00000000	0.0
185	0x00000000	0.0
186	0x3d4f9df5	0.05068775
187	0x3b0b9862	0.0021300544
188	0x375174f3	1.24846e-05
189	0x3a5f77c6	0.00085246225
190	0x3b1d450b	0.0023997452
191	0x36724eab	3.61066e-06

exp_avg f4 [32]
0	0xba5653c1	-0.00081759325
1	0xba1725fe	-0.0005765854
2	0xb9151666	-0.00014218091
3	0xba6d4b0f	-0.0009052017
4	0x00000004	6e-45
5	0x39fcf845	0.0004825016
6	0x00000004	6e-45
7	0xb9d24ff2	-0.00040113885
8	0x39b35d23	0.00034210933
9	0x00000004	6e-45
10	0x00000000	0.0
11	0x39eabd06	0.0004477279
12	0xba3ef389	-0.00072842144
13	0x00000004	6e-45
14	0x00000000	0.0
15	0xba1476da	-0.0005663462
16	0xba8a066f	-0.0010530482
17	0x00000004	6e-45
18	0xbaa03eaf	-0.0012225712
19	0x00000000	0.0
20	0x00000004	6e-45
21	0xba148d86	-0.00056668406
22	0x39ac2c4b	0.00032839397
23	0x3a1eff48	0.00060652616
24	0x00000004	6e-45
25	0x3acb3766	0.0015504181
26	0xb99a9e6b	-0.000294912
27	0x39e779cc	0.000441505
28	0x3991fa51	0.00027843055
29	0xb912876b	-0.00013974092
30	0x00000000	0.0
31	0xba5cbbf9	-0.0008420344

exp_avg_sq f4 [32]
0	0x374a1f21	1.2047386e-05
1	0x36ac8e76	5.142584e-06
2	0x35bc4273	1.4026431e-06
3	0x375f1fa8	1.3299206e-05
4	0x314193a1	2.8169114e-09
5	0x36a13d4c	4.80531e-06
6	0x2536f410	1.5868675e-16
7	0x362ca041	2.5723277e-06
8	0x362340b9	2.4326566e-06
9	0x001094c1	1.522731e-39
10	0x00000000	0.0
11	0x36b0731c	5.2586092e-06
12	0x3718ce26	9.107904e-06
13	0x05760236	1.15672705e-35
14	0x00000000	0.0
15	0x36add498	5.180551e-06
16	0x379d6719	1.8763867e-05
17	0x1fbca3f1	7.9892315e-20
18	0x37bde8c6	2.263895e-05
19	0x00000000	0.0
20	0x2ceee7e8	6.7901136e-12
21	0x36b40976	5.3655194e-06
22	0x3625040d	2.4589274e-06
23	0x3725e268	9.887481e-06
24	0x294455ab	4.3595048e-14
25	0x38073f54	3.2245487e-05
26	0x3741c8b9	1.1550431e-05
27	0x367446d3	3.6400058e-06
28	0x361f91f0	2.3777793e-06
29	0x3694ad96	4.430952e-06
30	0x00000000	0.0
31	0x3733f184	1.0725464e-05

exp_avg f4 [32, 32]
0	0x00000004	6e-45
1	0x00000004	6e-45
2	0x00000000	0.0
3	0x00000004	6e-45
4	0x00000000	0.0
5	0x00000004	6e-45
6	0x00000000	0.0
7	0x00000004	6e-45
8	0x00000004	6e-45
9	0x00000000	0.0
10	0x00000000	0.0
11	0x00000004	6e-45
12	0x00000004	6e-45
13	0x00000000	0.0
14	0x00000000	0.0
15	0x00000004	6e-45
16	0x00000004	6e-45
17	0x00000000	0.0
18	0x00000004	6e-45
19	0x00000000	0.0
20	0x00000004	6e-45
21	0x00000004	6e-45
22	0x00000000	0.0
23	0x00000004	6e-45
24	0x00000004	6e-45
25	0x00000004	6e-45
26	0x00000004	6e-45
27	0x00000000	0.0
28	0x00000004	6e-45
29	0x00000004	6e-45
30	0x00000000	0.0
31	0x00000004	6e-45
32	0xbacf65ef	-0.0015823225
33	0xbabe9649	-0.0014540638
34	0x3a81d65b	0.0009905802
35	0xbadbaac4	-0.0016759266
36	0x00000004	6e-45
37	0x3789be01	1.642015e-05
38	0x80000004	-6e-45
39	0xba8b7618	-0.0010640053
40	0x3a2d56c4	0.00066123554
41	0x00000000	0.0
42	0x00000000	0.0
43	0x3a073f87	0.00051593076
44	0xbaa1d3c3	-0.0012346435
45	0x00000004	6e-45
46	0x00000000	0.0
47	0xbacb59ac	-0.0015514395
48	0xbabc10d6	-0.0014348279
49	0x80000004	-6e-45
50	0xbac5ca94	-0.001509028
51	0x00000000	0.0
52	0x80000004	-6e-45
53	0xba977dc2	-0.0011557864
54	0x36ecd85f	7.058537e-06
55	0x38cde8a5	9.818495e-05
56	0x80000004	-6e-45
57	0x39cf06af	0.00039487096
58	0x3a16c569	0.00057514623
59	0x391930b4	0.0001460936
60	0xb978c238	-0.00023723475
61	0x3a1ef665	0.00060639373
62	0x00000000	0.0
63	0xbaa8936d	-0.0012861319
64	0x00000004	6e-45
65	0x00000004	6e-45
66	0x00000004	6e-45
67	0x00000004	6e-45
68	0x00000004	6e-45
69	0x00000004	6e-45
70	0x80000004	-6e-45
71	0x00000004	6e-45
72	0x00000004	6e-45
73	0x80000004	-6e-45
74	0x00000000	0.0
75	0x00000004	6e-45
76	0x00000004	6e-45
77	0x00000004	6e-45
78	0x00000000	0.0
79	0x00000004	6e-45
80	0x00000004	6e-45
81	0x80000004	-6e-45
82	0x00000004	6e-45
83	0x00000000	0.0
84	0x80000004	-6e-45
85	0x00000004	6e-45
86	0x00000004	6e-45
87	0x00000004	6e-45
88	0x00000004	6e-45
89	0x00000004	6e-45
90	0x00000004	6e-45
91	0x00000004	6e-45
92	0x00000004	6e-45
93	0x00000004	6e-45
94	0x00000000	0.0
95	0x00000004	6e-45
96	0x36de5f20	6.6271896e-06
97	0x3714793b	8.849714e-06
98	0x00000004	6e-45
99	0x372ce28d	1.0304747e-05
100	0x00000004	6e-45
101	0xb76c09ba	-1.4068961e-05
102	0x80000004	-6e-45
103	0x358fa9e8	1.070378e-06
104	0xb735ad08	-1.0828728e-05
105	0x00000004	6e-45
106	0x00000000	0.0
107	0xb7ac395c	-2.0530708e-05
108	0x3549c353	7.516257e-07
109	0x80000004	-6e-45
110	0x00000000	0.0
111	0x36b8d5fc	5.5085384e-06
112	0x3702e8e7	7.802831e-06
113	0x00000004	6e-45
114	0x36fd9ad4	7.558012e-06
115	0x00000000	0.0
116	0x00000004	6e-45
117	0x3599526b	1.1423375e-06
118	0x00000004	6e-45
119	0xb4b00d97	-3.2792443e-07
120	0x00000004	6e-45
121	0xb7f36f37	-2.9019646e-05
122	0xb8011720	-3.0777534e-05
123	0x00000004	6e-45
124	0x369359b1	4.391383e-06
125	0x00000004	6e-45
126	0x00000000	0.0
127	0x36868de4	4.0100294e-06
128	0x00000000	0.0
129	0x00000000	0.0
130	0x00000000	0.0
131	0x00000004	6e-45
132	0x00000000	0.0
133	0x00000004	6e-45
134	0x00000000	0.0
135	0x00000000	0.0
136	0x00000004	6e-45
137	0x00000000	0.0
138	0x00000000	0.0
139	0x00000004	6e-45
140	0x00000004	6e-45
141	0x00000000	0.0
142	0x00000000	0.0
143	0x00000000	0.0
144	0x00000004	6e-45
145	0x00000000	0.0
146	0x00000004	6e-45
147	0x00000000	0.0
148	0x00000000	0.0
149	0x00000004	6e-45
150	0x00000000	0.0
151	0x00000004	6e-45
152	0x00000000	0.0
153	0x00000004	6e-45
154	0x00000004	6e-45
155	0x00000000	0.0
156	0x00000000	0.0
157	0x00000000	0.0
158	0x00000000	0.0
159	0x00000004	6e-45
160	0x00000000	0.0
161	0x00000000	0.0
162	0x00000000	0.0
163	0x00000000	0.0
164	0x00000000	0.0
165	0x00000000	0.0
166	0x00000000	0.0
167	0x00000000	0.0
168	0x00000000	0.0
169	0x00000000	0.0
170	0x00000000	0.0
171	0x00000000	0.0
172	0x00000000	0.0
173	0x00000000	0.0
174	0x00000000	0.0
175	0x00000000	0.0
176	0x00000000	0.0
177	0x00000000	0.0
178	0x00000000	0.0
179	0x00000000	0.0
180	0x00000000	0.0
181	0x00000000	0.0
182	0x00000000	0.0
183	0x00000000	0.0
184	0x00000000	0.0
185	0x00000000	0.0
186	0x00000000	0.0
187	0x00000000	0.0
188	0x00000000	0.0
189	0x00000000	0.0
190	0x00000000	0.0
191	0x00000000	0.0
192	0x00000004	6e-45
193	0x00000004	6e-45
194	0x00000000	0.0
195	0x00000004	6e-45
196	0x00000004	6e-45
197	0x00000004	6e-45
198	0x00000004	6e-45
199	0x00000004	6e-45
200	0x00000004	6e-45
201	0x00000000	0.0
202	0x00000000	0.0
203	0x00000004	6e-45
204	0x00000004	6e-45
205	0x00000004	6e-45
206	0x00000000	0.0
207	0x00000004	6e-45
208	0x00000004	6e-45
209	0x00000004	6e-45
210	0x00000004	6e-45
211	0x00000000	0.0
212	0x00000004	6e-45
213	0x00000004	6e-45
214	0x00000004	6e-45
215	0x00000004	6e-45
216	0x00000004	6e-45
217	0x00000004	6e-45
218	0x00000000	0.0
219	0x00000004	6e-45
220	0x00000004	6e-45
221	0x00000004	6e-45
222	0x00000000	0.0
223	0x00000004	6e-45
224	0xbafc8dbf	-0.0019268318
225	0xbb0416e3	-0.0020155243
226	0xbaa4a976	-0.001256271
227	0xbb36d53c	-0.0027898094
228	0x00000004	6e-45
229	0xbb04aa56	-0.002024313
230	0x00000004	6e-45
231	0xbadb2580	-0.001671955
232	0xb842cd4c	-4.6444402e-05
233	0x00000000	0.0
234	0x00000000	0.0
235	0xba0cb387	-0.0005367328
236	0xbad7e14c	-0.0016470342
237	0x00000004	6e-45
238	0x00000000	0.0
239	0xbb21b316	-0.0024673394
240	0xbae7badf	-0.0017679593
241	0x80000004	-6e-45
242	0xbaf8590e	-0.0018947439
243	0x00000000	0.0
244	0x80000004	-6e-45
245	0xbade4a21	-0.0016959348
246	0xba5a6a8b	-0.0008331916
247	0xbadc73b9	-0.0016819156
248	0x80000004	-6e-45
249	0xba652b17	-0.00087420776
250	0xb91372a2	-0.00014061717
251	0xb9bc24b6	-0.00035885506
252	0xbb153e7e	-0.0022772844
253	0xb933982f	-0.00017127463
254	0x00000000	0.0
255	0xbadef5b8	-0.0017010486

exp_avg_sq f4 [32, 32]
0	0x19a173de	1.6693808e-23
1	0x189ee46f	4.10727e-24
2	0x00000000	0.0
3	0x188cb54d	3.637222e-24
4	0x00000000	0.0
5	0x1a26d7d0	3.4502327e-23
6	0x00000000	0.0
7	0x17f5f4ff	1.58946e-24
8	0x1a47f71f	4.1351858e-23
9	0x00000000	0.0
10	0x00000000	0.0
11	0x19a6146e	1.7172249e-23
12	0x19e31846	2.3481054e-23
13	0x00000000	0.0
14	0x00000000	0.0
15	0x1687ff22	2.1971438e-25
16	0x198aacf9	1.4338729e-23
17	0x00000000	0.0
18	0x18701619	3.103043e-24
19	0x00000000	0.0
20	0x1a03b66a	2.7237518e-23
21	0x1a299085	3.5065123e-23
22	0x00000000	0.0
23	0x195eb6f8	1.1514081e-23
24	0x19712df6	1.246869e-23
25	0x1b3b82ea	1.5510578e-22
26	0x1966d0f7	1.19329214e-23
27	0x00000000	0.0
28	0x1994819a	1.5355187e-23
29	0x1581b654	5.239035e-26
30	0x00000000	0.0
31	0x16543a27	1.7143573e-25
32	0x396828cd	0.00022140444
33	0x38dad2d3	0.00010434319
34	0x381566b3	3.5620014e-05
35	0x390fb87a	0.00013706266
36	0x3305daae	3.1165364e-08
37	0x38ea6101	0.00011176058
38	0x1d953aaf	3.950065e-21
39	0x38be5352	9.0754256e-05
40	0x376f3111	1.4256934e-05
41	0x00000000	0.0
42	0x00000000	0.0
43	0x389d6fea	7.507189e-05
44	0x39586529	0.0002063705
45	0x05eaae98	2.206939e-35
46	0x00000000	0.0
47	0x391fe53b	0.00015248817
48	0x3946ddf6	0.00018965438
49	0x1d01686f	1.7126999e-21
50	0x38fabbf2	0.000119559365
51	0x00000000	0.0
52	0x243d49af	4.1045255e-17
53	0x3917e07d	0.0001448411
54	0x3978f5ab	0.00023742641
55	0x385af2dc	5.220143e-05
56	0x2a01e5af	1.1537189e-13
57	0x39120dc0	0.00013928767
58	0x363c9631	2.8101606e-06
59	0x388f3326	6.8282985e-05
60	0x39b6c005	0.0003485681
61	0x3833533d	4.2754447e-05
62	0x00000000	0.0
63	0x388a1389	6.5839915e-05
64	0x2b5ec6f1	7.914633e-13
65	0x2ace57f1	3.6653973e-13
66	0x2b44159a	6.9663166e-13
67	0x2b1bc744	5.53436e-13
68	0x2b24971b	5.8474205e-13
69	0x25cc148d	3.5402285e-16
70	0x1f42286a	4.1114528e-20
71	0x29900eb3	6.3974345e-14
72	0x284c88ff	1.1353981e-14
73	0x0000d3fc	7.6046e-41
74	0x00000000	0.0
75	0x246ef67a	5.1816797e-17
76	0x2a33ef50	1.5981422e-13
77	0x085fbaa2	6.7326007e-34
78	0x00000000	0.0
79	0x2aeb7bcf	4.1830295e-13
80	0x2b1a4682	5.480964e-13
81	0x1e9f93a6	1.6895846e-20
82	0x2b22ba62	5.781262e-13
83	0x00000000	0.0
84	0x2482ee95	5.6782687e-17
85	0x291b2209	3.4446435e-14
86	0x271ca3b4	2.1738093e-15
87	0x28b00883	1.9543617e-14
88	0x2573ed9f	2.11574e-16
89	0x2aaae075	3.0353815e-13
90	0x232e595d	9.451482e-18
91	0x248e5ae9	6.173669e-17
92	0x2a807eae	2.282527e-13
93	0x2a8c2250	2.4892805e-13
94	0x00000000	0.0
95	0x2a8df058	2.5213403e-13
96	0x33411edc	4.496438e-08
97	0x33c1c0bc	9.022321e-08
98	0x32b2fab6	2.0835937e-08
99	0x3555a56e	7.9589415e-07
100	0x2f8fc445	2.6151006e-10
101	0x3712be86	8.746638e-06
102	0x276d1f27	3.2907245e-15
103	0x33c9a821	9.390374e-08
104	0x35df03c9	1.6615896e-06
105	0x000ab186	9.82038e-40
106	0x00000000	0.0
107	0x3697b968	4.521735e-06
108	0x33b2ea43	8.331383e-08
109	0x06cabd86	7.6262434e-35
110	0x00000000	0.0
111	0x350bd8c0	5.209695e-07
112	0x33e32872	1.0577868e-07
113	0x1e249df1	8.714749e-21
114	0x34c7f41c	3.724425e-07
115	0x00000000	0.0
116	0x2d76cad2	1.4028516e-11
117	0x33221b65	3.774348e-08
118	0x330be2a3	3.2569584e-08
119	0x35cef0bd	1.541826e-06
120	0x28427347	1.079416e-14
121	0x37c2a90b	2.3205319e-05
122	0x373544bc	1.0804444e-05
123	0x31a22c88	4.719883e-09
124	0x34d15896	3.8993738e-07
125	0x31840ef9	3.843408e-09
126	0x00000000	0.0
127	0x34847fbd	2.4679858e-07
128	0x00000000	0.0
129	0x00000000	0.0
130	0x00000000	0.0
131	0x1fe1855e	9.5511844e-20
132	0x00000000	0.0
133	0x21c96e2a	1.364945e-18
134	0x00000000	0.0
135	0x00000000	0.0
136	0x228cf12a	3.820242e-18
137	0x00000000	0.0
138	0x00000000	0.0
139	0x213acf3b	6.329352e-19
140	0x1fc63179	8.393811e-20
141	0x00000000	0.0
142	0x00000000	0.0
143	0x00000000	0.0
144	0x205abf0b	1.8528529e-19
145	0x00000000	0.0
146	0x214f9713	7.0334273e-19
147	0x00000000	0.0
148	0x00000000	0.0
149	0x1f722908	5.1279434e-20
150	0x00000000	0.0
151	0x21e33001	1.5394825e-18
152	0x00000000	0.0
153	0x24851a13	5.772373e-17
154	0x24045c42	2.8701083e-17
155	0x00000000	0.0
156	0x00000000	0.0
157	0x00000000	0.0
158	0x00000000	0.0
159	0x1e5c1dd3	1.16528705e-20
160	0x00000000	0.0
161	0x00000000	0.0
162	0x00000000	0.0
163	0x00000000	0.0
164	0x00000000	0.0
165	0x00000000	0.0
166	0x00000000	0.0
167	0x00000000	0.0
168	0x00000000	0.0
169	0x00000000	0.0
170	0x00000000	0.0
171	0x00000000	0.0
172	0x00000000	0.0
173	0x00000000	0.0
174	0x00000000	0.0
175	0x00000000	0.0
176	0x00000000	0.0
177	0x00000000	0.0
178	0x00000000	0.0
179	0x00000000	0.0
180	0x00000000	0.0
181	0x00000000	0.0
182	0x00000000	0.0
183	0x00000000	0.0
184	0x00000000	0.0
185	0x00000000	0.0
186	0x00000000	0.0
187	0x00000000	0.0
188	0x00000000	0.0
189	0x00000000	0.0
190	0x00000000	0.0
191	0x00000000	0.0
192	0x1d460d8e	2.621209e-21
193	0x1b034ba3	1.0860506e-22
194	0x00000000	0.0
195	0x18964f9c	3.8854476e-24
196	0x0b197334	2.9553397e-32
197	0x1bb290f2	2.9541299e-22
198	0x09c9d58e	4.8589816e-33
199	0x1b7471e8	2.0220012e-22
200	0x1d66f2e0	3.056581e-21
201	0x00000000	0.0
202	0x00000000	0.0
203	0x0aaa1e78	1.6381866e-32
204	0x1e0e13d7	7.52152e-21
205	0x014ac0b8	3.723981e-38
206	0x00000000	0.0
207	0x1a8f3cbd	5.924154e-23
208	0x1d09b4a8	1.8225196e-21
209	0x0b8c9083	5.4143476e-32
210	0x18bf626d	4.9471727e-24
211	0x00000000	0.0
212	0x045d5545	2.6017579e-36
213	0x1e195af9	8.118565e-21
214	0x0a587fa2	1.0424027e-32
215	0x07bed94b	2.8715736e-34
216	0x05126ed7	6.885245e-36
217	0x1d424693	2.5712172e-21
218	0x00000000	0.0
219	0x0a911cd5	1.3973838e-32
220	0x1dda1de3	5.773502e-21
221	0x0b049399	2.5533315e-32
222	0x00000000	0.0
223	0x18337b35	2.3197411e-24
224	0x38a07d93	7.6527846e-05
225	0x38250d58	3.9351493e-05
226	0x37ff6744	3.0446456e-05
227	0x38ab6a83	8.173755e-05
228	0x3407c787	1.2645442e-07
229	0x38e1e429	0.00010771334
230	0x2826bd7b	9.255938e-15
231	0x38385fd1	4.3958255e-05
232	0x37583193	1.2886146e-05
233	0x00000000	0.0
234	0x00000000	0.0
235	0x386b908a	5.616298e-05
236	0x38c779d5	9.5117524e-05
237	0x058b61cc	1.3107422e-35
238	0x00000000	0.0
239	0x3898a5f4	7.278836e-05
240	0x38915d03	6.9314636e-05
241	0x2047c7fd	1.6922126e-19
242	0x383428c5	4.2953314e-05
243	0x00000000	0.0
244	0x2e8b56a3	6.336378e-11
245	0x388c7de3	6.6991684e-05
246	0x392f9809	0.00016745938
247	0x383b780a	4.469607e-05
248	0x29b79ca4	8.1540054e-14
249	0x38a9fae3	8.105279e-05
250	0x358896b5	1.0176651e-06
251	0x38a06000	7.647276e-05
252	0x3972ff9c	0.0002317414
253	0x378c8d97	1.6755233e-05
254	0x00000000	0.0
255	0x37d89ff4	2.582369e-05

exp_avg f4 [32]
0	0x00000004	6e-45
1	0xb919ac9c	-0.00014655519
2	0x00000004	6e-45
3	0x349bf27b	2.9047428e-07
4	0x00000004	6e-45
5	0x00000000	0.0
6	0x00000004	6e-45
7	0xb9137b41	-0.00014064928
8	0xb8f9461e	-0.000118863056
9	0x00000004	6e-45
10	0x00000004	6e-45
11	0x00000004	6e-45
12	0xb879ed2a	-5.9587102e-05
13	0x00000004	6e-45
14	0x00000000	0.0
15	0x00000004	6e-45
16	0xb802f0a4	-3.121853e-05
17	0xb8c37ddd	-9.3217684e-05
18	0x3639a8c2	2.7665378e-06
19	0x00000004	6e-45
20	0xb7d7f452	-2.5743768e-05
21	0x00000004	6e-45
22	0x00000004	6e-45
23	0x00000000	0.0
24	0x00000004	6e-45
25	0x00000004	6e-45
26	0xb704f0ad	-7.92385e-06
27	0x00000004	6e-45
28	0xb87b0f4f	-5.985732e-05
29	0x380a679f	3.299827e-05
30	0x00000004	6e-45
31	0xb91f1829	-0.00015172422

exp_avg_sq f4 [32]
0	0x15401ed0	3.8798398e-26
1	0x35468e33	7.3967675e-07
2	0x274e23c1	2.8607625e-15
3	0x31973f7d	4.401896e-09
4	0x1e3bf578	9.950459e-21
5	0x00000000	0.0
6	0x18570448	2.779026e-24
7	0x34993639	2.8537923e-07
8	0x3510b4e2	5.39074e-07
9	0x20039b06	1.1147425e-19
10	0x1e2bcd03	9.09506e-21
11	0x04616a41	2.6497412e-36
12	0x33beb1c4	8.8799e-08
13	0x00002d8f	1.6343e-41
14	0x00000000	0.0
15	0x276937df	3.2365533e-15
16	0x3356224f	4.985696e-08
17	0x348e0314	2.64518e-07
18	0x33cec149	9.627781e-08
19	0x1a345d1c	3.729834e-23
20	0x320546ff	7.7577615e-09
21	0x29f30426	1.07920874e-13
22	0x05d51404	2.0037776e-35
23	0x00000000	0.0
24	0x06d9a087	8.18622e-35
25	0x15099bfb	2.7789977e-26
26	0x3428b142	1.5710705e-07
27	0x1be6191c	3.8066535e-22
28	0x33b51a34	8.4332356e-08
29	0x344b0a4c	1.8909594e-07
30	0x05f40c26	2.2950112e-35
31	0x349a4e32	2.874163e-07
