Version1/model/best_model_1.pth (torch, 37922 bytes, 21 tensors)

layer1.weight f4 [32, 6]
0	0x3e256fd4	0.1615594
1	0xbe85fb92	-0.26168495
2	0xbda3e571	-0.08002747
3	0xbf190b20	-0.597826
4	0x3f13f1d5	0.5779088
5	0x3ca7c5e5	0.020480106
6	0x3bb5bc0f	0.0055461
7	0x3e345d49	0.1761371
8	0x3b81ae0e	0.0039575165
9	0xbe458e44	-0.19292551
10	0x3e91b954	0.28461707
11	0xbe525601	-0.2054062
12	0xbd6edf96	-0.058318697
13	0x3f5f8038	0.8730502
14	0xbeb19a68	-0.34688115
15	0xbf484ccc	-0.7824218
16	0x3f6db31c	0.92851424
17	0x3eae7c21	0.34079078
18	0xbd6fa1e4	-0.058504
19	0x3f4e6260	0.8061886
20	0xbd883ef0	-0.066526294
21	0x3e2d3f2c	0.1691863
22	0x3e70a634	0.23500901
23	0xbe488e64	-0.19585568
24	0xbec8d768	-0.39226842
25	0x3ef7fa22	0.48433024
26	0xbedd5189	-0.4322627
27	0x3eafee0a	0.34361297
28	0x3fd99633	1.6998962
29	0xc02150cd	-2.5205567
30	0xbdd6aca6	-0.10482149
31	0x3f807dfc	1.0038447
32	0xbf172513	-0.59040946
33	0x3f1677f6	0.58776796
34	0xbdfa485a	-0.12220831
35	0x3f3935a2	0.7234746
36	0xbf38eaeb	-0.72233456
37	0x3f06639d	0.5249575
38	0xbe149821	-0.14511158
39	0xbf879db2	-1.0595
40	0xbeb1f7c1	-0.34759334
41	0xc012def2	-2.2948575
42	0x3e07b08c	0.13250941
43	0x3e88f228	0.2674725
44	0xbf2d7e84	-0.6777117
45	0xbed312f5	-0.412254
46	0xbe4fd527	-0.20296155
47	0x3ec3143e	0.3810138
48	0x3e408827	0.18801938
49	0x3e5327a6	0.20620593
50	0xbf3ac93f	-0.7296333
51	0x3d90bc39	0.070671506
52	0x3e65368a	0.22384086
53	0x3f2c9438	0.67413664
54	0xbdabbae9	-0.0838526
55	0xbeb50e80	-0.35362625
56	0xbde3d1b0	-0.11123979
57	0xbe8887a8	-0.26665998
58	0x3c3717d5	0.011175116
59	0x3e0977a0	0.1342454
60	0xbec1fb9e	-0.3788728
61	0x3df387b8	0.11891121
62	0x3e51f470	0.20503402
63	0xbc91e6f0	-0.017810315
64	0x3e2cebf4	0.16886884
65	0x3e743c00	0.23851013
66	0x3e08f16b	0.13373344
67	0x3e86d24f	0.26332328
68	0x3de434d5	0.111428894
69	0xbe7bb721	-0.24581577
70	0xbf0db233	-0.55350035
71	0x3fefca70	1.8733654
72	0x3e88f058	0.26745868
73	0xbe3080ea	-0.17236677
74	0x3e93f1bf	0.28895375
75	0xbf2c48af	-0.67298406
76	0xbe3583bd	-0.17726035
77	0x3d7d7f66	0.061889075
78	0xbebea74d	-0.37237015
79	0xbed2cf81	-0.41173938
80	0x3cc65230	0.024209112
81	0x3e8c0071	0.27344087
82	0x3e60aa2c	0.21939915
83	0xbeabcfec	-0.3355707
84	0xbd5875a0	-0.05284655
85	0xbe4ae67e	-0.19814488
86	0xbeb63b2f	-0.35592028
87	0xbd8a66e8	-0.06757909
88	0xbde00b28	-0.10939628
89	0xbea94ef4	-0.3306805
90	0x3cf560b8	0.029953346
91	0x3ee4d872	0.44696385
92	0xbe86ec33	-0.2635208
93	0xbddc7ebc	-0.1076636
94	0x3e680c5f	0.22660969
95	0xbd8bd246	-0.06827216
96	0x3dfe14d7	0.12406319
97	0xbe5f4c36	-0.21806416
98	0x3e52348b	0.20527856
99	0xbeacd1e1	-0.33753875
100	0x3ecd489d	0.40094462
101	0xbe9ea221	-0.3098307
102	0xbf18e6ab	-0.5972697
103	0x3eae5752	0.34050995
104	0xbf7d1083	-0.9885332
105	0xbfd29e41	-1.6454545
106	0x3dc597f7	0.096481256
107	0xbf67b8a8	-0.9051614
108	0xbd837ae2	-0.064199224
109	0x3e37c306	0.1794549
110	0x3d840df6	0.06447975
111	0x3ea0250e	0.3127827
112	0x3eeb4ad7	0.45955536
113	0xbd1d5c1a	-0.038417913
114	0xbeb65dbf	-0.35618398
115	0xbe723b8d	-0.2365553
116	0xbe6f9a6d	-0.23398753
117	0xbe9b969d	-0.30388346
118	0x3e299f20	0.16564608
119	0xbe8c12a0	-0.2735796
120	0xbe3fd542	-0.18733695
121	0x3f2f4eb3	0.6847946
122	0xbf454df6	-0.77072084
123	0x3ee2165b	0.4415768
124	0xbf87d149	-1.0610744
125	0x3fb3ba97	1.4041318
126	0x3e948d72	0.29014164
127	0xbd70922e	-0.058733158
128	0xbe7a094b	-0.24417607
129	0xbf1eae72	-0.6198493
130	0xbef48836	-0.4776017
131	0x3eca38e7	0.39496538
132	0x3e88afc4	0.266966
133	0xbed2e34e	-0.41189045
134	0x3c9488c2	0.018131617
135	0xbffdb9f5	-1.9822375
136	0x3e96d327	0.2945797
137	0xbfa7f6e1	-1.3122216
138	0xbe11b97b	-0.14230911
139	0x3f72423f	0.94632334
140	0xbf27cd68	-0.655478
141	0x3f3defed	0.7419422
142	0x3e7db44d	0.2477581
143	0x3f4eee47	0.8083233
144	0xbf068198	-0.52541494
145	0xbe92fbce	-0.28707737
146	0xbe7c5760	-0.24642706
147	0x3f07be89	0.5302511
148	0x3f4a8c24	0.7912009
149	0xbf2f80ab	-0.68555707
150	0x3c9e59d0	0.019329935
151	0x3e7cfb14	0.24705154
152	0x3f1a1822	0.60193074
153	0x3fd10230	1.6328793
154	0x3f3588a7	0.7091164
155	0x3f834b3f	1.0257338
156	0xbe3af4fe	-0.1825752
157	0x3ede1213	0.43373165
158	0xbe466b26	-0.19376811
159	0x3ff2723d	1.8941113
160	0x3cb98326	0.022645544
161	0x3f32b6d8	0.6981025
162	0x3e98b2de	0.29823965
163	0x3f228ba1	0.63494307
164	0xbf05fa0c	-0.52334666
165	0xbff458f7	-1.908965
166	0xbf48eaed	-0.7848347
167	0xc01a40e8	-2.4102116
168	0x3e9c4482	0.30521017
169	0x3ecb12ef	0.39662883
170	0xbefe892e	-0.49714035
171	0xbfb1da90	-1.3894825
172	0x3edeb998	0.43500972
173	0xbff09789	-1.8796245
174	0xbd96e0d2	-0.073671
175	0x3e8ec098	0.27881312
176	0x3e6378a8	0.22213995
177	0xbf8d4cc6	-1.1039054
178	0x3ec33875	0.3812901
179	0xbf9a064f	-1.2033175
180	0xbecfe07e	-0.4060096
181	0x3e800610	0.25004625
182	0x3d99f418	0.0751726
183	0xbdddd19c	-0.108309954
184	0xbecad6fa	-0.3961714
185	0xbd0db888	-0.03459981
186	0xbce8aacb	-0.028401753
187	0x3e68d594	0.22737724
188	0x3e4d37b7	0.20040785
189	0x3e2febf8	0.17179859
190	0x3e12e702	0.14345935
191	0xbf330002	-0.69921887

layer1.bias f4 [32]
0	0x40bd2f79	5.912045
1	0x40bd40bc	5.914152
2	0x3f867df7	1.0507191
3	0x40c5f09b	6.185621
4	0xbfd6da78	-1.6785421
5	0xc0b07f81	-5.5155644
6	0x3e95709d	0.2918748
7	0x409744a4	4.727129
8	0xc0b8fcd0	-5.780861
9	0x3e1266f0	0.1429708
10	0x3e60048c	0.21876734
11	0xc0d6372d	-6.6942353
12	0x40baa23b	5.8323035
13	0xbe1f8714	-0.15578872
14	0xbe52bfc0	-0.2058096
15	0x40bf694d	5.981604
16	0x40c1e3eb	6.059072
17	0xbe4f1109	-0.20221342
18	0x40d6e08f	6.714912
19	0x3e98bb66	0.29830474
20	0xc0ac591a	-5.3858767
21	0x40adc979	5.430844
22	0xc08748f7	-4.227657
23	0xc0a97c17	-5.2963977
24	0xc0a08af8	-5.016964
25	0xc0aa6f2e	-5.3260717
26	0xc0318bec	-2.7741652
27	0xc01581ea	-2.3360543
28	0xc097c1eb	-4.7424216
29	0x40a89d34	5.26919
30	0x3e7fdb98	0.24986112
31	0x40cb98ea	6.3624163

layer2.weight f4 [32, 32]
0	0xbecec952	-0.4038797
1	0xbe8ee57b	-0.27909455
2	0xbe1c788f	-0.15280364
3	0xbe7740ff	-0.24145888
4	0xbe0e8e69	-0.13921513
5	0xbe8402cd	-0.25783387
6	0x3c775360	0.015095562
7	0xbe74f8fa	-0.23923102
8	0xbe2172a7	-0.15766393
9	0xbd6f39da	-0.05840478
10	0x3ca9f3c0	0.020746112
11	0xbdaadcc0	-0.08342886
12	0xbede3d4d	-0.43406144
13	0xbd9816c7	-0.074262194
14	0xbdef7e90	-0.11694062
15	0xbe432487	-0.19056903
16	0xbecf1852	-0.40448242
17	0xbde15ad7	-0.110036545
18	0xbe97cccf	-0.29648444
19	0xbcd22198	-0.025650784
20	0xbe1f7b2c	-0.1557433
21	0xbe89753c	-0.26847255
22	0xbdfbf9d9	-0.12303514
23	0xbec17c8e	-0.3779034
24	0xbe8d64b3	-0.2761589
25	0xbe784c4d	-0.24247856
26	0xbe24b3cd	-0.16084214
27	0xbd23a5cc	-0.039953038
28	0xbe719c39	-0.2359475
29	0xbec96a60	-0.3933897
30	0x3e332487	0.17494403
31	0xbe7e7b2c	-0.24851674
32	0x3f6842c1	0.9072686
33	0x3ea7e703	0.32793435
34	0xbf75b248	-0.9597516
35	0x3f3bda52	0.73380005
36	0xbf71288f	-0.9420251
37	0xbf6ccc26	-0.92499006
38	0xbfa4c426	-1.287236
39	0x3ed7073a	0.419977
40	0xbf463b55	-0.77434283
41	0xbe185f35	-0.14880069
42	0xbe2438c4	-0.1603728
43	0xbec5a571	-0.38602784
44	0x3f5f4e69	0.8722902
45	0xbdc7dce7	-0.09758931
46	0xbd6d4fa8	-0.057937294
47	0x3e96b90d	0.29438058
48	0x3fa5dc15	1.2957789
49	0xbee7d6e4	-0.45281136
50	0x3f9ea015	1.2392603
51	0x3d8f0b26	0.06984548
52	0xbf27852c	-0.6543758
53	0x3f28d0d4	0.65943646
54	0xbf8fbe69	-1.1229984
55	0xbfa4d6ff	-1.2878112
56	0xbf82dd9d	-1.0223881
57	0xbffa92e8	-1.9576082
58	0xc0522e29	-3.2840674
59	0xbf87f6d1	-1.0622197
60	0xbf510d8f	-0.81661314
61	0xbea17cc9	-0.31540516
62	0xbdbee2ec	-0.09320626
63	0x3ee45d74	0.4460255
64	0x3eacff06	0.33788317
65	0xbdab8b95	-0.083762325
66	0x3d9a3d1d	0.07531188
67	0x3f1674ce	0.5877198
68	0xbeddc37d	-0.43313208
69	0xbf50e29e	-0.8159579
70	0xbf80307e	-1.0014799
71	0x3dfdcdcb	0.123927675
72	0xbef81622	-0.48454386
73	0x3e5990c7	0.21246634
74	0xbe01b223	-0.1266561
75	0xbf641ac3	-0.89103335
76	0x3ed3085d	0.41217318
77	0x3de5bb70	0.112173915
78	0xbe015cd8	-0.12633073
79	0x3e0cca08	0.13748944
80	0x3e9e2ace	0.30892032
81	0xbef31f40	-0.4748478
82	0x3f11aabf	0.5690116
83	0xbe05f266	-0.13080749
84	0xbf1d0456	-0.6133474
85	0x3e6ca997	0.23111568
86	0xbf8bb4e8	-1.0914583
87	0xbf8031b2	-1.0015166
88	0xbefff175	-0.49988905
89	0xbff2f800	-1.8981934
90	0xc006049b	-2.094031
91	0xbe3a3b80	-0.1818676
92	0xbf7d159e	-0.9886111
93	0x3e51b10f	0.20477699
94	0xbc710990	-0.0147117525
95	0x3bfea260	0.0077708215
96	0xbf66dafc	-0.90177894
97	0x3eae6768	0.34063268
98	0xbfa377b2	-1.2770903
99	0x3f0fe73e	0.5621222
100	0xbfbd46cc	-1.478723
101	0x3f32888f	0.6973962
102	0x3f72abd2	0.94793427
103	0x3e653df3	0.22386913
104	0xbea94fb1	-0.33068612
105	0x3d7be6be	0.06149935
106	0x3c06d850	0.008230284
107	0x3d0255f0	0.031820238
108	0xbf48e8e5	-0.7848037
109	0x3c46ff75	0.012145867
110	0xbd854dfd	-0.06509016
111	0x3eca913f	0.3956394
112	0xbf59f8ce	-0.8514527
113	0x3f93f0e0	1.1557884
114	0x3e80c1de	0.2514791
115	0x3d003244	0.031297937
116	0x3feab28a	1.8335736
117	0xbeb227bb	-0.34795937
118	0x3d5dabec	0.054119036
119	0x3f320dbe	0.6955222
120	0xbdec8fe6	-0.11550884
121	0x3f6b6cfa	0.9196316
122	0x3f86600a	1.0498059
123	0x3f83c00f	1.0292987
124	0x3e234aad	0.15946455
125	0xbced75a7	-0.028986765
126	0xbdd54d75	-0.104151644
127	0x3f110f44	0.5666392
128	0xbe0a0683	-0.13479047
129	0xbd4413dc	-0.047870502
130	0x3d802e38	0.062588155
131	0xbe0f2d5c	-0.13982147
132	0xbe2f961a	-0.17147103
133	0xbe0d9bfa	-0.13829032
134	0x3db6fe16	0.08935182
135	0xbd8fd7fd	-0.07023618
136	0x3d178a88	0.036997348
137	0xbdefff94	-0.117186695
138	0xbd977603	-0.07395556
139	0xbde63324	-0.11240223
140	0xbe1765e9	-0.1478497
141	0xbdc1a4c8	-0.09455258
142	0xbc49b650	-0.012311533
143	0xbd9c1914	-0.07621971
144	0xbcc86628	-0.024462774
145	0xbdf627ad	-0.12019286
146	0xbd2a6708	-0.041602165
147	0x3db42176	0.08795445
148	0xbd12b6c0	-0.035818815
149	0xbe228286	-0.15870103
150	0x3c54ecc0	0.012995899
151	0xbd339c80	-0.043850422
152	0xbd8c9134	-0.06863633
153	0x3c8ce5d0	0.017199427
154	0x3d7d7370	0.061877668
155	0xbd1cc0cc	-0.038269803
156	0x3de7b0be	0.11313008
157	0x3e27c875	0.16385062
158	0x3cc90930	0.024540514
159	0xbe0e6dbf	-0.13909052
160	0x3dc81556	0.097696945
161	0xbd9c3004	-0.07626346
162	0xbc906268	-0.017625049
163	0xbdd7c3a2	-0.10535361
164	0xbdd54041	-0.10412646
165	0xbdc4f547	-0.096170954
166	0xbddec476	-0.10877316
167	0xbd090154	-0.033448532
168	0x3e20455b	0.15651457
169	0xbe2e4303	-0.1701775
170	0xbe1943b8	-0.14967239
171	0xbe20b366	-0.15693435
172	0xbe11946a	-0.14216772
173	0x3d6ca9ec	0.057779238
174	0xbd0e59c8	-0.03475359
175	0xbd9a6f6f	-0.075407855
176	0xbe2ea4be	-0.17055032
177	0x3d601b2c	0.054713413
178	0xbdc71c93	-0.09722247
179	0xbe271031	-0.1631477
180	0xbe205926	-0.15659007
181	0x3caf3120	0.02138573
182	0x3db862f6	0.0900325
183	0x3df05902	0.11735727
184	0xbdfe844c	-0.124275774
185	0xbe0d296e	-0.13785335
186	0x3e04c87d	0.12967105
187	0xbd399e3c	-0.04531692
188	0xba914880	-0.0011084229
189	0x3daaf68e	0.08347808
190	0xbe0b1ce4	-0.1358524
191	0xbbdfccc0	-0.006829828
192	0xbd3487be	-0.044074766
193	0xbe5280ed	-0.20556994
194	0xbe05d324	-0.13068825
195	0xbe26dd39	-0.16295327
196	0xbe23c685	-0.15993698
197	0x3dac5f93	0.08416667
198	0xbc11b9a8	-0.008894362
199	0x3d960818	0.073257625
200	0xbd88a160	-0.06671405
201	0xbe191f0b	-0.14953248
202	0xbdea9814	-0.11454788
203	0xbe688bb4	-0.22709543
204	0x3ca367f2	0.019947026
205	0x3dda59eb	0.10661682
206	0x3e2e6bf7	0.17033373
207	0xbdcd2912	-0.10017599
208	0x3ba25407	0.0049538645
209	0xbdee3d6c	-0.11632809
210	0xbe1a1003	-0.1504517
211	0xbddc059e	-0.10743259
212	0xbe1cc7b0	-0.1531055
213	0xbdcc5ae0	-0.099782705
214	0xbe26c2f4	-0.16285306
215	0xbd193824	-0.037407055
216	0xbe665832	-0.22494581
217	0xbd2901c1	-0.04126144
218	0x3d629ef4	0.05532737
219	0x3d3a6181	0.045503143
220	0x3c890b1a	0.016728926
221	0x3dc48015	0.09594742
222	0x3e2a4fdd	0.16632028
223	0xbe5375f7	-0.20650469
224	0x3f14f74b	0.5818984
225	0x3e85c020	0.26123142
226	0x3f47831b	0.77934426
227	0x3f1d5da1	0.6147099
228	0xbdfd20d9	-0.12359781
229	0xbf5e8941	-0.8692818
230	0x3f06a186	0.52590215
231	0xbdc1e295	-0.09467045
232	0xbf085113	-0.5324871
233	0x3d421890	0.047386706
234	0x3ddb094e	0.10695134
235	0xbf71f80d	-0.9451912
236	0x3f338694	0.70127225
237	0x3d27ed83	0.040997993
238	0xbd9a1db2	-0.07525195
239	0x3e8f7132	0.2801605
240	0x3f79bff1	0.97558504
241	0xbf81f80a	-1.015382
242	0x3f94e4d5	1.1632334
243	0x3dd37726	0.1032546
244	0xbf6275d8	-0.88461065
245	0x3e8a612c	0.2702726
246	0xbf460d8c	-0.7736442
247	0xbf86eaca	-1.0540402
248	0xbee6ff2d	-0.4511656
249	0xc00cee87	-2.2020586
250	0xc00dfcf0	-2.218563
251	0x3ecb596c	0.3971666
252	0x3ed6dc51	0.41964963
253	0x3eca672e	0.39531845
254	0xbdca0518	-0.09864253
255	0x3f09c5b2	0.53817284

layer2.bias f4 [32]
0	0xbe657b18	-0.22410238
1	0x40969cd2	4.706643
2	0x4043e4a2	3.0608296
3	0xc02d7292	-2.7101178
4	0x3e19eb1f	0.15031098
5	0x3da9210e	0.08258258
6	0xbe6e42d6	-0.23267683
7	0x408ab370	4.334404
8	0x40ab3869	5.350636
9	0x403ce35a	2.9513764
10	0xbe163c88	-0.14671528
11	0xbd86bd5e	-0.06579088
12	0x408b574b	4.354406
13	0xbdd8b489	-0.10581309
14	0x3dd5aa96	0.10432927
15	0x405ec46d	3.4807389
16	0xbf6d631b	-0.9272935
17	0x40a12eb5	5.0369515
18	0x40a0a343	5.0199294
19	0xbe0fe520	-0.14052248
20	0x406f959e	3.743507
21	0x40785114	3.8799486
22	0xbe15a39a	-0.1461319
23	0x3d2d5ba8	0.04232374
24	0xbe66cec8	-0.22539818
25	0xbe630022	-0.2216802
26	0xc06e2772	-3.7211576
27	0xbe218a1e	-0.15775344
28	0x40892446	4.285678
29	0xc032e24b	-2.7950618
30	0xbe222def	-0.15837835
31	0x4061af2f	3.5263174

layer3.weight f4 [32, 32]
0	0xbda7e059	-0.08197088
1	0x3c93b767	0.018031789
2	0x3a57f064	0.000823742
3	0xbe3a5982	-0.18198207
4	0x3dae1ece	0.08501969
5	0x3c7b79a0	0.015348822
6	0xbda9c376	-0.08289234
7	0xbe66309d	-0.22479482
8	0xbd7fb1ec	-0.06242554
9	0x3cfa9f97	0.030593676
10	0xbe2dbe50	-0.1696713
11	0xbe1143ba	-0.14185992
12	0xbe214a43	-0.15750985
13	0x3d07ea74	0.033182576
14	0xbdea9c00	-0.11455536
15	0xbd683d83	-0.056699287
16	0xbbdee920	-0.006802693
17	0xbc979905	-0.018505583
18	0xbbaa9df6	-0.0052068187
19	0xbe048df2	-0.12944773
20	0xbe57041f	-0.20997666
21	0xbe65dccf	-0.22447513
22	0xbdec54ba	-0.11539598
23	0x3d901306	0.070348784
24	0xbe01c715	-0.126736
25	0x3e258f57	0.16167961
26	0xbdc51295	-0.09622685
27	0xbd6dfd99	-0.058103178
28	0x3b8b806d	0.004257253
29	0xbdf2d0d1	-0.11856235
30	0xbdc3c3f9	-0.09558863
31	0x3de98cd1	0.11403812
32	0x3e12af92	0.14324787
33	0x4011b62c	2.276744
34	0x3fb3594f	1.401163
35	0xbee44f0b	-0.44591555
36	0xbd78c2f6	-0.060732804
37	0xbdc39dad	-0.09551559
38	0x3d91c3cd	0.07117424
39	0x3f66db37	0.90178245
40	0x3fba5be5	1.4559294
41	0x3fb435a6	1.4078872
42	0x3e4628f4	0.1935156
43	0x3db51493	0.08841815
44	0x3f212c13	0.62957877
45	0x3d7114e8	0.05885783
46	0xbdef263c	-0.116772145
47	0x3fc25fe3	1.5185512
48	0x3f7d84ab	0.9903056
49	0x3f490317	0.7852034
50	0x3fe171e9	1.7612888
51	0x3a671aa0	0.0008815918
52	0x3fa88d18	1.3168058
53	0x3f350d40	0.7072334
54	0xbe5177dc	-0.20455879
55	0x3d2a66b4	0.04160185
56	0x3e076d1c	0.13225216
57	0xbe30fa6c	-0.17283028
58	0xbdb88ac6	-0.09010844
59	0xbe0d8a0b	-0.1382219
60	0x3f0748a8	0.5284524
61	0x3f10a5fd	0.5650328
62	0xbdf6b077	-0.12045377
63	0x3f883c95	1.0643488
64	0xbd8b341d	-0.06797049
65	0xbd293cec	-0.041317865
66	0x3cb4e73d	0.02208292
67	0x3d906ee3	0.070524
68	0x3e29eb4b	0.16593663
69	0xbe138202	-0.14405063
70	0xbcaaef28	-0.020865992
71	0xbec74600	-0.38920593
72	0xbecc8c27	-0.39950678
73	0xbe52631c	-0.2054562
74	0xbe29d53d	-0.1658525
75	0xbde3927e	-0.111119255
76	0xbeadfbe0	-0.33981228
77	0x3e18db75	0.14927466
78	0x3d3286e4	0.043585673
79	0xbe0577a8	-0.13033926
80	0xbe3b1ef8	-0.18273532
81	0x3ebd8dfd	0.3702239
82	0xbe3cfa58	-0.18454874
83	0x3df25352	0.11832298
84	0xbf0faa8f	-0.56119627
85	0xbdc11d37	-0.094294004
86	0x3e218e0b	0.15776841
87	0xbde8145f	-0.113320105
88	0xbe237808	-0.15963757
89	0xbdf9643e	-0.12177323
90	0xbe940e4f	-0.28917167
91	0x3c87ad9b	0.016562274
92	0xbedf003e	-0.43554872
93	0xbf097520	-0.53694344
94	0x3d93a83a	0.07209821
95	0xbed1ee0d	-0.4100193
96	0xbe3fc0fa	-0.18725958
97	0xbf8b1330	-1.086523
98	0xbffed393	-1.9908317
99	0x3ebb24ad	0.3655142
100	0x3e330fa7	0.1748644
101	0x3e2980bb	0.16553013
102	0x3de47254	0.11154619
103	0xc02172a1	-2.5226214
104	0xbfe06613	-1.753115
105	0xc017afab	-2.370097
106	0xbcd8fc9c	-0.026487641
107	0xbe0fc2b8	-0.14039123
108	0x3eb2483f	0.34820744
109	0xbdecca1d	-0.115619875
110	0xbd15a15c	-0.036530837
111	0xbffacc06	-1.9593513
112	0x3f2dfc94	0.6796353
113	0x3ea57bcd	0.32321015
114	0xbfb8b5ef	-1.4430522
115	0xbca5831d	-0.020204121
116	0xc09a8f8f	-4.8300242
117	0xc0124cb7	-2.2859323
118	0x3e26cdc7	0.16289435
119	0xbdbfa4dc	-0.09357616
120	0xbe19a101	-0.15002824
121	0x3e9fcc54	0.31210577
122	0xbf2e207b	-0.6801831
123	0xbe30a34e	-0.17249796
124	0x3e8b4d33	0.27207336
125	0x3ec52273	0.38502845
126	0x3df21fba	0.118224576
127	0xc009a7f1	-2.1508753
128	0x3e20e317	0.15711628
129	0x401b60ee	2.427791
130	0x3fd504be	1.6642072
131	0xbec5084a	-0.38482887
132	0x3d0c5e30	0.03426951
133	0xbdec82e6	-0.115484044
134	0x3e4a8b45	0.1977969
135	0x3fd517ae	1.6647851
136	0x3fea056e	1.8282907
137	0x3ffc9260	1.973217
138	0x3e5835fd	0.21114345
139	0x3d175d2c	0.03695409
140	0x3f3e2b78	0.7428508
141	0xbcb03a4d	-0.021512175
142	0x3d176e50	0.036970437
143	0x3fce0347	1.609475
144	0x3f4242c2	0.75883114
145	0x3f84f90b	1.0388502
146	0x400251ff	2.0362546
147	0x3db92230	0.09039724
148	0x3fdb6562	1.7140315
149	0x3f83ede9	1.030698
150	0xbd9b21d1	-0.07574809
151	0xbcb6dba8	-0.022321537
152	0x3dfe525b	0.12418052
153	0xbea35bce	-0.3190598
154	0xbd9e96e1	-0.077436216
155	0xbe38abc1	-0.18034269
156	0x3f468a2d	0.7755459
157	0x3f22201f	0.6333026
158	0xbe32acae	-0.17448685
159	0x3fa41d9f	1.282154
160	0xbdd42016	-0.103576824
161	0x3c28fadc	0.010313716
162	0xbe464ddc	-0.19365638
163	0x3d67e508	0.056614906
164	0x3d589908	0.052880317
165	0xbda8ff4a	-0.082518175
166	0xbe439ce5	-0.1910282
167	0xbd679b15	-0.056544382
168	0xbc212510	-0.009835497
169	0xbe5b1760	-0.21395636
170	0xbc64ad64	-0.013957355
171	0x3d2144de	0.039372317
172	0xbc9b381c	-0.018947653
173	0xbe2c4917	-0.16824757
174	0xbdda8b70	-0.10671127
175	0xbe421f16	-0.18957171
176	0xbdd51f88	-0.10406405
177	0xbd0e915c	-0.034806594
178	0xbce2e9d5	-0.02769939
179	0x3e11fb15	0.14255936
180	0x3cdbdb7c	0.026838057
181	0x3c1329f8	0.008982174
182	0x3e485705	0.19564445
183	0x3ddf4d42	0.10903408
184	0xbe027182	-0.12738612
185	0xbddc54a3	-0.10758331
186	0xbdad3734	-0.08457795
187	0xbe24e51b	-0.16103022
188	0xbdd19d88	-0.10235125
189	0xbdb8dfba	-0.090270475
190	0xbdcbddd4	-0.0995442
191	0xbe374357	-0.17896782
192	0x3db9ced2	0.09072651
193	0xbdcf9351	-0.1013552
194	0xbcbeac1e	-0.023275431
195	0xbc79c692	-0.015245097
196	0xbe0cadb6	-0.1373814
197	0xbd2cac94	-0.04215677
198	0x3d9f1a3a	0.07768674
199	0x3c2eb1c0	0.010662496
200	0xbdccebf4	-0.10005942
201	0xbdbe8d41	-0.09304286
202	0xbe5b4f12	-0.21416882
203	0xbe05750d	-0.13032933
204	0x3ce08558	0.027407333
205	0xbe268b02	-0.16263965
206	0x3cb7c050	0.022430569
207	0x3d948ab1	0.07253016
208	0xbdce6480	-0.100777626
209	0xbdd383dc	-0.103278846
210	0xbdde77a6	-0.10862665
211	0x3d9511ae	0.07278763
212	0x3dceaa46	0.10091071
213	0xbe0ba3fe	-0.13636777
214	0x3dbda63a	0.09260221
215	0xbe331042	-0.1748667
216	0xbc8f8720	-0.017520487
217	0x3e2c46cb	0.1682388
218	0xbdc7f713	-0.097639225
219	0xbdc646c6	-0.09681468
220	0xbe3316bb	-0.1748914
221	0xbdd9fbba	-0.10643716
222	0xbde2c769	-0.11073191
223	0xbe061d54	-0.13097125
224	0xbcd9fb10	-0.026608974
225	0xbcd39ae8	-0.025830701
226	0x3d843f60	0.064574
227	0xbebfcf8e	-0.3746304
228	0x3e321caf	0.17393754
229	0x3cf0a250	0.029374272
230	0xbe2dc6b7	-0.16970335
231	0xbd6c4809	-0.057685886
232	0xbe42459c	-0.18971866
233	0xbd87bc14	-0.0662767
234	0x3dd1d8e2	0.10246445
235	0xbdaa6d18	-0.08321589
236	0xbeacf8d4	-0.3378359
237	0x3db3107a	0.08743377
238	0xbdca12d9	-0.09866876
239	0xbd60aef8	-0.054854363
240	0xbe8d4d25	-0.2759792
241	0xbe9c335a	-0.30507928
242	0xbdd2d477	-0.10294431
243	0xbdf6894a	-0.120379046
244	0xbd902734	-0.070387274
245	0x3d232a24	0.03983511
246	0x3d86fd48	0.06591278
247	0x3d4f6cb8	0.05064079
248	0xbc696980	-0.014246345
249	0xbddc4ca3	-0.10756805
250	0xbe20e7b6	-0.1571339
251	0xbe3c3c80	-0.18382454
252	0xbeac0a47	-0.3360159
253	0xbe14a583	-0.14516263
254	0x3daeb606	0.08530812
255	0xbe84312d	-0.25818768

layer3.bias f4 [32]
0	0xbe32dc5a	-0.1746687
1	0x3fc8560f	1.5651263
2	0xbe5c1c9b	-0.21495287
3	0xbf6b582f	-0.9193143
4	0x4023bd66	2.558435
5	0x3ceb39da	0.02871411
6	0xbcb17757	-0.021663351
7	0xbe8a69aa	-0.2703374
8	0xbfabff11	-1.3437215
9	0xbf76c133	-0.9638855
10	0x3fa70a89	1.305009
11	0xc00bd4ea	-2.1848702
12	0x4010bad0	2.2614021
13	0xbfbd1b65	-1.4773985
14	0xbff31471	-1.8990613
15	0xbe021d6d	-0.12706538
16	0xbf8c2164	-1.094769
17	0xbf712f66	-0.9421295
18	0xbe3a517a	-0.18195143
19	0x400e7a99	2.2262328
20	0xbe1cd098	-0.15313947
21	0x3c572c2f	0.013133093
22	0xbfa3a050	-1.2783298
23	0xbd8813c5	-0.06644396
24	0x3f954d4d	1.1664215
25	0xbfa4d3af	-1.2877101
26	0x3fec51d6	1.8462474
27	0xbd901be3	-0.07036569
28	0x3dc51d41	0.0962472
29	0x3e191b5f	0.14951847
30	0xbf2d6496	-0.67731607
31	0xbfd71b27	-1.6805161

output_layer.weight f4 [1, 32]
0	0x3d2bece3	0.04197396
1	0x3f9d9e62	1.231396
2	0x3e9fc796	0.3120696
3	0xc0012bcf	-2.0182989
4	0x3f940204	1.1563115
5	0x3b4f1ff5	0.0031604741
6	0x3d364ecb	0.044508737
7	0x3d9d6344	0.07684949
8	0xc003cc01	-2.0593264
9	0xc00c7f44	-2.1952677
10	0x3f9fc175	1.2480913
11	0xc01b157d	-2.4231865
12	0x3f9b53ab	1.2134908
13	0xbfaeb57a	-1.3649132
14	0xc012357d	-2.2845147
15	0x3cabe66e	0.0209839
16	0xc02d5dc9	-2.7088492
17	0xc02f26d1	-2.7367442
18	0xbe0d5f6a	-0.13805929
19	0x3f9a97ed	1.2077614
20	0xbd2fcfc5	-0.042922754
21	0xbda51ecf	-0.08062517
22	0xc019a090	-2.400425
23	0xbc60360b	-0.01368476
24	0x3f918ff1	1.1372052
25	0xbf809bc1	-1.0047532
26	0x3f9b27f1	1.2121564
27	0x384bc8ba	4.8585913e-05
28	0xbc8f5558	-0.01749675
29	0x3e16f9a5	0.1474367
30	0xc01516a6	-2.3295074
31	0xc01e9fa3	-2.4784935

exp_avg f4 [32, 6]
0	0x3d15aa79	0.03653953
1	0x399b01de	0.00029565295
2	0xb8ed409f	-0.00011313077
3	0x3b23a3bc	0.002496942
4	0xbad7fcc6	-0.0016478531
5	0x3941e5ab	0.00018491472
6	0x3c7759f7	0.015097133
7	0xb9182150	-0.0001450826
8	0xb8264161	-3.9638373e-05
9	0x3a8eeed5	0.0010904918
10	0xba8995bf	-0.0010496898
11	0x38b0e201	8.4344305e-05
12	0xbca5c4e3	-0.020235484
13	0xbb0cffe4	-0.0021514827
14	0x3741715f	1.1530093e-05
15	0xbaaab9bc	-0.0013025324
16	0xba8088fb	-0.0009806448
17	0xb8b113c2	-8.443698e-05
18	0x3d9c82a5	0.07642106
19	0x3ab06d4d	0.0013460309
20	0xb93cc8d6	-0.00018003894
21	0x3ba91fa4	0.0051612426
22	0xbb0920ea	-0.002092416
23	0x39bc9142	0.0003596638
24	0x3b3baa66	0.00286355
25	0x3a4828b9	0.00076354627
26	0xb8a99b4f	-8.0874765e-05
27	0x392b928a	0.00016362421
28	0x3a1bd3d9	0.00059443485
29	0x3530a756	6.5808615e-07
30	0xbc0f2769	-0.008737423
31	0xba2b0951	-0.00065245206
32	0x38ce695b	9.8424694e-05
33	0x39c7a481	0.00038078803
34	0x3b98872d	0.004654786
35	0xb996a7ca	-0.00028735242
36	0x00000004	6e-45
37	0x00000004	6e-45
38	0x00000004	6e-45
39	0x00000004	6e-45
40	0x00000004	6e-45
41	0x00000004	6e-45
42	0x3cb7d351	0.02243963
43	0x3a1a4ea3	0.00058863516
44	0xb834b81f	-4.308682e-05
45	0x3abf3d86	0.0014590479
46	0xb9d15378	-0.00039925775
47	0x38db9180	0.00010469835
48	0xbca0e579	-0.019640671
49	0xb9f083d4	-0.00045874587
50	0x38724114	5.7757905e-05
51	0xbab8b2d6	-0.0014091383
52	0x394e2b03	0.00019661714
53	0xb898e796	-7.291061e-05
54	0x00000004	6e-45
55	0x00000004	6e-45
56	0x00000000	0.0
57	0x00000004	6e-45
58	0x00000004	6e-45
59	0x00000000	0.0
60	0x00000000	0.0
61	0x00000000	0.0
62	0x00000000	0.0
63	0x00000000	0.0
64	0x00000000	0.0
65	0x00000000	0.0
66	0xbd0cffae	-0.034423523
67	0xba88f5de	-0.0010449251
68	0x393ceaa3	0.00018016486
69	0xbb4f34a0	-0.003161706
70	0x39ae3262	0.00033225404
71	0xb929fd2f	-0.00016211414
72	0x3d1b2e12	0.037885733
73	0x39ec0de8	0.0004502379
74	0xb8e12b50	-0.00010736904
75	0x3b1bef7e	0.0023793872
76	0xbac3c40f	-0.0014935749
77	0x393bfbf8	0.00017927575
78	0x00000004	6e-45
79	0x00000004	6e-45
80	0x00000000	0.0
81	0x00000004	6e-45
82	0x00000004	6e-45
83	0x00000000	0.0
84	0x00000000	0.0
85	0x00000000	0.0
86	0x00000000	0.0
87	0x00000000	0.0
88	0x00000000	0.0
89	0x00000000	0.0
90	0x3ceed8bf	0.029156087
91	0x39a6aa79	0.00031789
92	0xb88ba838	-6.65937e-05
93	0x3b08ac3b	0.002085461
94	0xba99c546	-0.0011731766
95	0x39223bfe	0.00015471873
96	0x3d253c4e	0.040340714
97	0x376a1791	1.3952974e-05
98	0xb9083d0c	-0.00012992712
99	0x3b336304	0.002737225
100	0xbb0a0220	-0.0021058396
101	0x394c5fb7	0.00019490613
102	0x00000004	6e-45
103	0x00000004	6e-45
104	0x00000004	6e-45
105	0x00000004	6e-45
106	0x00000004	6e-45
107	0x00000004	6e-45
108	0x3d728f9f	0.059219
109	0x39be5bae	0.0003630793
110	0xb91d862a	-0.00015022667
111	0x3b751d6f	0.0037401577
112	0xbb21520a	-0.002461555
113	0x398f6285	0.00027348488
114	0x00000000	0.0
115	0x00000000	0.0
116	0x00000000	0.0
117	0x00000000	0.0
118	0x00000000	0.0
119	0x00000000	0.0
120	0xb9e5e64f	-0.00043849877
121	0xb9d94434	-0.0004144028
122	0x358c61be	1.045926e-06
123	0xb80d63c9	-3.3709952e-05
124	0xb87c5d26	-6.0168233e-05
125	0xb64491fd	-2.9291252e-06
126	0x3cda652b	0.026659569
127	0x39ca06bd	0.00038533463
128	0xb8813bfc	-6.162372e-05
129	0x3ad8ae36	0.0016531411
130	0xba6f82ce	-0.0009136618
131	0x39008dc4	0.00012259843
132	0xbd935a1a	-0.0719492
133	0xbae930f5	-0.001779108
134	0x396fc32b	0.00022865522
135	0xbb9d8718	-0.004807364
136	0x38f81569	0.000118295495
137	0xb94095ec	-0.00018366397
138	0xbc929265	-0.017892072
139	0xbac5978f	-0.0015075075
140	0x388bb314	6.6613924e-05
141	0xbac6a6e0	-0.0015155934
142	0x3b22bb9e	0.0024831067
143	0xb9b42cef	-0.00034365754
144	0xb69d20b5	-4.682772e-06
145	0xb5ae85ea	-1.3002984e-06
146	0x80000004	-6e-45
147	0xb534561f	-6.718055e-07
148	0xb6ca7892	-6.0341054e-06
149	0x00000004	6e-45
150	0xbdda19a1	-0.106494196
151	0xbadcac42	-0.0016836005
152	0x399cde38	0.00029920205
153	0xbbd8c0b3	-0.0066147684
154	0x3b420679	0.0029605909
155	0xb9e61bb0	-0.00043889647
156	0x3d49d410	0.049274504
157	0x3ba0c29f	0.004906013
158	0x3939748a	0.00017686389
159	0x3bf029cb	0.007329201
160	0x3bd2adab	0.0064293942
161	0xba4029d4	-0.00073304516
162	0xbd833302	-0.06406213
163	0xbb3889fe	-0.0028158422
164	0x38c841d5	9.549005e-05
165	0xbb859399	-0.004076433
166	0xb9edc7dd	-0.00045353072
167	0xb98de6b2	-0.00027065497
168	0xbd4e6b91	-0.050395552
169	0xbae810b8	-0.0017705178
170	0x38db16e6	0.00010446999
171	0xbb5ca85b	-0.0033669684
172	0x398df713	0.000270777
173	0xb96b1975	-0.0002242083
174	0xbc210972	-0.009828912
175	0xbaaff845	-0.001342543
176	0x381ae0d5	3.6925852e-05
177	0xb923b9eb	-0.00015614151
178	0xbab7d87b	-0.0014026308
179	0xb7c32294	-2.3261913e-05
180	0x00000000	0.0
181	0x00000000	0.0
182	0x00000000	0.0
183	0x00000000	0.0
184	0x00000000	0.0
185	0x00000000	0.0
186	0x3cd8e0fd	0.02647447
187	0xb93c554f	-0.00017960857
188	0xb8888cb0	-6.5111904e-05
189	0x3afc096f	0.0019228886
190	0xbad74835	-0.0016424718
191	0x391767d8	0.00014439167

exp_avg_sq f4 [32, 6]
0	0x3d1a7078	0.037704915
1	0x39bf4cc9	0.00036487568
2	0x361a3e59	2.298408e-06
3	0x39be4fbf	0.0003629904
4	0x3997aa09	0.0002892765
5	0x35d4b242	1.5847111e-06
6	0x3c01744e	0.007901264
7	0x38a3ffa1	7.82006e-05
8	0x3504adb8	4.9426626e-07
9	0x389c959e	7.466528e-05
10	0x388f99dc	6.84743e-05
11	0x34af8749	3.2694723e-07
12	0x3b646c46	0.0034854575
13	0x38d01f49	9.92404e-05
14	0x33b9c4fd	8.650566e-08
15	0x37b2b820	2.1304993e-05
16	0x38466b5c	4.7306865e-05
17	0x33b49d65	8.410533e-08
18	0x3dadfa24	0.08494976
19	0x3a3f925e	0.0007307882
20	0x36a11663	4.80078e-06
21	0x3a5b4210	0.0008364031
22	0x3a10a71b	0.0005518065
23	0x3670413d	3.580076e-06
24	0x39a5816b	0.00031567676
25	0x3770d379	1.4354352e-05
26	0x32ec17d7	2.7484857e-08
27	0x36a7d4b3	5.0017493e-06
28	0x3775d34e	1.4652336e-05
29	0x3245b01b	1.1506951e-08
30	0x3c815836	0.015789133
31	0x3991cd7e	0.0002780966
32	0x34e5306c	4.2689805e-07
33	0x391f74c0	0.00015206914
34	0x39111c86	0.00013838903
35	0x3520be66	5.988171e-07
36	0x321470ac	8.640352e-09
37	0x329f8366	1.856979e-08
38	0x2b0a54ba	4.914503e-13
39	0x2b8e520a	1.0112477e-12
40	0x3022d946	5.924402e-10
41	0x2b97cd38	1.0786155e-12
42	0x3c0d9144	0.008640591
43	0x388add90	6.621622e-05
44	0x350585f5	4.9741294e-07
45	0x38b51d60	8.636224e-05
46	0x38621867	5.3905325e-05
47	0x34b962cc	3.453082e-07
48	0x3c297d16	0.010344764
49	0x38a4e941	7.863576e-05
50	0x3507ad86	5.054393e-07
51	0x38b4c1c8	8.6191634e-05
52	0x386ea6a9	5.6898836e-05
53	0x34baff93	3.4831154e-07
54	0x09ed38dd	5.710915e-33
55	0x06a83954	6.327881e-35
56	0x00000000	0.0
57	0x073d40aa	1.4237783e-34
58	0x09ed38dd	5.710915e-33
59	0x00000000	0.0
60	0x00000000	0.0
61	0x00000000	0.0
62	0x00000000	0.0
63	0x00000000	0.0
64	0x00000000	0.0
65	0x00000000	0.0
66	0x3cc6f398	0.024286076
67	0x3972c2f7	0.00023151549
68	0x3590bbb6	1.0783467e-06
69	0x394d7e56	0.00019597387
70	0x3903b8fc	0.00012562046
71	0x3567ac73	8.630515e-07
72	0x3d0c9b50	0.034327805
73	0x39aacd52	0.00032577902
74	0x360cdf24	2.099151e-06
75	0x39ad71f6	0.0003308204
76	0x3987c147	0.0002589321
77	0x35c354ef	1.4553351e-06
78	0x1208864e	4.3079577e-28
79	0x0f02312b	6.418964e-30
80	0x00000000	0.0
81	0x1189d92b	2.174863e-28
82	0x104ed483	4.079005e-29
83	0x00000000	0.0
84	0x00000000	0.0
85	0x00000000	0.0
86	0x00000000	0.0
87	0x00000000	0.0
88	0x00000000	0.0
89	0x00000000	0.0
90	0x3c8c7dca	0.017149825
91	0x391de7af	0.00015058996
92	0x3585282a	9.920961e-07
93	0x392ffb6e	0.00016782965
94	0x39017f0a	0.00012349724
95	0x35403aea	7.1611305e-07
96	0x3d604195	0.054750044
97	0x3a0d0e9b	0.00053808995
98	0x365eb559	3.3186136e-06
99	0x3a055fc7	0.00050878193
100	0x39e233fe	0.00043144816
101	0x3615d142	2.2324534e-06
102	0x2c0a3ab1	1.964356e-12
103	0x2bef2db5	1.6994658e-12
104	0x2530c595	1.533251e-16
105	0x278504b7	3.6920027e-15
106	0x2a94a87d	2.6406993e-13
107	0x2583b5ea	2.2848147e-16
108	0x3d9c5873	0.07634058
109	0x3a3913b8	0.0007060128
110	0x369933b2	4.5657735e-06
111	0x3a3cbb21	0.0007199515
112	0x3a17185e	0.0005763824
113	0x36558247	3.1815305e-06
114	0x00000000	0.0
115	0x00000000	0.0
116	0x00000000	0.0
117	0x00000000	0.0
118	0x00000000	0.0
119	0x00000000	0.0
120	0x37e49f86	2.7254002e-05
121	0x37bf66a7	2.2816776e-05
122	0x2fb41435	3.2756167e-10
123	0x34a48676	3.0645214e-07
124	0x3567504f	8.617107e-07
125	0x3105e5b2	1.9484614e-09
126	0x3c84494b	0.01614823
127	0x3916b083	0.0001437087
128	0x35838007	9.797521e-07
129	0x39250d43	0.00015740567
130	0x38f72aef	0.00011785875
131	0x35336b87	6.683917e-07
132	0x3d6bbd0d	0.05755334
133	0x39d769e0	0.0004108688
134	0x3629135c	2.519423e-06
135	0x3a0a5869	0.00052774564
136	0x398011ad	0.00024427232
137	0x360814f5	2.0277778e-06
138	0x3d066e36	0.03281995
139	0x39f6e028	0.00047087786
140	0x35ac6852	1.284536e-06
141	0x39a881ae	0.00032140076
142	0x39a3c0ae	0.0003123334
143	0x35918bfb	1.0844082e-06
144	0x35867623	1.001816e-06
145	0x330d75b3	3.2936168e-08
146	0x2f2bd8bd	1.562936e-10
147	0x327adb4e	1.4601779e-08
148	0x340204f7	1.2109e-07
149	0x2e45dae7	4.498704e-11
150	0x3e3c5a64	0.18393856
151	0x3ae50a58	0.0017474396
152	0x3732baea	1.0653146e-05
153	0x3ae35cff	0.001734644
154	0x3aa71635	0.0012747707
155	0x370284b4	7.779501e-06
156	0x3e4be546	0.1991168
157	0x3ad3d791	0.0016162266
158	0x3744cc09	1.1730016e-05
159	0x3b0c8d40	0.0021446496
160	0x3a92fba6	0.0011213913
161	0x36dad71f	6.5219497e-06
162	0x3d3619df	0.044458266
163	0x399e7046	0.0003021976
164	0x35d9104b	1.6172502e-06
165	0x39dac257	0.00041724995
166	0x3912b7c9	0.0001399211
167	0x35c635f2	1.476785e-06
168	0x3d0dacda	0.034588672
169	0x398a99ad	0.00026435909
170	0x35f588b9	1.8293714e-06
171	0x39bbdb13	0.00035830642
172	0x393eb367	0.00018186645
173	0x35b54d7f	1.3508105e-06
174	0x3a3a3196	0.0007102726
175	0x3800a021	3.066671e-05
176	0x32faff54	2.921994e-08
177	0x364f274e	3.0868282e-06
178	0x37bc9ec9	2.2485287e-05
179	0x32878b07	1.577929e-08
180	0x00000000	0.0
181	0x00000000	0.0
182	0x00000000	0.0
183	0x00000000	0.0
184	0x00000000	0.0
185	0x00000000	0.0
186	0x3ca3e4c2	0.020006541
187	0x3949af5b	0.00019234179
188	0x35a3d5e7	1.22067e-06
189	0x3945f0ec	0.00018877134
190	0x392fe5c9	0.00016774902
191	0x35601c14	8.348736e-07

exp_avg f4 [32]
0	0x381b21db	3.698641e-05
1	0x365138ae	3.1176419e-06
2	0xb9127fe9	-0.00013971295
3	0x392de715	0.0001658465
4	0x37e63eab	2.7447319e-05
5	0x37f7be72	2.9533378e-05
6	0x00000004	6e-45
7	0x3861d0f5	5.3838787e-05
8	0xb7ff2254	-3.0414354e-05
9	0x00000004	6e-45
10	0x00000000	0.0
11	0xb89d9782	-7.514564e-05
12	0x385ef0de	5.315325e-05
13	0x00000004	6e-45
14	0x00000000	0.0
15	0x38463418	4.7255395e-05
16	0x37b7c399	2.1906382e-05
17	0x00000004	6e-45
18	0x38a5a221	7.898012e-05
19	0x00000000	0.0
20	0xb671dbee	-3.6039814e-06
21	0x383b94e0	4.4722925e-05
22	0xb93a90ff	-0.00017792358
23	0xb912558d	-0.00013955515
24	0xb4aa807b	-3.175845e-07
25	0xb94e7613	-0.00019689677
26	0x39e1b0e2	0.00043047132
27	0xb95df4d4	-0.00021167408
28	0xb91747d9	-0.00014427248
29	0xb8987267	-7.269234e-05
30	0x00000000	0.0
31	0x37835e55	1.5660344e-05

exp_avg_sq f4 [32]
0	0x3623541e	2.4337855e-06
1	0x3510ae3b	5.389772e-07
2	0x349ce29b	2.9222142e-07
3	0x36a34ea3	4.866933e-06
4	0x338d301d	6.574576e-08
5	0x35a5399f	1.2310228e-06
6	0x2be8054a	1.648606e-12
7	0x3506dead	5.0242926e-07
8	0x3519478e	5.710107e-07
9	0x05a83954	1.5819703e-35
10	0x00000000	0.0
11	0x35a63f43	1.2386375e-06
12	0x3614fbe8	2.2200347e-06
13	0x0c1bfe31	1.2017259e-31
14	0x00000000	0.0
15	0x358bbab2	1.0410643e-06
16	0x3672d90e	3.6187153e-06
17	0x266f3b86	8.300045e-16
18	0x36a314fb	4.860221e-06
19	0x00000000	0.0
20	0x316826d6	3.378252e-09
21	0x358a6930	1.0312415e-06
22	0x36436b94	2.9119883e-06
23	0x3631441f	2.6414707e-06
24	0x2febed40	4.2914827e-10
25	0x3738e475	1.1020446e-05
26	0x374d7225	1.22455285e-05
27	0x360d2668	2.1032993e-06
28	0x35f3d68e	1.8167354e-06
29	0x33c88345	9.3371035e-08
30	0x00000000	0.0
31	0x35b28e85	1.3303512e-06

exp_avg f4 [32, 32]
0	0x00000004	6e-45
1	0x00000004	6e-45
2	0x00000000	0.0
3	0x00000004	6e-45
4	0x00000000	0.0
5	0x00000004	6e-45
6	0x00000000	0.0
7	0x00000004	6e-45
8	0x00000004	6e-45
9	0x00000000	0.0
10	0x00000000	0.0
11	0x00000004	6e-45
12	0x00000004	6e-45
13	0x00000000	0.0
14	0x00000000	0.0
15	0x00000004	6e-45
16	0x00000004	6e-45
17	0x00000000	0.0
18	0x00000004	6e-45
19	0x00000000	0.0
20	0x00000004	6e-45
21	0x00000004	6e-45
22	0x00000000	0.0
23	0x00000004	6e-45
24	0x00000004	6e-45
25	0x00000004	6e-45
26	0x00000004	6e-45
27	0x00000000	0.0
28	0x00000004	6e-45
29	0x00000004	6e-45
30	0x00000000	0.0
31	0x00000004	6e-45
32	0x3b1070c1	0.0022039863
33	0x3a263b15	0.00063412014
34	0x39a83f2e	0.0003209053
35	0x3a0fe6c4	0.0005489404
36	0xb8bc583c	-8.9809735e-05
37	0x39865375	0.00025620652
38	0x80000004	-6e-45
39	0x3ae1edd3	0.0017237015
40	0x3b1c7c2c	0.0023877723
41	0x00000000	0.0
42	0x00000000	0.0
43	0x3a8942d0	0.0010472182
44	0x3b4052df	0.002934627
45	0x00000004	6e-45
46	0x00000000	0.0
47	0x3a9887dc	0.0011637169
48	0x3ae9beea	0.0017833386
49	0x80000004	-6e-45
50	0x397ff953	0.00024411576
51	0x00000000	0.0
52	0x80000004	-6e-45
53	0x3b4a6f63	0.0030889146
54	0x3af6b934	0.0018823505
55	0x38b3c625	8.5722924e-05
56	0x31541600	3.0862566e-09
57	0x3ad1a6ee	0.0015995183
58	0xb9edc5e1	-0.00045351594
59	0x3b212153	0.0024586513
60	0x3b5baa15	0.0033518125
61	0xb7c2e773	-2.323438e-05
62	0x00000000	0.0
63	0x39be903c	0.00036347087
64	0x00000004	6e-45
65	0x00000004	6e-45
66	0x00000004	6e-45
67	0x00000004	6e-45
68	0x00000004	6e-45
69	0x00000004	6e-45
70	0x80000004	-6e-45
71	0x00000004	6e-45
72	0x00000004	6e-45
73	0x80000004	-6e-45
74	0x00000000	0.0
75	0x00000004	6e-45
76	0x00000004	6e-45
77	0x00000004	6e-45
78	0x00000000	0.0
79	0x00000004	6e-45
80	0x00000004	6e-45
81	0x80000004	-6e-45
82	0x00000004	6e-45
83	0x00000000	0.0
84	0x80000004	-6e-45
85	0x00000004	6e-45
86	0x00000004	6e-45
87	0x00000004	6e-45
88	0x00000004	6e-45
89	0x00000004	6e-45
90	0x00000004	6e-45
91	0x00000004	6e-45
92	0x00000004	6e-45
93	0x00000004	6e-45
94	0x00000000	0.0
95	0x00000004	6e-45
96	0xb7cde4af	-2.4544393e-05
97	0xb79989d8	-1.830321e-05
98	0xb9221578	-0.00015457522
99	0xb826fc96	-3.9812723e-05
100	0xb8ca3ac2	-9.643055e-05
101	0xb80058e8	-3.060038e-05
102	0x80000004	-6e-45
103	0xb8e5e4a4	-0.000109621586
104	0xb841be54	-4.6192043e-05
105	0x00000004	6e-45
106	0x00000000	0.0
107	0xb8645647	-5.4439788e-05
108	0xb8d64bdf	-0.00010218447
109	0x80000004	-6e-45
110	0x00000000	0.0
111	0xb84edc9c	-4.9319686e-05
112	0xb74049c4	-1.1461267e-05
113	0x00000004	6e-45
114	0x382e13b7	4.1503194e-05
115	0x00000000	0.0
116	0xb809a6ac	-3.281857e-05
117	0xb9156a0a	-0.0001424925
118	0xb7188595	-9.091008e-06
119	0x35d02188	1.5506967e-06
120	0x00000004	6e-45
121	0x391132b6	0.00013847169
122	0x3905364e	0.00012704098
123	0xb9702327	-0.00022901279
124	0xb92ea9eb	-0.00016657232
125	0xb8235744	-3.89435e-05
126	0x00000000	0.0
127	0x360efeac	2.1307887e-06
128	0x00000000	0.0
129	0x00000000	0.0
130	0x00000000	0.0
131	0x00000000	0.0
132	0x00000000	0.0
133	0x00000000	0.0
134	0x00000000	0.0
135	0x00000000	0.0
136	0x00000000	0.0
137	0x00000000	0.0
138	0x00000000	0.0
139	0x00000000	0.0
140	0x00000000	0.0
141	0x00000000	0.0
142	0x00000000	0.0
143	0x00000000	0.0
144	0x00000000	0.0
145	0x00000000	0.0
146	0x00000000	0.0
147	0x00000000	0.0
148	0x00000000	0.0
149	0x00000000	0.0
150	0x00000000	0.0
151	0x00000000	0.0
152	0x00000000	0.0
153	0x00000000	0.0
154	0x00000000	0.0
155	0x00000000	0.0
156	0x00000000	0.0
157	0x00000000	0.0
158	0x00000000	0.0
159	0x00000000	0.0
160	0x00000000	0.0
161	0x00000000	0.0
162	0x00000000	0.0
163	0x00000000	0.0
164	0x00000000	0.0
165	0x00000000	0.0
166	0x00000000	0.0
167	0x00000000	0.0
168	0x00000000	0.0
169	0x00000000	0.0
170	0x00000000	0.0
171	0x00000000	0.0
172	0x00000000	0.0
173	0x00000000	0.0
174	0x00000000	0.0
175	0x00000000	0.0
176	0x00000000	0.0
177	0x00000000	0.0
178	0x00000000	0.0
179	0x00000000	0.0
180	0x00000000	0.0
181	0x00000000	0.0
182	0x00000000	0.0
183	0x00000000	0.0
184	0x00000000	0.0
185	0x00000000	0.0
186	0x00000000	0.0
187	0x00000000	0.0
188	0x00000000	0.0
189	0x00000000	0.0
190	0x00000000	0.0
191	0x00000000	0.0
192	0x00000004	6e-45
193	0x00000004	6e-45
194	0x00000000	0.0
195	0x00000004	6e-45
196	0x00000004	6e-45
197	0x00000004	6e-45
198	0x00000004	6e-45
199	0x00000004	6e-45
200	0x00000004	6e-45
201	0x00000000	0.0
202	0x00000000	0.0
203	0x00000004	6e-45
204	0x00000004	6e-45
205	0x00000004	6e-45
206	0x00000000	0.0
207	0x00000004	6e-45
208	0x00000004	6e-45
209	0x00000004	6e-45
210	0x00000004	6e-45
211	0x00000000	0.0
212	0x00000004	6e-45
213	0x00000004	6e-45
214	0x00000004	6e-45
215	0x00000004	6e-45
216	0x00000004	6e-45
217	0x00000004	6e-45
218	0x00000000	0.0
219	0x00000004	6e-45
220	0x00000004	6e-45
221	0x00000004	6e-45
222	0x00000000	0.0
223	0x00000004	6e-45
224	0xb8d39f33	-0.00010090917
225	0xba0502ab	-0.0005073945
226	0xbab79410	-0.0014005918
227	0xba85b52c	-0.0010201088
228	0xb8c9ad10	-9.616662e-05
229	0xb8cc374e	-9.737779e-05
230	0x00000004	6e-45
231	0x3951098f	0.00019935354
232	0x39bdf5b8	0.00036231964
233	0x00000000	0.0
234	0x00000000	0.0
235	0x3a54c699	0.00081167516
236	0x3a3f9326	0.00073079986
237	0x00000004	6e-45
238	0x00000000	0.0
239	0xba101761	-0.0005496648
240	0xb87ec45c	-6.0741193e-05
241	0x80000004	-6e-45
242	0xba569ab8	-0.0008186507
243	0x00000000	0.0
244	0x3603fbb1	1.9667025e-06
245	0x3a837392	0.001002895
246	0x39ee4e1f	0.00045453102
247	0xb9de53ef	-0.00042405675
248	0x3501df89	4.838153e-07
249	0xb9b3a74c	-0.00034266186
250	0xba190932	-0.0005837857
251	0x3a80d4e1	0.0009829068
252	0x38d0aa0e	9.949888e-05
253	0xb92f703c	-0.00016731111
254	0x00000000	0.0
255	0xb9fdbc5b	-0.00048396256

exp_avg_sq f4 [32, 32]
0	0x204cc0d4	1.7343274e-19
1	0x1f49816c	4.267046e-20
2	0x00000000	0.0
3	0x1f3271ee	3.7787207e-20
4	0x00000000	0.0
5	0x20d396b4	3.5844517e-19
6	0x00000000	0.0
7	0x1e9bf5e1	1.6512956e-20
8	0x20fd9813	4.2960501e-19
9	0x00000000	0.0
10	0x00000000	0.0
11	0x20529f40	1.7840383e-19
12	0x208ffff5	2.439452e-19
13	0x00000000	0.0
14	0x00000000	0.0
15	0x1d2c783c	2.282617e-21
16	0x202fde1c	1.4896566e-19
17	0x00000000	0.0
18	0x1f183cec	3.2237645e-20
19	0x00000000	0.0
20	0x20a7096b	2.8297133e-19
21	0x20d70a6a	3.6429308e-19
22	0x00000000	0.0
23	0x200d38e9	1.1961995e-19
24	0x2018ee53	1.2953756e-19
25	0x21edccfc	1.6114004e-18
26	0x20125c3d	1.23972e-19
27	0x00000000	0.0
28	0x203c5581	1.595251e-19
29	0x1c247fed	5.442839e-22
30	0x00000000	0.0
31	0x1d069285	1.7810501e-21
32	0x38faa323	0.000119513155
33	0x37803a26	1.5285867e-05
34	0x36ba9c37	5.5614178e-06
35	0x38109261	3.44686e-05
36	0x364a9c1f	3.019122e-06
37	0x35859390	9.952219e-07
38	0x243d404e	4.103731e-17
39	0x38ca6378	9.650638e-05
40	0x391a111d	0.0001469296
41	0x00000000	0.0
42	0x00000000	0.0
43	0x37d42741	2.5290648e-05
44	0x3982b326	0.00024929008
45	0x0c94cf84	2.2927904e-31
46	0x00000000	0.0
47	0x38675407	5.515295e-05
48	0x38bed5c7	9.099725e-05
49	0x23a41d47	1.7793315e-17
50	0x378ad785	1.6551241e-05
51	0x00000000	0.0
52	0x2af00da8	4.264204e-13
53	0x399886c4	0.00029092107
54	0x381bfcf4	3.719046e-05
55	0x36112237	2.16266e-06
56	0x30a4b355	1.198354e-09
57	0x393aeb29	0.00017825946
58	0x360b51de	2.0760267e-06
59	0x385ed7b6	5.312982e-05
60	0x392c7a89	0.00016448846
61	0x35894f80	1.0230433e-06
62	0x00000000	0.0
63	0x3773794c	1.451217e-05
64	0x2d03b8c2	7.487512e-12
65	0x2cb841c7	5.2368973e-12
66	0x2ac6f677	3.5342885e-13
67	0x2c00e42a	1.831655e-12
68	0x2bf3a22d	1.7311201e-12
69	0x2bcc40b1	1.4513027e-12
70	0x25f63ac2	4.2714013e-16
71	0x2ca4c912	4.6834836e-12
72	0x2cb0cca9	5.0249427e-12
73	0x03866bcd	7.900562e-37
74	0x00000000	0.0
75	0x2b178675	5.3832573e-13
76	0x2d076499	7.696199e-12
77	0x0f0dddab	6.9945284e-30
78	0x00000000	0.0
79	0x2c58d682	3.0814522e-12
80	0x2ca25b27	4.614437e-12
81	0x254a5fba	1.755314e-16
82	0x2bd0cd33	1.4836243e-12
83	0x00000000	0.0
84	0x2b260bfa	5.899167e-13
85	0x2d267592	9.462113e-12
86	0x2af7e046	4.4031635e-13
87	0x2b47f6fc	7.104176e-13
88	0x2c1aac8f	2.1980506e-12
89	0x2c304392	2.5048613e-12
90	0x29dd1bce	9.819195e-14
91	0x2b3488a9	6.41385e-13
92	0x2d4c3109	1.16069454e-11
93	0x2c14e752	2.1160474e-12
94	0x00000000	0.0
95	0x2bd3e03f	1.5054693e-12
96	0x368dbff2	4.224473e-06
97	0x35a8fb87	1.259018e-06
98	0x364a6764	3.0160527e-06
99	0x36ce02ec	6.1396186e-06
100	0x3547daa7	7.445146e-07
101	0x362a09c8	2.5337667e-06
102	0x2e165baf	3.4187483e-11
103	0x36a2201b	4.831714e-06
104	0x3718bc6c	9.103776e-06
105	0x0558fc40	1.0202602e-35
106	0x00000000	0.0
107	0x35b92f52	1.3797346e-06
108	0x3718c96a	9.106801e-06
109	0x0d808e81	7.922916e-31
110	0x00000000	0.0
111	0x36a453b1	4.897324e-06
112	0x366afd71	3.501624e-06
113	0x24d0c3ff	9.053765e-17
114	0x360d47b2	2.105237e-06
115	0x00000000	0.0
116	0x3415a0f9	1.3935268e-07
117	0x373bc210	1.1191252e-05
118	0x353a1a68	6.9328826e-07
119	0x365ae074	3.261518e-06
120	0x2ef699c7	1.1214101e-10
121	0x37c15d76	2.3050914e-05
122	0x36ba2209	5.547194e-06
123	0x364b6515	3.0308195e-06
124	0x37053faf	7.942245e-06
125	0x349bfe4b	2.9056022e-07
126	0x00000000	0.0
127	0x35d78071	1.605613e-06
128	0x00000000	0.0
129	0x00000000	0.0
130	0x00000000	0.0
131	0x00000000	0.0
132	0x00000000	0.0
133	0x00000000	0.0
134	0x00000000	0.0
135	0x00000000	0.0
136	0x00000000	0.0
137	0x00000000	0.0
138	0x00000000	0.0
139	0x00000000	0.0
140	0x00000000	0.0
141	0x00000000	0.0
142	0x00000000	0.0
143	0x00000000	0.0
144	0x00000000	0.0
145	0x00000000	0.0
146	0x00000000	0.0
147	0x00000000	0.0
148	0x00000000	0.0
149	0x00000000	0.0
150	0x00000000	0.0
151	0x00000000	0.0
152	0x00000000	0.0
153	0x00000000	0.0
154	0x00000000	0.0
155	0x00000000	0.0
156	0x00000000	0.0
157	0x00000000	0.0
158	0x00000000	0.0
159	0x00000000	0.0
160	0x00000000	0.0
161	0x00000000	0.0
162	0x00000000	0.0
163	0x00000000	0.0
164	0x00000000	0.0
165	0x00000000	0.0
166	0x00000000	0.0
167	0x00000000	0.0
168	0x00000000	0.0
169	0x00000000	0.0
170	0x00000000	0.0
171	0x00000000	0.0
172	0x00000000	0.0
173	0x00000000	0.0
174	0x00000000	0.0
175	0x00000000	0.0
176	0x00000000	0.0
177	0x00000000	0.0
178	0x00000000	0.0
179	0x00000000	0.0
180	0x00000000	0.0
181	0x00000000	0.0
182	0x00000000	0.0
183	0x00000000	0.0
184	0x00000000	0.0
185	0x00000000	0.0
186	0x00000000	0.0
187	0x00000000	0.0
188	0x00000000	0.0
189	0x00000000	0.0
190	0x00000000	0.0
191	0x00000000	0.0
192	0x23fb2b47	2.7231803e-17
193	0x21a68222	1.1283043e-18
194	0x00000000	0.0
195	0x1f3e9f96	4.036607e-20
196	0x11c29aa9	3.070312e-28
197	0x226274d4	3.069056e-18
198	0x107ff6fd	5.0480156e-29
199	0x221b007d	2.1006676e-18
200	0x241271a8	3.1754974e-17
201	0x00000000	0.0
202	0x00000000	0.0
203	0x1157be4a	1.7019147e-28
204	0x24b42e92	7.814145e-17
205	0x08009096	3.868856e-34
206	0x00000000	0.0
207	0x2135a711	6.1546296e-19
208	0x23aea324	1.893421e-17
209	0x12324337	5.6249745e-28
210	0x1f72b647	5.139627e-20
211	0x00000000	0.0
212	0x0b0c58b3	2.702975e-32
213	0x24c27bfb	8.434412e-17
214	0x110947ee	1.082956e-28
215	0x0e720867	2.9832849e-30
216	0x0bb9b47c	7.153097e-32
217	0x23f66118	2.6712494e-17
218	0x00000000	0.0
219	0x113807e1	1.4517469e-28
220	0x248a4ea4	5.998118e-17
221	0x11a82205	2.6526693e-28
222	0x00000000	0.0
223	0x1ee39dff	2.4099906e-20
224	0x38712ea6	5.7502322e-05
225	0x372defa3	1.0367398e-05
226	0x37818fe1	1.5444997e-05
227	0x37ee7277	2.8425113e-05
228	0x36e3161f	6.7677024e-06
229	0x368df506	4.230652e-06
230	0x2ed37535	9.615989e-11
231	0x383ad313	4.4542434e-05
232	0x388b6599	6.6469605e-05
233	0x00000000	0.0
234	0x00000000	0.0
235	0x373d4e16	1.1283459e-05
236	0x38e3559d	0.0001084015
237	0x0c30c350	1.3617322e-31
238	0x00000000	0.0
239	0x3808f765	3.265533e-05
240	0x38317974	4.23132e-05
241	0x26fd5c6b	1.7580452e-15
242	0x374fd50b	1.2387764e-05
243	0x00000000	0.0
244	0x3315450a	3.4754557e-08
245	0x3901f3d6	0.00012393235
246	0x37d88513	2.5811174e-05
247	0x36dc4751	6.5648132e-06
248	0x30666525	8.381725e-10
249	0x38a804eb	8.01178e-05
250	0x35e1a5b0	1.6812028e-06
251	0x38024155	3.105526e-05
252	0x38bf6737	9.126815e-05
253	0x36032a20	1.9545041e-06
254	0x00000000	0.0
255	0x371af2e5	9.235669e-06

exp_avg f4 [32]
0	0x00000004	6e-45
1	0x3849fb41	4.8156133e-05
2	0x00000004	6e-45
3	0xb564c0d6	-8.521723e-07
4	0x00000000	0.0
5	0x00000000	0.0
6	0x00000004	6e-45
7	0xb7dfb6d9	-2.6668817e-05
8	0x34a1cb4e	3.013651e-07
9	0x00000004	6e-45
10	0x00000004	6e-45
11	0x00000004	6e-45
12	0xb703ae6a	-7.848817e-06
13	0x00000004	6e-45
14	0x00000000	0.0
15	0x151d21f7	3.173269e-26
16	0xb7ec4bd9	-2.8168712e-05
17	0xb6d3d688	-6.3132647e-06
18	0x38c539d9	9.404467e-05
19	0x00000004	6e-45
20	0xb7a6eadf	-1.9898112e-05
21	0x34a98732	3.157707e-07
22	0x00000004	6e-45
23	0x00000000	0.0
24	0x00000004	6e-45
25	0x00000004	6e-45
26	0x35ce38a3	1.536468e-06
27	0x00000004	6e-45
28	0xb700b535	-7.671585e-06
29	0xb79c7375	-1.8650413e-05
30	0x00000004	6e-45
31	0xb7489e26	-1.1957751e-05

exp_avg_sq f4 [32]
0	0x1bf3a526	4.0307702e-22
1	0x349327e4	2.7409908e-07
2	0x2811e983	8.099752e-15
3	0x3295efc3	1.7454914e-08
4	0x00000000	0.0
5	0x00000000	0.0
6	0x1f085767	2.8871418e-20
7	0x341416df	1.3791895e-07
8	0x346986ed	2.1748902e-07
9	0x26a6e6a9	1.1581084e-15
10	0x24d9e047	9.448869e-17
11	0x0b0eef3c	2.7528185e-32
12	0x31b2b71f	5.2013003e-09
13	0x02671755	1.6977896e-37
14	0x00000000	0.0
15	0x2c94574d	4.2161053e-12
16	0x32830fd7	1.525761e-08
17	0x32deb706	2.592743e-08
18	0x3511eb5c	5.43592e-07
19	0x20e4bc44	3.8749286e-19
20	0x32a97379	1.97267e-08
21	0x2f81a235	2.3580218e-10
22	0x0c871cb0	2.081731e-31
23	0x00000000	0.0
24	0x0d89ff27	8.504703e-31
25	0x1bae83be	2.8871022e-22
26	0x30162d41	5.463399e-10
27	0x2291e77e	3.954743e-18
28	0x31d5001a	6.1991274e-09
29	0x31e442fa	6.6432877e-09
30	0x0c9abfd6	2.3842914e-31
31	0x2f8e2e91	2.5862737e-10
