Version1/model/best_model_2.pth (torch, 37922 bytes, 21 tensors)

layer1.weight f4 [32, 6]
00000000: 0c59 453e 5efa 45be 9a90 81bd 6db5 0fbf
00000010: f22a 1c3f 32ad 303d a396 8d3c 0770 323e
00000020: 5c38 96bc 1f47 4dbe aea2 8d3e 77b0 89be
00000030: c3e7 ccbc d821 533f 3b06 90be 659d a9bf
00000040: 913b 603f e24d 73bd aa8f 48bd 014e 4b3f
00000050: 17ca e3bd c313 443e 9219 413e 3719 a2bd
00000060: 88b1 3bbf 1fa0 663e d642 fcbe 09ef 8bbe
00000070: c845 993f 32b7 17c0 c51e 84bb af88 833f
00000080: 9d35 f9be 08ee 163f 1af9 b93d 8200 4a3f
00000090: ebea 38bf 9d63 063f 2198 14be b29d 87bf
000000a0: c1f7 b1be f2de 12c0 47eb 033e 96d2 943e
000000b0: 27bf 48bf 5cc4 e2be 2dbf 3dbe 68b8 e23e
000000c0: 7f65 3c3e b3ec 4e3e 1179 4ebf abd9 113e
000000d0: 05c7 603e f1b1 2d3f e9ba abbd 800e b5be
000000e0: b0d1 e3bd a887 88be d517 373c a077 093e
000000f0: 9efb c1be b887 f33d 70f4 513e f0e6 91bc
00000100: f4eb 2c3e 003c 743e 2bc0 743e 6186 953e
00000110: 79b7 033e 2ec0 a33d 4773 9dbe 09d2 dc3f
00000120: 3e0b a13e 0fb8 89bd f1b1 ab3e c07b 10bf
00000130: 4ba2 e7bd a20a c73d 4da7 bebe 81cf d2be
00000140: 3052 c63c 7100 8c3e 2caa 603e eccf abbe
00000150: a075 58bd 7ee6 4abe 2f3b b6be e866 8abd
00000160: 280b e0bd f44e a9be 53bd 383c a8cc e03e
00000170: 8d40 96be 3125 11be 12f5 433e e9ea cc3c
00000180: 6f45 1e3e 195a 11be d18e 713e 00a7 9bbe
00000190: 0a95 e43e def7 b7be abe6 18bf 5257 ae3e
000001a0: 8310 7dbf 419e d2bf f797 c53d a8b8 67bf
000001b0: 9fdc 86bd 43e5 5d3e b86b bc3d b682 903e
000001c0: 1699 e23e f569 613d bf5d b6be 8d3b 72be
000001d0: 6d9a 6fbe 9d96 9bbe 209f 293e a012 8cbe
000001e0: e3cb 4dbe af39 413f 7c84 96be ebf3 1b3e
000001f0: ef1a 78bf 3ed2 9d3f f837 913e c8e3 863d
00000200: 3743 5dbe 93e8 17bf 70dd c9be 5c46 d63e
00000210: 1000 c23e 0959 48be 27b6 bfbc 4c78 e8bf
00000220: 5636 f23e ecaf a4bf 3470 2bbe 913b 5b3f
00000230: 4fb5 b2be d6ed 3e3f 77a0 b03e 2607 5e3f
00000240: 884c 15bf a6a5 aebe 6057 7cbe 70d5 ef3e
00000250: a17c 183f ab80 2fbf 1eaf 5e3c de3a 6a3e
00000260: c8f7 133f 25fc cf3f 190b 373f 1808 823f
00000270: 4d6e 35be a665 db3e 0837 3fbe 339f f13f
00000280: ba38 0e3d f4d5 de3e 0d40 8d3e 2bad d13e
00000290: b1d5 bebe baf3 0cc0 b282 37bf 4a45 06c0
000002a0: 10a6 a63e 6085 ec3e 61fb eabe 79ec a7bf
000002b0: 1f45 f93e 9720 fbbf ce0a 8ebc de9a 813e
000002c0: fb04 acbc 8a27 0cc0 b7bd b93e 40b1 1ac0
000002d0: 7ee0 cfbe 1006 803e 18f4 993d 9cd1 ddbd
000002e0: fad6 cabe 88b8 0dbd 94d9 4dbd ebae 6a3e
000002f0: 66d0 653e 43b5 113e 6f61 cb3d e76c 28bf
0.1927225 -0.19333789 -0.06326409 -0.5613621 0.6100303 0.043133922 0.017283743 0.17425548
-0.018337421 -0.20046662 0.27663177 -0.26892444 -0.025012856 0.82473516 -0.28129753 -1.3251158
0.8759089 -0.059400447 -0.048965134 0.794159 -0.1112253 0.19148163 0.1885741 -0.079149656
-0.73317766 0.22522019 -0.49269742 -0.27330807 1.197442 -2.3705564 -0.0040319883 1.0276088
-0.48673716 0.58956957 0.090807155 0.78907025 -0.72233456 0.5249575 -0.14511158 -1.0595
-0.34759334 -2.2948575 0.1288272 0.29066914 -0.78416675 -0.44290435 -0.18529959 0.44281316
0.18398093 0.20207481 -0.8065348 0.1424319 0.2195092 0.6784964 -0.0838526 -0.35362625
-0.11123979 -0.26665998 0.011175116 0.1342454 -0.3788728 0.11891121 0.20503402 -0.017810315
0.16886884 0.23851013 0.23901431 0.29204085 0.12862958 0.0799564 -0.30752012 1.7251598
0.3145389 -0.067245595 0.33534196 -0.5643883 -0.11310252 0.09718825 -0.37237015 -0.41173938
0.024209112 0.27344087 0.21939915 -0.3355707 -0.05284655 -0.19814488 -0.35592028 -0.06757909
-0.10939628 -0.3306805 0.011275607 0.4390614 -0.29346123 -0.14174344 0.19136456 0.025014358
0.15456174 -0.14194526 0.23589636 -0.30400848 0.44644958 -0.35931295 -0.5972697 0.34050995
-0.9885332 -1.6454545 0.096481256 -0.9051614 -0.06585049 0.21669488 0.09200233 0.28224725
0.4425742 0.05503269 -0.35618398 -0.2365553 -0.23398753 -0.30388346 0.16564608 -0.2735796
-0.20097308 0.75478643 -0.29397953 0.15229766 -0.969161 1.2329786 0.28363013 0.065864146
-0.21607672 -0.59339255 -0.39426756 0.41850555 0.37890673 -0.19565214 -0.023402287 -1.8161712
0.4730708 -1.2866187 -0.16742021 0.85637766 -0.34903952 0.7458166 0.34497425 0.8672966
-0.583199 -0.34110755 -0.24642706 0.46842527 0.5956517 -0.68555707 0.013591556 0.22874019
0.5779996 1.6248823 0.7150131 1.015872 -0.17717858 0.4285099 -0.18673337 1.8876709
0.034722067 0.43522608 0.2758793 0.4095243 -0.3727241 -2.202376 -0.716838 -2.097979
0.3254857 0.46195507 -0.45894912 -1.3119041 0.48685548 -1.9619321 -0.017339136 0.25313467
-0.020998469 -2.1899133 0.36277553 -2.4170685 -0.4060096 0.25004625 0.0751726 -0.108309954
-0.3961714 -0.03459981 -0.050256327 0.22918288 0.22442779 0.14229302 0.09930693 -0.6579117

layer1.bias f4 [32]
00000000: 41ae cc40 3c17 cd40 50cd 773f ef78 d240
00000010: cc94 07c0 2947 b9c0 9d70 953e 412a a140
00000020: 1b82 c2c0 f066 123e 8c04 603e c755 dec0
00000030: 5d47 c940 1487 1fbe c0bf 52be bdbf cc40
00000040: 3a3a d140 0911 4fbe 621c e540 66bb 983e
00000050: 18af abc0 4e12 bd40 89a5 87c0 cb6a b4c0
00000060: f934 a6c0 6064 b5c0 db8f 2ec0 fc9d 20c0
00000070: 64c4 a4c0 2d44 ab40 98db 7f3e 9fcf da40
6.396271 6.409086 0.96797657 6.5772624 -2.1184568 -5.7899365 0.2918748 5.036408
-6.078382 0.1429708 0.21876734 -6.947971 6.2899613 -0.15578872 -0.2058096 6.3984056
6.5383577 -0.20221342 7.1597147 0.29830474 -5.3651237 5.9084845 -4.238957 -5.6380363
-5.1939664 -5.668503 -2.7275302 -2.5096426 -5.1489735 5.3520722 0.24986112 6.8378444

layer2.weight f4 [32, 32]
00000000: 52c9 cebe 7be5 8ebe 8f78 1cbe ff40 77be
00000010: 698e 0ebe cd02 84be 6053 773c faf8 74be
00000020: a772 21be da39 6fbd c0f3 a93c c0dc aabd
00000030: 4d3d debe c716 98bd 907e efbd 8724 43be
00000040: 5218 cfbe d75a e1bd cfcc 97be 9821 d2bc
00000050: 2c7b 1fbe 3c75 89be d9f9 fbbd 8e7c c1be
00000060: b364 8dbe 4d4c 78be cdb3 24be cca5 23bd
00000070: 399c 71be 606a c9be 8724 333e 2c7b 7ebe
00000080: 4d23 733f 50ff da3e 1d0b 80bf 9b3b 593f
00000090: d761 4abf a9f2 25bf 26c4 a4bf f4d3 e13e
000000a0: 95f1 45bf 355f 18be c438 24be f51f a1be
000000b0: becc 6b3f e7dc c7bd a84f 6dbd a1da c13e
000000c0: 1e99 ad3f e4d6 e7be 0230 af3f 260b 8f3d
000000d0: 2c85 27bf 4ca4 323f 9e6e 8fbf f382 8fbf
000000e0: c7fb 81bf 99ac f0bf 7d99 5ac0 41c0 aebf
000000f0: e3fc 52bf 46e4 a3be ece2 bebd 3153 183f
00000100: 3dd5 913e b329 00be 396b d43c 1310 103f
00000110: fc0f 03bf ca24 6cbf 7e30 80bf b5df c93d
00000120: 5688 0bbf c790 593e 23b2 01be c31a 64bf
00000130: 28ef c33e 70bb e53d d85c 01be c7fc d23d
00000140: 36a7 853e 401f f3be 503e 073f 66f2 05be
00000150: 5604 1dbf 6c24 623e e79d aebf fc75 7abf
00000160: 75f1 ffbe 955b f6bf 9b04 06c0 803b 3abe
00000170: 7b77 85bf 00a1 153e 9009 71bc c39b bfbc
00000180: b1bc aebf 5740 b8bd 8757 b0bf 5794 693e
00000190: 4d59 8ebf bffa b43e d2ab 723f 1d9e c5bd
000001a0: 2957 42bf bee6 7b3d 50d8 063c 7379 0ebf
000001b0: 6c0f adbf 75ff 463c fd4d 85bd 3b9e cb3c
000001c0: 62fc b1bf e0f0 933f 8cb6 1dbd 4432 003d
000001d0: 23df e73f e499 55bf cbb8 46bd 4299 053f
000001e0: e68f ecbd 9af8 063f 0442 483f 8b3e 353f
000001f0: 4248 aabe 016b 93be 754d d5bd 50f3 fe3d
00000200: 8306 0abe dc13 44bd 382e 803d 2ebc adbe
00000210: 1a96 2fbe a9b2 c4be 16fe b63d fdd7 8fbd
00000220: 42aa 5ebe 94ff efbd 0376 97bd 7cb2 b2be
00000230: 8720 b0be c8a4 c1bd 50b6 49bc 1419 9cbd
00000240: 9245 75be ad27 f6bd 0430 8fbe 7621 b43d
00000250: c0b6 12bd bea9 aebe c0ec 543c 61f6 94be
00000260: 3491 8cbd cf58 7dbe a709 4ebe ccc0 1cbd
00000270: beb0 e73d 75c8 273e 3009 c93c f055 8cbe
00000280: 5615 c83d 0430 9cbd 6862 90bc a2c3 d7bd
00000290: 4140 d5bd 47f5 c4bd 76c4 debd 5401 09bd
000002a0: 5b45 203e 0343 2ebe b843 19be 66b3 20be
000002b0: 6a94 11be eca9 6c3d c859 0ebd 6f6f 9abd
000002c0: bea4 2ebe 2c1b 603d 931c c7bd 3110 27be
000002d0: 2659 20be 2031 af3c f662 b83d 0259 f03d
000002e0: 4c84 febd 6e29 0dbe 7dc8 043e 3c9e 39bd
000002f0: 8048 91ba 8ef6 aa3d e41c 0bbe c0cc dfbb
00000300: be87 34bd ed80 52be 24d3 05be 39dd 26be
00000310: 85c6 23be 935f ac3d a8b9 11bc 1808 963d
00000320: 60a1 88bd 0b1f 19be 1498 eabd b48b 68be
00000330: f267 a33c eb59 da3d f76b 2e3e 1229 cdbd
00000340: 0754 a23b 6c3d eebd 0310 1abe 9e05 dcbd
00000350: b0c7 1cbe e05a ccbd f4c2 26be 2438 19bd
00000360: 3258 66be c101 29bd f49e 623d 8161 3a3d
00000370: 1a0b 893c 1580 c43d dd4f 2a3e f775 53be
00000380: 23c0 183f 8bdf a63e 3e8d 893f 3fce 343f
00000390: 68bf 1e3b 289f 11bf 86a1 063f fb81 6abd
000003a0: 971e 14bf 9018 423d 4e09 db3d 6aa4 54bf
000003b0: b075 2c3f 83ed 273d b21d 9abd 9ea3 ba3e
000003c0: 1ffb 743f 0af8 81bf 8708 963f 2677 d33d
000003d0: 6d64 59bf 8d20 703e 0077 08bf 7664 56bf
000003e0: 112b c5be 6f9b 16c0 abae fcbf 1da0 ec3e
000003f0: aa16 fe3e ee61 413f 1805 cabd 6f9d 133f
-0.4038797 -0.27909455 -0.15280364 -0.24145888 -0.13921513 -0.25783387 0.015095562 -0.23923102
-0.15766393 -0.05840478 0.020746112 -0.08342886 -0.43406144 -0.074262194 -0.11694062 -0.19056903
-0.40448242 -0.110036545 -0.29648444 -0.025650784 -0.1557433 -0.26847255 -0.12303514 -0.3779034
-0.2761589 -0.24247856 -0.16084214 -0.039953038 -0.2359475 -0.3933897 0.17494403 -0.24851674
0.9497574 0.42772913 -1.0003392 0.84856576 -0.7905554 -0.64823395 -1.287236 0.4410702
-0.7732175 -0.14880069 -0.1603728 -0.31469694 0.92109287 -0.09758931 -0.057937294 0.37862113
1.3562353 -0.45281136 1.3686526 0.06984548 -0.6543758 0.6978195 -1.1205633 -1.1211838
-1.0154961 -1.8802673 -3.4156182 -1.3652421 -0.82417125 -0.32010096 -0.09320626 0.5950194
0.28483 -0.12515907 0.025930034 0.5627453 -0.51196265 -0.92243636 -1.0014799 0.09857122
-0.5450491 0.21246634 -0.1266561 -0.89103335 0.382684 0.112173915 -0.12633073 0.1030212
0.26104134 -0.4748478 0.52829456 -0.13080749 -0.6133474 0.22084206 -1.3641938 -0.9783628
-0.49988905 -1.9246699 -2.094031 -0.1818676 -1.0427088 0.14612198 -0.0147117525 -0.023389703
-1.3651334 -0.08996647 -1.3776711 0.22810493 -1.1121002 0.35347554 0.94793427 -0.09649298
-0.75914246 0.06149935 0.008230284 -0.55654067 -1.3520331 0.012145867 -0.06509016 0.024855724
-1.3905146 1.1557884 -0.03850417 0.031297937 1.8114971 -0.83437943 -0.048516076 0.5218698
-0.11550884 0.52723086 0.7822573 0.7079856 -0.33258253 -0.28792575 -0.104151644 0.12448752
-0.13479047 -0.047870502 0.062588155 -0.33932632 -0.17147103 -0.38417557 0.08935182 -0.07023618
-0.21744636 -0.117186695 -0.07395556 -0.34901798 -0.34399816 -0.09455258 -0.012311533 -0.07621971
-0.2395232 -0.12019286 -0.2796632 0.08795445 -0.035818815 -0.34113878 0.012995899 -0.29094222
-0.06863633 -0.24740909 -0.2012087 -0.038269803 0.11313008 0.16385062 0.024540514 -0.27409315
0.097696945 -0.07626346 -0.017625049 -0.10535361 -0.10412646 -0.096170954 -0.10877316 -0.033448532
0.15651457 -0.1701775 -0.14967239 -0.15693435 -0.14216772 0.057779238 -0.03475359 -0.075407855
-0.17055032 0.054713413 -0.09722247 -0.1631477 -0.15659007 0.02138573 0.0900325 0.11735727
-0.124275774 -0.13785335 0.12967105 -0.04531692 -0.0011084229 0.08347808 -0.1358524 -0.006829828
-0.044074766 -0.20556994 -0.13068825 -0.16295327 -0.15993698 0.08416667 -0.008894362 0.073257625
-0.06671405 -0.14953248 -0.11454788 -0.22709543 0.019947026 0.10661682 0.17033373 -0.10017599
0.0049538645 -0.11632809 -0.1504517 -0.10743259 -0.1531055 -0.099782705 -0.16285306 -0.037407055
-0.22494581 -0.04126144 0.05532737 0.045503143 0.016728926 0.09594742 0.16632028 -0.20650469
0.5966818 0.32592425 1.0746229 0.70627207 0.0024222974 -0.5688348 0.52590215 -0.057252865
-0.57859176 0.047386706 0.10695134 -0.83063376 0.67367077 0.040997993 -0.07525195 0.36452955
0.9569568 -1.015382 1.1721352 0.1032546 -0.8491886 0.23449917 -0.5330658 -0.8374704
-0.3850942 -2.353237 -1.9740804 0.46215907 0.49626666 0.75540054 -0.09864253 0.576621

layer2.bias f4 [32]
00000000: 187b 65be e407 9d40 ab0a 4240 5403 55c0
00000010: 23c9 a83c 0e21 a93d d642 6ebe c72d 8c40
00000020: 20df b640 5ae3 3c40 883c 16be 5ebd 86bd
00000030: dde9 9b40 89b4 d8bd 96aa d53d 2a58 5640
00000040: c4ee 3bbf d1c7 b540 1670 a240 20e5 0fbe
00000050: ced9 7140 2236 7040 9aa3 15be a85b 2d3d
00000060: c8ce 66be 2200 63be 4db2 87c0 1e8a 21be
00000070: 157f 9940 bcda 43c0 ef2d 22be 320d 7040
-0.22410238 4.907213 3.0319011 -3.3283281 0.020603722 0.08258258 -0.23267683 4.380588
5.714737 2.9513764 -0.14671528 -0.06579088 4.872298 -0.10581309 0.10432927 3.349131
-0.734112 5.6806417 5.0761824 -0.14052248 3.7789187 3.753304 -0.1461319 0.04232374
-0.22539818 -0.2216802 -4.240515 -0.15775344 4.796763 -3.0602255 -0.15837835 3.7508054

layer3.weight f4 [32, 32]
00000000: 59e0 a7bd 67b7 933c 64f0 573a 8259 3abe
00000010: ce1e ae3d a079 7b3c 76c3 a9bd 9d30 66be
00000020: ecb1 7fbd 979f fa3c 50be 2dbe ba43 11be
00000030: 434a 21be 74ea 073d 009c eabd 833d 68bd
00000040: 20e9 debb 0599 97bc f69d aabb f28d 04be
00000050: 1f04 57be cfdc 65be ba54 ecbd 0613 903d
00000060: 15c7 01be 578f 253e 9512 c5bd 99fd 6dbd
00000070: 6d80 8b3b d1d0 f2bd f9c3 c3bd d18c e93d
00000080: 92af 123e 7909 0e40 f5c2 883f fe32 e8be
00000090: 8c25 1d3e ad9d c3bd cdc3 913d 13ed 843f
000000a0: c55c be3f a635 b43f f428 463e 9314 b53d
000000b0: 02b2 733f e814 713d 3c26 efbd e71a 9f3f
000000c0: 9562 943f 7990 923f 6681 e53f a01a 673a
000000d0: 2099 db3e 5f8c 263f dc77 51be b466 2a3d
000000e0: 1c6d 073e 6cfa 30be a0e8 51be 0b8a 0dbe
000000f0: edd6 593f 886d 5f3e 77b0 f6bd 3a04 a73f
00000100: 1d34 8bbd ec3c 29bd 3de7 b43c e36e 903d
00000110: 4beb 293e 0282 13be 28ef aabc 0046 c7be
00000120: 278c ccbe 1c63 52be 3dd5 29be 7e92 e3bd
00000130: e0fb adbe 75db 183e e486 323d a877 05be
00000140: f81e 3bbe fd8d bd3e 58fa 3cbe 5253 f23d
00000150: 8faa 0fbf 371d c1bd 0b8e 213e 5f14 e8bd
00000160: 0878 23be 3e64 f9bd 4f0e 94be 9bad 873c
00000170: 3e00 dfbe 2075 09bf 3aa8 933d 0dee d1be
00000180: fac0 3fbe 2f88 89bf 93d3 febf 29d7 ba3e
00000190: 47e4 65bd bb80 293e 5472 e43d 77cc 17c0
000001a0: f4e0 aebf abaf 17c0 9cfc d8bc b8c2 0fbe
000001b0: 44bc 273e 1dca ecbd 5ca1 15bd 06cc fabf
000001c0: 1400 453f 1b81 133e 5478 9abf 1d83 a5bc
000001d0: a2ff b8c0 b74c 12c0 c7cd 263e dca4 bfbd
000001e0: 01a1 19be 54cc 9f3e 8866 3fbf 4ea3 30be
000001f0: 77fe 053e 5118 2d3f ba1f f23d 9397 03c0
00000200: 17e3 203e efd0 1740 056f aa3f 3eab c8be
00000210: cd47 7b3e e682 ecbd 458b 4a3e 0259 e63f
00000220: c3d6 ed3f 6092 fc3f fd35 583e 2c5d 173d
00000230: 001a 883f 4d3a b0bc 506e 173d b8be aa3f
00000240: 8e9a 6d3f bcc3 b23f 6661 0440 3022 b93d
00000250: d604 553f 297c 793f d121 9bbd a8db b6bc
00000260: 5b52 fe3d ce5b a3be 9541 44be c1ab 38be
00000270: ad55 8c3f 511f 933e aeac 32be 481b c33f
00000280: 1620 d4bd dcfa 283c dc4d 46be 08e5 673d
00000290: 0899 583d 4aff a8bd e59c 43be 159b 67bd
000002a0: 1025 21bc 6017 5bbe 64ad 64bc de44 213d
000002b0: 1c38 9bbc 1749 2cbe 708b dabd 161f 42be
000002c0: 881f d5bd 5c91 0ebd d5e9 e2bc 15fb 113e
000002d0: 7cdb db3c f829 133c 0557 483e 424d df3d
000002e0: 8271 02be a354 dcbd 3437 adbd 1be5 24be
000002f0: 889d d1bd badf b8bd d4dd cbbd 5743 37be
00000300: d2ce b93d 5193 cfbd 1eac bebc 92c6 79bc
00000310: b6ad 0cbe 94ac 2cbd 3a1a 9f3d c0b1 2e3c
00000320: f4eb ccbd 418d bebd 124f 5bbe 0d75 05be
00000330: 5885 e03c 028b 26be 50c0 b73c b18a 943d
00000340: 8064 cebd dc83 d3bd a677 debd ae11 953d
00000350: 46aa ce3d fea3 0bbe 3aa6 bd3d 4210 33be
00000360: 2087 8fbc cb46 2c3e 13f7 c7bd c646 c6bd
00000370: bb16 33be bafb d9bd 69c7 e2bd 541d 06be
00000380: 10fb d9bc e89a d3bc 603f 843d 8ecf bfbe
00000390: af1c 323e 50a2 f03c b7c6 2dbe 0948 6cbd
000003a0: 9c45 42be 14bc 87bd e2d8 d13d 186d aabd
000003b0: d4f8 acbe 7a10 b33d d912 cabd f8ae 60bd
000003c0: 254d 8dbe 5a33 9cbe 77d4 d2bd 4a89 f6bd
000003d0: 3427 90bd 242a 233d 48fd 863d b86c 4f3d
000003e0: 8069 69bc a34c dcbd b6e7 20be 803c 3cbe
000003f0: 470a acbe 83a5 14be 06b6 ae3d 2d31 84be
-0.08197088 0.018031789 0.000823742 -0.18198207 0.08501969 0.015348822 -0.08289234 -0.22479482
-0.06242554 0.030593676 -0.1696713 -0.14185992 -0.15750985 0.033182576 -0.11455536 -0.056699287
-0.006802693 -0.018505583 -0.0052068187 -0.12944773 -0.20997666 -0.22447513 -0.11539598 0.070348784
-0.126736 0.16167961 -0.09622685 -0.058103178 0.004257253 -0.11856235 -0.09558863 0.11403812
0.14324787 2.2193282 1.0684496 -0.45351404 0.15346354 -0.09551559 0.07117424 1.0384849
1.4872061 1.4078872 0.1935156 0.08841815 0.95193493 0.05885783 -0.116772145 1.2430085
1.1592585 1.145034 1.7930114 0.0008815918 0.42890263 0.6505794 -0.20455879 0.04160185
0.13225216 -0.17283028 -0.20498896 -0.1382219 0.85093576 0.21819127 -0.12045377 1.3048165
-0.06797049 -0.041317865 0.02208292 0.070524 0.16593663 -0.14405063 -0.020865992 -0.38920593
-0.39950678 -0.2054562 -0.1658525 -0.111119255 -0.33981228 0.14927466 0.043585673 -0.13033926
-0.18273532 0.3702239 -0.18454874 0.11832298 -0.56119627 -0.094294004 0.15776841 -0.113320105
-0.15963757 -0.12177323 -0.28917167 0.016562274 -0.43554872 -0.53694344 0.07209821 -0.4100193
-0.18725958 -1.0744685 -1.9908317 0.3649228 -0.056125905 0.16553013 0.11154619 -2.3718545
-1.36624 -2.370097 -0.026487641 -0.14039123 0.16380411 -0.115619875 -0.036530837 -1.9593513
0.76953244 0.14404719 -1.2067971 -0.020204121 -5.781205 -2.2859323 0.16289435 -0.09357616
-0.15002824 0.31210577 -0.74765825 -0.17249796 0.13085352 0.6761523 0.118224576 -2.0561264
0.15711628 2.3721273 1.331513 -0.39193147 0.24539109 -0.115484044 0.1977969 1.7995913
1.8581165 1.973217 0.21114345 0.03695409 1.0632935 -0.021512175 0.036970437 1.3339453
0.92813957 1.3965983 2.0684447 0.09039724 0.83210504 0.9745508 -0.07574809 -0.022321537
0.12418052 -0.3190598 -0.19165643 -0.18034269 1.0963646 0.2873483 -0.17448685 1.52427
-0.103576824 0.010313716 -0.19365638 0.056614906 0.052880317 -0.082518175 -0.1910282 -0.056544382
-0.009835497 -0.21395636 -0.013957355 0.039372317 -0.018947653 -0.16824757 -0.10671127 -0.18957171
-0.10406405 -0.034806594 -0.02769939 0.14255936 0.026838057 0.008982174 0.19564445 0.10903408
-0.12738612 -0.10758331 -0.08457795 -0.16103022 -0.10235125 -0.090270475 -0.0995442 -0.17896782
0.09072651 -0.1013552 -0.023275431 -0.015245097 -0.1373814 -0.04215677 0.07768674 0.010662496
-0.10005942 -0.09304286 -0.21416882 -0.13032933 0.027407333 -0.16263965 0.022430569 0.07253016
-0.100777626 -0.103278846 -0.10862665 0.07278763 0.10091071 -0.13636777 0.09260221 -0.1748667
-0.017520487 0.1682388 -0.097639225 -0.09681468 -0.1748914 -0.10643716 -0.11073191 -0.13097125
-0.026608974 -0.025830701 0.064574 -0.3746304 0.17393754 0.029374272 -0.16970335 -0.057685886
-0.18971866 -0.0662767 0.10246445 -0.08321589 -0.3378359 0.08743377 -0.09866876 -0.054854363
-0.2759792 -0.30507928 -0.10294431 -0.120379046 -0.070387274 0.03983511 0.06591278 0.05064079
-0.014246345 -0.10756805 -0.1571339 -0.18382454 -0.3360159 -0.14516263 0.08530812 -0.25818768

layer3.bias f4 [32]
00000000: 5adc 32be 10a4 0640 9b1c 5cbe ea9c 99bf
00000010: 3539 4640 da39 eb3c 5777 b1bc aa69 8abe
00000020: 0726 b6bf 8215 a2bf 6d24 ec3f ead4 0bc0
00000030: fa5e 3340 b4ea d9bf 814c 13c0 6d1d 02be
00000040: 0e6e bbbf 3471 9dbf 7a51 3abe 381d 3140
00000050: 98d0 1cbe 2f2c 573c aca5 a3bf c513 88bd
00000060: 2a45 da3f 09cc c8bf 5cc2 1840 e31b 90bd
00000070: 411d c53d 5f1b 193e f4f2 66bf 8580 06c0
-0.1746687 2.1037636 -0.21495287 -1.2001011 3.0972416 0.02871411 -0.021663351 -0.2703374
-1.4230355 -1.2662814 1.8448616 -2.1848702 2.802672 -1.7024751 -2.3015444 -0.12706538
-1.4642961 -1.2300172 -0.18195143 2.7674084 -0.15313947 0.013133093 -1.2784934 -0.06644396
1.7052357 -1.5687267 2.3868628 -0.07036569 0.0962472 0.14951847 -0.9021447 -2.1015942

output_layer.weight f4 [1, 32]
00000000: e3ec 2b3d fdcd b53f 96c7 9f3e 6ae9 f6bf
00000010: 8232 ac3f f51f 4f3b cb4e 363d 4463 9d3d
00000020: eed7 0ac0 84c3 01c0 c7c1 b83f 7d15 1bc0
00000030: 0f75 b63f 987f b1bf b120 0bc0 6ee6 ab3c
00000040: 4cec 24c0 9b56 23c0 6a5f 0dbe 9fc6 b53f
00000050: c5cf 2fbd cf1e a5bd f70b 22c0 0b36 60bc
00000060: 9995 aa3f e50e 81bf f05a b53f bac8 4b38
00000070: 5855 8fbc a5f9 163e e758 12c0 dbda 11c0
0.04197396 1.4203488 0.3120696 -1.9289982 1.3452914 0.0031604741 0.044508737 0.07684949
-2.1694293 -2.0275583 1.4434136 -2.4231865 1.4254473 -1.3867064 -2.1738703 0.0209839
-2.5769224 -2.552161 -0.13805929 1.4201239 -0.042922754 -0.08062517 -2.5319803 -0.01368476
1.3326904 -1.008267 1.4168377 4.8585913e-05 -0.01749675 0.1474367 -2.2866762 -2.2789829

exp_avg f4 [32, 6]
00000000: 64f0 b93d 7521 253b 8f7e 4539 04b9 003c
00000010: 82ff 8e3b 01d4 6439 9304 4c3d 5498 c83a
00000020: f15c ec38 7f59 8e3b 9519 2a3b 6183 ec38
00000030: 490e 63bc 62ff 1cba da69 58b8 f024 b1ba
00000040: ea8d 91ba 15fc b4b8 709f e53d 9a55 553b
00000050: 2f02 6839 1772 273c ed1b b43b 7be8 9239
00000060: 957c deb7 72f7 81b7 6931 5fb7 7da0 aeb6
00000070: 793e 3bb8 3c11 2bb4 1e23 87bd f94f e4ba
00000080: 6b94 02b9 5f5f c3bb 843c 4bbb 8d2a 32b9
00000090: 0400 0000 0400 0000 0400 0000 0400 0000
000000a0: 0400 0000 0400 0000 6876 313d c973 a03a
000000b0: 1f6e ba38 16f7 803b 57a5 063b 57cd e138
000000c0: e59f 29bd 642c 5dba 2f4b b4b8 960c 66bb
000000d0: d8b9 d6ba c223 e3b8 0400 0000 0400 0000
000000e0: 0000 0000 0400 0000 0400 0000 0000 0000
000000f0: 0000 0000 0000 0000 0000 0000 0000 0000
00000100: 0000 0000 0000 0000 0be1 7ebd ff4b 00bb
00000110: 2960 4eb8 a1bb a3bb 5445 53bb 7bfb 01b9
00000120: ec59 b03d a985 1d3b 27d7 4239 7c65 f83b
00000130: 3f58 883b dd55 6039 0400 0000 0400 0000
00000140: 0000 0000 0400 0000 0400 0000 0000 0000
00000150: 0000 0000 0000 0000 0000 0000 0000 0000
00000160: 0000 0000 0000 0000 f431 753d d2c1 f33a
00000170: 6c1d f838 bf74 ad3b 0198 483b b518 1239
00000180: 3efe e83d 0a4e 483b 8c60 8439 5940 203c
00000190: 3cb0 b13b 5379 8f39 0400 0000 0400 0000
000001a0: 0400 0000 0400 0000 0400 0000 0400 0000
000001b0: fa38 f03d dda9 593b 5357 9439 c81b 363c
000001c0: 89cc cc3b 1c1e a139 0000 0000 0000 0000
000001d0: 0000 0000 0000 0000 0000 0000 0000 0000
000001e0: 6bd9 4e3a 8cc9 a839 60b7 5235 c1c7 8638
000001f0: 83d4 8b38 1050 dc36 2825 813d 5a67 e53a
00000200: 5033 1039 5df2 b73b fefa 453b cc98 2339
00000210: eeaf 91bd 5574 ccba 1948 09b9 46b8 d7bb
00000220: 91ec 30bb 28e5 50b9 7ca5 563a c3de cd3a
00000230: 4ff4 c5b8 3e03 82ba 25fa 9d39 3b51 bb36
00000240: 0400 0000 0400 0000 0400 0080 0400 0000
00000250: 0400 0000 0400 0000 9c75 2ebe 957b 8dbb
00000260: ce72 c8b9 9f89 7bbc 5fad 03bc 41f6 f0b9
00000270: 07f4 03be 5217 d5bb 99dc 37b9 0cfe 49bc
00000280: d736 a8bb 923d 9db9 f0a7 0cbe b94e 92bb
00000290: 77ab abb9 5997 59bc 9dfd b9bb 46a6 b7b9
000002a0: 503a 92bd 7169 dcba 4b09 ecb8 609a cebb
000002b0: 017d 3abb 6ba6 35b9 d84c d23a 5515 e0b9
000002c0: 6981 75b6 e524 61b9 e76f afb9 e8a5 fab6
000002d0: 0000 0000 0000 0000 0000 0000 0000 0000
000002e0: 0000 0000 0000 0000 0f8e 963d 2dfb 193b
000002f0: 2d8b 3539 4f97 dd3b 4c56 843b 7e49 3739
0.09079054 0.0025196944 0.00018834531 0.007856611 0.004363955 0.00021822752 0.04980905 0.0015304186
0.000112706686 0.004344165 0.002595519 0.00011277828 -0.013858386 -0.0005988983 -5.1596995e-05 -0.0013515037
-0.0011104916 -8.630023e-05 0.11212051 0.0032552243 0.00022126058 0.010220072 0.005496493 0.00028020501
-2.6522475e-05 -1.5493224e-05 -1.330334e-05 -5.2042874e-06 -4.4642456e-05 -1.5931886e-07 -0.06598495 -0.0017418853
-0.00012453056 -0.005962297 -0.0031011412 -0.00016991254 6e-45 6e-45 6e-45 6e-45
6e-45 6e-45 0.04332581 0.0012241538 8.889683e-05 0.003935705 0.0020545328 0.000107670836
-0.041412253 -0.00084370957 -8.597073e-05 -0.0035102717 -0.001638229 -0.00010830864 6e-45 6e-45
0.0 6e-45 6e-45 0.0 0.0 0.0 0.0 0.0
0.0 0.0 -0.062226336 -0.0019576547 -4.9203783e-05 -0.0049967323 -0.0032237368 -0.00012396082
0.08610901 0.0024035966 0.00018581432 0.0075804573 0.0041609104 0.00021394291 6e-45 6e-45
0.0 6e-45 6e-45 0.0 0.0 0.0 0.0 0.0
0.0 0.0 0.059862092 0.0018597192 0.00011831042 0.0052934582 0.003060818 0.00013932849
0.11376618 0.0030564093 0.00025248935 0.009780967 0.00542262 0.0002736548 6e-45 6e-45
6e-45 6e-45 6e-45 6e-45 0.117296174 0.0033212819 0.0002829382 0.011115022
0.0062499684 0.00030730746 0.0 0.0 0.0 0.0 0.0 0.0
0.0007890674 0.0003219362 7.849794e-07 6.426825e-05 6.66762e-05 6.5658314e-06 0.06305915 0.0017502115
0.00013752026 0.0056136088 0.0030209417 0.00015601813 -0.07113634 -0.0015598634 -0.00013092197 -0.0065832464
-0.0026996473 -0.00019921793 0.0008188111 0.0015706647 -9.439198e-05 -0.0009919179 0.00030131746 5.5824908e-06
6e-45 6e-45 -6e-45 6e-45 6e-45 6e-45 -0.17037052 -0.0043177106
-0.0003823251 -0.015352636 -0.00803694 -0.0004595984 -0.12886058 -0.006503024 -0.00017534419 -0.012328636
-0.0051334905 -0.00029991247 -0.13735938 -0.004464951 -0.00032743413 -0.013280713 -0.005675985 -0.00035028363
-0.071400285 -0.0016816092 -0.00011255088 -0.006305024 -0.0028455856 -0.000173235 0.001604463 -0.00042740503
-3.6583172e-06 -0.00021471416 -0.00033461975 -7.4698946e-06 0.0 0.0 0.0 0.0
0.0 0.0 0.07351314 0.002349566 0.00017313352 0.006762422 0.0040386077 0.00017479618

exp_avg_sq f4 [32, 6]
00000000: 1455 343d 7e01 453a 02fb a936 8740 f739
00000010: f88b 593a 73bb f035 ba88 5d3c 5dea 8839
00000020: 3f5e df35 b20a 1b39 d297 9639 23b6 1835
00000030: 0b51 9e3b 1ea0 5f39 081f a334 c5c9 cc37
00000040: 5a0f 1839 64a4 0d34 fb29 9c3d 8d83 9f3a
00000050: 4db3 0837 520a 5e3a 15c5 a23a df69 5136
00000060: f544 b837 aa03 8836 5b89 1432 c16d 8c34
00000070: 61ca 9f36 c637 8030 6013 ee3c bf5f e639
00000080: 44b6 3f36 5020 a839 d014 d339 e48c 9935
00000090: 76ec 6a2f d972 fc2f d1ec 5a28 543d e128
000000a0: 20dd 802d 403e f028 144c 243c dbdc 2139
000000b0: 3c62 9435 bc2a e238 ece1 3a39 8c3d d634
000000c0: d269 343c 035e 1739 05ef 9035 0039 e438
000000d0: 667d 1239 1efc cf34 63b7 3b07 091e 0504
000000e0: 0000 0000 e2c1 9504 63b7 3b07 0000 0000
000000f0: 0000 0000 0000 0000 0000 0000 0000 0000
00000100: 0000 0000 0000 0000 9200 cd3c 6a1a e739
00000110: 1c4e 1236 8f34 8739 3ded a439 1dc7 7035
00000120: 5747 203d 8487 293a 2f07 9836 138f d939
00000130: ec47 3f3a cec0 d435 f610 580f 4a0b 4e0c
00000140: 0000 0000 2b29 da0e a1aa a30d 0000 0000
00000150: 0000 0000 0000 0000 0000 0000 0000 0000
00000160: 0000 0000 0000 0000 0b96 9a3c e804 bb39
00000170: 5fb5 1536 d266 5d39 7256 ca39 872a 5935
00000180: 0f67 903d 48ea 9a3a ad2d 0837 2e73 413a
00000190: ed05 aa3a c823 3c36 acc3 5a29 9b43 3d29
000001a0: 9be1 8b22 7c84 d224 d344 eb27 a172 d022
000001b0: 37a7 bd3d 0cb8 ce3a 7696 3237 5823 833a
000001c0: acc8 de3a f24d 7c36 0000 0000 0000 0000
000001d0: 0000 0000 0000 0000 0000 0000 0000 0000
000001e0: 52a8 a736 f2a5 9536 623b 6e30 d4db 8932
000001f0: 918a 9e34 9fd9 5e2f a2c2 ab3c 5c5b ae39
00000200: dae8 2036 c326 6e39 e751 c839 2811 6235
00000210: bc59 163d 1429 cd39 9ba1 5136 d9ba c839
00000220: 8a8c b839 1e80 aa35 c333 0c3d 16be 633a
00000230: 051d 7236 c578 c139 9170 603a 6ce1 c635
00000240: 1212 d632 e1fa 6030 ecfb 872c 31cc c72f
00000250: 0db3 5b31 8590 9c2b cb9c 403e 3d4e 333b
00000260: 9d83 a537 feb7 fc3a e792 353b 9f80 f136
00000270: cd4d f83d a0e3 8d3a 4ecc d136 e910 b63a
00000280: 2e0c 623a 3db0 1536 90bb 2b3d c716 bb39
00000290: db6b 7235 5218 aa39 8f94 4339 4f6f 4435
000002a0: 1cfc 073d c3fc d239 a732 4336 f699 cd39
000002b0: 6804 ce39 4429 a635 ad24 843b 491e 8439
000002c0: 97ef ac34 164b 0737 e4e9 2939 af4d fc33
000002d0: 0000 0000 0000 0000 0000 0000 0000 0000
000002e0: 0000 0000 0000 0000 7480 063d 75d5 213a
000002f0: 6101 8436 51ea c039 a54d 2c3a 65ed b935
0.04402645 0.0007515176 5.0658136e-06 0.00047159588 0.000829875 1.7935948e-06 0.013521368 0.00026114556
1.6642224e-06 0.00014785936 0.00028723344 5.6889456e-07 0.0048314384 0.00021326586 3.0383694e-07 2.4412651e-05
0.00014501569 1.3191453e-07 0.07625195 0.0012169942 8.147978e-06 0.0008470166 0.0012418354 3.1205052e-06
2.196662e-05 4.0535424e-06 8.645965e-09 2.6156889e-07 4.7621293e-06 9.329078e-10 0.029061973 0.00043940355
2.856731e-06 0.00032067532 0.00040260563 1.1440393e-06 2.1366184e-10 4.5920137e-10 1.2152782e-14 2.5006615e-14
1.4650114e-11 2.667235e-14 0.010027904 0.00015436432 1.1055449e-06 0.0001078448 0.00017822505 3.9905387e-07
0.011011558 0.00014435504 1.07984e-06 0.00010882504 0.0001397036 3.8740194e-07 1.4122209e-34 1.5647866e-36
0.0 3.5207785e-36 1.4122209e-34 0.0 0.0 0.0 0.0 0.0
0.0 0.0 0.025024686 0.00044079433 2.180116e-06 0.00025788366 0.00031457274 8.9696715e-07
0.039130535 0.0006467032 4.5307893e-06 0.00041496064 0.0007296789 1.5851344e-06 1.0652889e-29 1.587306e-31
0.0 5.3780792e-30 1.0086728e-30 0.0 0.0 0.0 0.0 0.0
0.0 0.0 0.018870374 0.00035671075 2.2308302e-06 0.00021114506 0.0003859285 8.0900685e-07
0.07050907 0.0011819089 8.116866e-06 0.0007379529 0.0012971737 2.803501e-06 4.8575442e-14 4.202507e-14
3.7914895e-18 9.129742e-17 6.530022e-15 5.649988e-18 0.09260409 0.0015771403 1.0644659e-05 0.001000504
0.0016997061 3.7596296e-06 0.0 0.0 0.0 0.0 0.0 0.0
4.996583e-06 4.4598646e-06 8.6668284e-10 1.6048865e-08 2.9530614e-07 2.0268097e-10 0.020966832 0.00033255934
2.3977395e-06 0.00022711889 0.00038207995 8.4216526e-07 0.03670667 0.00039131253 3.1237494e-06 0.00038286185
0.00035199925 1.2703274e-06 0.03422905 0.0008687688 3.6077702e-06 0.0003690181 0.00085616956 1.4817756e-06
2.4921096e-08 8.1847246e-10 3.8648997e-12 3.6342976e-10 3.1970473e-09 1.1124579e-12 0.18809812 0.0027359866
1.973082e-05 0.0019280908 0.0027705969 7.197333e-06 0.12124214 0.0010825284 6.2524696e-06 0.0013890538
0.0008623031 2.2305314e-06 0.04192692 0.0003568439 9.0308976e-07 0.00032443047 0.00018651992 7.3177665e-07
0.033199415 0.00040242643 2.9086748e-06 0.00039215357 0.00039294665 1.2379974e-06 0.0040326924 0.00025199566
3.221182e-07 8.064109e-06 0.00016204227 1.1748795e-07 0.0 0.0 0.0 0.0
0.0 0.0 0.032837346 0.000617347 3.934067e-06 0.00036795673 0.0006572849 1.3852665e-06

exp_avg f4 [32]
00000000: 23dd 2f3a 394f c639 28a4 0cb9 dfce 593a
00000010: 1d3e 3ab6 41bc fbb9 0400 0000 ee64 a739
00000020: 971d 98b9 0400 0000 0000 0000 bbd3 f1b9
00000030: dd91 273a 0400 0000 0000 0000 41fc eb39
00000040: 195c 5c3a 0400 0000 886c 6b3a 0000 0000
00000050: fe90 0f37 1fad f439 55a3 01ba c65d ec37
00000060: 0400 0000 0e2f a4ba 18a0 8bba 307b 72ba
00000070: de89 01ba 7d15 6db7 0000 0000 26a0 143a
0.0006708672 0.00037824528 -0.00013412593 0.0008308719 -2.7752315e-06 -0.0004801471 6e-45 0.0003192792
-0.00029013745 6e-45 0.0 -0.00046124854 0.000639228 6e-45 0.0 0.00045010637
0.00084060576 6e-45 0.0008980711 0.0 8.557223e-06 0.00046668292 -0.0004945298 2.8177059e-05
6e-45 -0.001252623 -0.001065257 -0.0009249924 -0.0004941503 -1.4131304e-05 0.0 0.0005669616

exp_avg_sq f4 [32]
00000000: 8ade 9936 13d8 cd35 cfb1 3f35 06d4 f436
00000010: 5121 8532 79ef 2636 8d99 3729 ea4f 8935
00000020: 09a5 6e35 091e 0503 0000 0000 da0d 0236
00000030: 4464 8936 aee0 7609 0000 0000 618d 0c36
00000040: 75ab f236 8b4e bd23 bc15 2237 0000 0000
00000050: a55a 8730 f872 1136 8d3c 3036 4f9c 9a36
00000060: 2e07 452d 18d9 8d37 4a36 0f37 8014 2236
00000070: e22c 2e36 906a 2c35 0000 0000 6dc1 7136
4.5856623e-06 1.5336576e-06 7.141179e-07 7.2964494e-06 1.5498388e-08 2.487532e-06 4.0767347e-14 1.0230553e-06
8.8902067e-07 3.9119666e-37 0.0 1.9379572e-06 4.0945906e-06 2.9716817e-33 0.0 2.094392e-06
7.2321222e-06 2.0524685e-17 9.661013e-06 0.0 9.848306e-10 2.1673604e-06 2.626129e-06 4.6077544e-06
1.1199748e-11 1.6909602e-05 8.536104e-06 2.4151814e-06 2.5954146e-06 6.423006e-07 0.0 3.6024387e-06

exp_avg f4 [32, 32]
00000000: 0400 0000 0400 0000 0000 0000 0400 0000
00000010: 0000 0000 0400 0000 0000 0000 0400 0000
00000020: 0400 0000 0000 0000 0000 0000 0400 0000
00000030: 0400 0000 0000 0000 0000 0000 0400 0000
00000040: 0400 0000 0000 0000 0400 0000 0000 0000
00000050: 0400 0000 0400 0000 0000 0000 0400 0000
00000060: 0400 0000 0400 0000 0400 0000 0000 0000
00000070: 0400 0000 0400 0000 0000 0000 0400 0000
00000080: 9e82 863b e2f4 8c3a b68b d2b9 0577 263a
00000090: 90f3 c937 83c1 1d3a 0400 0080 3283 223b
000000a0: 22af 5e3b 0000 0000 0000 0000 0e62 873b
000000b0: c025 cc3b 0400 0000 0000 0000 e577 8f3a
000000c0: 2c16 763b 0400 0080 af18 173a 0000 0000
000000d0: 0400 0080 bf10 af3b 08c6 6f3b c2b7 3cb9
000000e0: 0400 0080 4697 593b 1cdd 29b7 e343 f439
000000f0: 91cd 683b 3971 c5b9 0000 0000 1fe0 a839
00000100: 0400 0000 0400 0000 0400 0000 0400 0000
00000110: 0400 0000 0400 0000 0400 0080 0400 0000
00000120: 0400 0000 0400 0080 0000 0000 0400 0000
00000130: 0400 0000 0400 0000 0000 0000 0400 0000
00000140: 0400 0000 0400 0080 0400 0000 0000 0000
00000150: 0400 0080 0400 0000 0400 0000 0400 0000
00000160: 0400 0000 0400 0000 0400 0000 0400 0000
00000170: 0400 0000 0400 0000 0000 0000 0400 0000
00000180: 6c1f 6135 eaf6 a334 d48e 0226 3ba2 4b37
00000190: 0400 0000 7755 c437 0400 0080 eca3 1c36
000001a0: 27a3 9837 0400 0000 0000 0000 f6d7 b037
000001b0: 6844 4237 0400 0080 0000 0000 063f 8136
000001c0: 2aa2 c736 0400 0000 2751 1737 0000 0000
000001d0: 0400 0000 d1e7 1637 0400 0000 4b40 6437
000001e0: 0400 0000 e228 5238 cb5e 3d38 0400 0000
000001f0: 323b 4d27 0400 0000 0000 0000 6578 c136
00000200: 0000 0000 0000 0000 0000 0000 0400 0000
00000210: 0000 0000 0400 0000 0000 0000 0000 0000
00000220: 0400 0000 0000 0000 0000 0000 0400 0000
00000230: 0400 0000 0000 0000 0000 0000 0000 0000
00000240: 0400 0000 0000 0000 0400 0000 0000 0000
00000250: 0000 0000 0400 0000 0000 0000 0400 0000
00000260: 0000 0000 0400 0000 0400 0000 0000 0000
00000270: 0000 0000 0000 0000 0000 0000 0400 0000
00000280: 0000 0000 0000 0000 0000 0000 0000 0000
00000290: 0000 0000 0000 0000 0000 0000 0000 0000
000002a0: 0000 0000 0000 0000 0000 0000 0000 0000
000002b0: 0000 0000 0000 0000 0000 0000 0000 0000
000002c0: 0000 0000 0000 0000 0000 0000 0000 0000
000002d0: 0000 0000 0000 0000 0000 0000 0000 0000
000002e0: 0000 0000 0000 0000 0000 0000 0000 0000
000002f0: 0000 0000 0000 0000 0000 0000 0000 0000
00000300: 0400 0000 0400 0000 0000 0000 0400 0000
00000310: 0400 0000 0400 0000 0400 0000 0400 0000
00000320: 0400 0000 0000 0000 0000 0000 0400 0000
00000330: 0400 0000 0400 0000 0000 0000 0400 0000
00000340: 0400 0000 0400 0000 0400 0000 0000 0000
00000350: 0400 0000 0400 0000 0400 0000 0400 0000
00000360: 0400 0000 0400 0000 0000 0000 0400 0000
00000370: 0400 0000 0400 0000 0000 0000 0400 0000
00000380: c427 153b acce 523a 36ea 0539 dc24 303a
00000390: 47d3 6e37 2953 c739 0400 0000 2690 a93a
000003a0: 988a c83a 0000 0000 0000 0000 43c9 da3a
000003b0: b88f 433b 0400 0000 0000 0000 2964 5a3a
000003c0: a0bb 043b 0400 0080 0c7d 1e3a 0000 0000
000003d0: 8a7c 1c36 9ea7 233b 669b 073b e8f7 97b8
000003e0: 0400 0080 c500 be3a b262 ad38 43a6 213a
000003f0: 25fa 083b 5b04 ef36 0000 0000 7b05 c139
6e-45 6e-45 0.0 6e-45 0.0 6e-45 0.0 6e-45
6e-45 0.0 0.0 6e-45 6e-45 0.0 0.0 6e-45
6e-45 0.0 6e-45 0.0 6e-45 6e-45 0.0 6e-45
6e-45 6e-45 6e-45 0.0 6e-45 6e-45 0.0 6e-45
0.0041049263 0.0010754133 -0.00040158414 0.0006350133 2.4074485e-05 0.000601791 -6e-45 0.0024797437
0.00339789 0.0 0.0 0.004131562 0.006230086 6e-45 0.0 0.0010945766
0.0037549837 -6e-45 0.0005763871 0.0 -6e-45 0.0053425725 0.0036586542 -0.00017997532
-6e-45 0.0033201738 -1.0124666e-05 0.00046589886 0.0035522918 -0.00037659126 0.0 0.0003221044
6e-45 6e-45 6e-45 6e-45 6e-45 6e-45 -6e-45 6e-45
6e-45 -6e-45 0.0 6e-45 6e-45 6e-45 0.0 6e-45
6e-45 -6e-45 6e-45 0.0 -6e-45 6e-45 6e-45 6e-45
6e-45 6e-45 6e-45 6e-45 6e-45 6e-45 0.0 6e-45
8.3864757e-07 3.054077e-07 4.529638e-16 1.2137515e-05 6e-45 2.3404818e-05 -6e-45 2.3341227e-06
1.8195786e-05 6e-45 0.0 2.10814e-05 1.1579228e-05 -6e-45 0.0 3.8518365e-06
5.9495405e-06 6e-45 9.019196e-06 0.0 6e-45 8.994671e-06 6e-45 1.3604828e-05
6e-45 5.0105977e-05 4.5149394e-05 6e-45 2.8481555e-15 6e-45 0.0 5.765864e-06
0.0 0.0 0.0 6e-45 0.0 6e-45 0.0 0.0
6e-45 0.0 0.0 6e-45 6e-45 0.0 0.0 0.0
6e-45 0.0 6e-45 0.0 0.0 6e-45 0.0 6e-45
0.0 6e-45 6e-45 0.0 0.0 0.0 0.0 6e-45
0.0 0.0 0.0 0.0 0.0 0.0 0.0 0.0
0.0 0.0 0.0 0.0 0.0 0.0 0.0 0.0
0.0 0.0 0.0 0.0 0.0 0.0 0.0 0.0
0.0 0.0 0.0 0.0 0.0 0.0 0.0 0.0
6e-45 6e-45 0.0 6e-45 6e-45 6e-45 6e-45 6e-45
6e-45 0.0 0.0 6e-45 6e-45 6e-45 0.0 6e-45
6e-45 6e-45 6e-45 0.0 6e-45 6e-45 6e-45 6e-45
6e-45 6e-45 0.0 6e-45 6e-45 6e-45 0.0 6e-45
0.0022759298 0.0008041661 0.00012771119 0.00067193597 1.4235097e-05 0.00038018197 6e-45 0.0012936636
0.0015300093 0.0 0.0 0.0016692061 0.0029840302 6e-45 0.0 0.0008330965
0.0020253435 -6e-45 0.0006045855 0.0 2.3318303e-06 0.0024971734 0.002069199 -7.246417e-05
-6e-45 0.0014496079 8.267666e-05 0.00061664375 0.002090105 7.123262e-06 0.0 0.00036815912

exp_avg_sq f4 [32, 32]
00000000: e505 a21d 1574 9f1c 0000 0000 7734 8d1c
00000010: 0000 0000 a56e 271e 0000 0000 7bd3 f61b
00000020: ecab 481e 0000 0000 0000 0000 afaa a61d
00000030: 8de5 e31d 0000 0000 0000 0000 217a 881a
00000040: 5d2a 8b1d 0000 0000 36ef 701c 0000 0000
00000050: 812d 041e f129 2a1e 0000 0000 2b80 5f1d
00000060: f907 721d 802c 3c1f c6a1 671d 0000 0000
00000070: d707 951d 9f2b 8219 0000 0000 19fa 541a
00000080: 362b 3139 2d74 2938 4c56 aa37 88ab 7938
00000090: 307c 8135 5673 0c38 a3c1 9521 009f 6338
000000a0: 662e eb38 0000 0000 0000 0000 8fd2 0039
000000b0: 39cd 9139 a882 eb09 0000 0000 476a 3a38
000000c0: 1b24 1539 8fdd 0121 43e7 1938 0000 0000
000000d0: c0f4 3d28 e7e9 5639 8076 2939 889d 6e37
000000e0: 1c5b 022e 8be7 0739 9d08 c735 3e3b 5937
000000f0: 1d2f 5839 39cf e436 0000 0000 4e1e a637
00000100: 6190 5f2f 7c12 cf2e 0ac7 442f 3d54 1c2f
00000110: 072c 252f 18cd cc29 fdd7 4223 1191 902d
00000120: e141 4d2c d1bc d400 0000 0000 79ce 6f28
00000130: d491 342e e884 600c 0000 0000 d650 ec2e
00000140: 02d2 1a2f ec23 a022 9e4d 232f 0000 0000
00000150: 0265 8328 3eae 1b2d 5931 1d2b 91a7 b02c
00000160: 37ca 7429 fb7a ab2e 08f7 2e27 9fdb 8e28
00000170: d9f2 802e 0aa1 8c2e 0000 0000 c370 8e2e
00000180: ce87 a034 1196 b233 07c6 e233 5dc9 6435
00000190: 1659 bf32 4f8e cd35 a1f5 6d2b 42dd 1b34
000001a0: a0fd 1636 eab3 ab02 0000 0000 469a 3d35
000001b0: c437 3f35 b774 cb0a 0000 0000 341e 9534
000001c0: e7cf c334 c932 2522 32a2 c534 0000 0000
000001d0: 6886 7431 daf9 3c35 56c5 9432 429f a335
000001e0: 2b23 432c 8ef0 5f37 0437 9236 7065 ab33
000001f0: 2bb5 fb34 64dd 3a32 0000 0000 6faa 2334
00000200: 0000 0000 0000 0000 0000 0000 3f51 e223
00000210: 0000 0000 4f24 ca25 0000 0000 0000 0000
00000220: 9e70 8d26 0000 0000 0000 0000 2778 3b25
00000230: bfe4 c623 0000 0000 0000 0000 0000 0000
00000240: cf84 5b24 0000 0000 cb52 5025 0000 0000
00000250: 0000 0000 1e04 7323 0000 0000 6dfd e325
00000260: 0000 0000 7092 8528 dfd3 0428 0000 0000
00000270: 0000 0000 0000 0000 0000 0000 e4e4 5c22
00000280: 0000 0000 0000 0000 0000 0000 0000 0000
00000290: 0000 0000 0000 0000 0000 0000 0000 0000
000002a0: 0000 0000 0000 0000 0000 0000 0000 0000
000002b0: 0000 0000 0000 0000 0000 0000 0000 0000
000002c0: 0000 0000 0000 0000 0000 0000 0000 0000
000002d0: 0000 0000 0000 0000 0000 0000 0000 0000
000002e0: 0000 0000 0000 0000 0000 0000 0000 0000
000002f0: 0000 0000 0000 0000 0000 0000 0000 0000
00000300: 8bc0 4621 69c2 031f 0000 0000 7cd7 961c
00000310: fffd 190f 7332 b31f 1c8c ca0d 214f 751f
00000320: b9c3 6721 0000 0000 0000 0000 3ab8 aa0e
00000330: 5194 0e22 0778 4b05 0000 0000 39be 8f1e
00000340: 2e31 0a21 890f 8d0f 760f c01c 0000 0000
00000350: 6f1d 5e08 c4e5 1922 4a43 590e e485 bf0b
00000360: 35f3 1209 33f6 4221 0000 0000 03a0 910e
00000370: 3ce3 da21 780b 050f 0000 0000 8f1d 341c
00000380: 16b6 9138 e110 8e37 4f38 7437 b583 fd37
00000390: 9c38 2035 777b a937 3a54 272c 5b79 c637
000003a0: 03f3 3638 0000 0000 0000 0000 97f6 3638
000003b0: 0d4f e538 dadf 8b09 0000 0000 d27c af37
000003c0: 30a2 6d38 9b7c 4824 55f2 6b37 0000 0000
000003d0: 2c2e 1632 6455 a938 781d a338 5d30 3a37
000003e0: ae42 b82d fbf7 3a38 0361 fe34 e0d6 5437
000003f0: 2955 db38 0006 9d36 0000 0000 b210 0537
4.2887138e-21 1.0551744e-21 0.0 9.344159e-22 0.0 8.863787e-21 0.0 4.0833952e-22
1.06234645e-20 0.0 0.0 4.4116317e-21 6.032375e-21 0.0 0.0 5.644559e-23
3.6836796e-21 0.0 7.971851e-22 0.0 6.997432e-21 9.008398e-21 0.0 2.9580066e-21
3.2032555e-21 3.9847358e-20 3.065623e-21 0.0 3.9448078e-21 1.3459303e-23 0.0 4.40426e-23
0.00016896133 4.0400937e-05 2.0305764e-05 5.9525977e-05 9.647392e-07 3.3486016e-05 1.0147888e-18 5.4269098e-05
0.000112143156 0.0 0.0 0.0001228547 0.00027809458 5.669706e-33 0.0 4.4444834e-05
0.00014223198 4.400013e-19 3.6693422e-05 0.0 1.0544679e-14 0.00020495766 0.0001616124 1.4222584e-05
2.96395e-11 0.0001296086 1.4829162e-06 1.2948001e-05 0.00020616916 6.8190534e-06 0.0 1.9802854e-05
2.0333026e-10 9.4165536e-11 1.7896809e-10 1.4218045e-10 1.5022304e-10 9.094998e-14 1.0562498e-17 1.6435327e-11
2.9168822e-12 1.953686e-38 0.0 1.3311937e-14 4.1056783e-11 1.7296327e-31 0.0 1.0746397e-10
1.4080828e-10 4.340612e-18 1.4852339e-10 0.0 1.4587727e-14 8.8494195e-12 5.584609e-13 5.0208245e-12
5.4354277e-14 7.7980254e-11 2.4281267e-15 1.5860412e-14 5.8639045e-11 6.395069e-11 0.0 6.477443e-11
2.9901133e-07 8.316068e-08 1.0559966e-07 8.522964e-07 2.2275838e-08 1.5315107e-06 8.4540193e-13 1.4515993e-07
2.249937e-06 2.5229457e-37 0.0 7.0632484e-07 7.1234194e-07 1.9592092e-32 0.0 2.7775388e-07
3.647285e-07 2.2388555e-18 3.6812122e-07 0.0 3.5583074e-09 7.039904e-07 1.7319206e-08 1.2190796e-06
2.7730689e-12 1.3347844e-05 4.3575437e-06 7.9812594e-08 4.688421e-07 1.0876963e-08 0.0 1.5242561e-07
0.0 0.0 0.0 2.4537378e-17 0.0 3.5066018e-16 0.0 0.0
9.814365e-16 0.0 0.0 1.6260374e-16 2.156408e-17 0.0 0.0 0.0
4.760055e-17 0.0 1.8069175e-16 0.0 0.0 1.3173928e-17 0.0 3.954995e-16
0.0 1.4829473e-14 7.373414e-15 0.0 0.0 0.0 0.0 2.9936733e-18
0.0 0.0 0.0 0.0 0.0 0.0 0.0 0.0
0.0 0.0 0.0 0.0 0.0 0.0 0.0 0.0
0.0 0.0 0.0 0.0 0.0 0.0 0.0 0.0
0.0 0.0 0.0 0.0 0.0 0.0 0.0 0.0
6.733984e-19 2.790114e-20 0.0 9.981869e-22 7.5924e-30 7.589291e-20 1.2482941e-30 5.1946222e-20
7.852488e-19 0.0 0.0 4.208564e-30 1.9323107e-18 9.56706e-36 0.0 1.5219388e-20
4.682131e-19 1.3909657e-29 1.2709491e-21 0.0 6.6840294e-34 2.0857003e-18 2.6779714e-30 7.377198e-32
1.7688466e-33 6.60556e-19 0.0 3.5899345e-30 1.4832403e-18 6.559615e-30 0.0 5.959521e-22
6.948055e-05 1.6935579e-05 1.4556644e-05 3.0221281e-05 5.968702e-07 2.0203863e-05 2.3778883e-12 2.365995e-05
4.3618504e-05 0.0 0.0 4.3621836e-05 0.00010934295 3.367354e-33 0.0 2.091975e-05
5.6656252e-05 4.3473632e-17 1.4063514e-05 0.0 8.741647e-09 8.074453e-05 7.777935e-05 1.1097724e-05
2.094799e-11 4.4576806e-05 4.7381772e-07 1.2686214e-05 0.00010458596 4.679663e-06 0.0 7.931305e-06

exp_avg f4 [32]
00000000: 0400 0000 35ac 0f39 0400 0000 8fa5 0635
00000010: 0400 0000 0000 0000 0400 0000 831b ab38
00000020: be83 e938 0400 0000 0400 0000 0400 0000
00000030: d854 4238 0400 0000 0000 0000 0400 0000
00000040: 55a2 ed37 b81b a538 c953 3539 0400 0000
00000050: 84bf d136 0400 0000 0400 0000 0000 0000
00000060: 0400 0000 0400 0000 6dad 30b4 0400 0000
00000070: 92f7 4038 0ab2 fbb7 0400 0000 f5af bc38
6e-45 0.00013701695 6e-45 5.015981e-07 6e-45 0.0 6e-45 8.15904e-05
0.00011134845 6e-45 6e-45 6e-45 4.633222e-05 6e-45 0.0 6e-45
2.8328193e-05 7.872976e-05 0.00017292718 6e-45 6.2509807e-06 6e-45 6e-45 0.0
6e-45 6e-45 -1.6454369e-07 6e-45 4.6006935e-05 -3.0004438e-05 6e-45 8.997313e-05

exp_avg_sq f4 [32]
00000000: 84cc 4019 24e0 a034 13de 4e2b 3bb4 9531
00000010: 829f 3c22 0000 0000 bbc6 571c c517 f933
00000020: 5dcc 3334 0b12 0424 3f68 2c22 2e36 6208
00000030: 4975 0a33 4ab7 2d00 0000 0000 d00a 6a2b
00000040: 5f42 1c33 a252 d233 7183 e934 1200 351e
00000050: 02a2 3832 956e de2c bfd4 d509 0000 0000
00000060: 4b65 da0a 5518 0a19 3b40 8031 3ce9 e61f
00000070: 3201 1433 9364 e732 d9e8 f409 3b47 0b34
9.967469e-24 2.9965406e-07 7.349409e-13 4.3569606e-09 2.5563194e-18 0.0 7.1394386e-22 1.159929e-07
1.6745021e-07 2.863822e-17 2.3365534e-18 6.807309e-34 3.22373e-08 4.198349e-39 0.0 8.3148505e-13
3.6381945e-08 9.793918e-08 4.3495268e-07 9.582075e-21 1.0747046e-08 6.3218966e-12 5.147795e-33 0.0
2.1030739e-32 7.1393466e-24 3.7325925e-09 9.779464e-20 3.4460022e-08 2.6937675e-08 5.8959832e-33 1.2971297e-07

exp_avg f4 [32, 32]
00000000: 0000 0000 0400 0000 0400 0000 0400 0000
00000010: 0000 0000 0000 0000 0400 0000 0400 0000
00000020: 0400 0000 0400 0000 0400 0000 0000 0000
00000030: 0400 0000 0000 0000 0000 0000 0400 0000
00000040: 0000 0000 0400 0000 0400 0000 0000 0000
00000050: 0400 0000 0400 0000 0000 0000 0000 0000
00000060: 0400 0000 0000 0000 0400 0000 0400 0000
00000070: 0400 0000 0000 0000 0400 0000 0400 0000
00000080: 0400 0080 ba54 7d39 0400 0000 879a 40b6
00000090: 0400 0080 0000 0000 0400 0000 acee 4b39
000000a0: cbf8 d239 0400 0000 0400 0080 0400 0080
000000b0: 3582 043a 0400 0000 0000 0000 0400 0000
000000c0: 9eae 263b b3d9 1e3a d084 8939 0400 0000
000000d0: 0c10 c137 0400 0000 0400 0000 0000 0000
000000e0: 0400 0080 0400 0000 72d5 6f35 0400 0000
000000f0: 3e95 ff39 9223 ff39 0400 0080 0dbd 3239
00000100: 0000 0000 0000 0000 0400 0000 0400 0080
00000110: 0000 0000 0000 0000 0000 0000 0400 0000
00000120: 0400 0000 0400 0000 0400 0000 0000 0000
00000130: 0400 0000 0000 0000 0000 0000 0400 0000
00000140: 0400 0000 0400 0080 0400 0000 0000 0000
00000150: 0400 0000 0400 0080 0000 0000 0000 0000
00000160: 0000 0000 0000 0000 0400 0000 0400 0000
00000170: 0400 0000 0400 0000 0000 0000 0400 0000
00000180: 0400 0000 4e24 0cb9 0400 0080 b59b 8236
00000190: 0400 0000 0000 0000 0400 0080 f868 06b8
000001a0: 0a84 41b9 0400 0080 0400 0000 0000 0000
000001b0: c980 95b9 0400 0080 0000 0000 0400 0000
000001c0: 99db d3ba 20c1 aeb9 165b 2db9 0400 0080
000001d0: 0ebf c8b5 0400 0080 0000 0000 0000 0000
000001e0: 0000 0000 0400 0080 fe86 8cb1 0400 0000
000001f0: a664 93b9 935f a7b9 0000 0000 3b3a 9fb8
00000200: 0400 0080 5bf3 6f39 0400 0000 906c 36b6
00000210: 0400 0080 0000 0000 0400 0000 2b2a 4139
00000220: 20d4 c739 0400 0000 0400 0080 0400 0080
00000230: 5904 fb39 0400 0000 0000 0000 0400 0000
00000240: c3df 1d3b 7e75 163a 2e41 8239 0400 0000
00000250: 85db b637 0400 0000 0400 0000 0000 0000
00000260: 0400 0080 0400 0000 f527 6335 0400 0000
00000270: d014 f239 69a7 f139 0400 0000 224c 2939
00000280: 0000 0000 0400 0000 0400 0000 0400 0080
00000290: 0000 0000 0000 0000 0400 0000 0400 0000
000002a0: 0400 0000 0400 0000 0400 0000 0400 0000
000002b0: 0400 0000 0000 0000 0000 0000 0400 0000
000002c0: 0000 0000 0400 0000 0400 0000 0000 0000
000002d0: 0400 0000 0400 0000 0400 0080 0000 0000
000002e0: 0400 0000 0400 0000 0400 0080 0400 0000
000002f0: 0400 0000 0000 0000 0400 0000 0400 0000
00000300: 0000 0000 0000 0000 0400 0000 0400 0000
00000310: 0000 0000 0000 0000 0000 0000 0000 0000
00000320: 0000 0000 0000 0000 0400 0000 0000 0000
00000330: 0000 0000 0000 0000 0000 0000 0400 0000
00000340: 0000 0000 0000 0000 0000 0000 0000 0000
00000350: 0000 0000 0000 0000 0000 0000 0000 0000
00000360: 0000 0000 0000 0000 0400 0000 0400 0000
00000370: 0400 0000 0400 0000 0000 0000 0400 0000
00000380: 0000 0000 0000 0000 0000 0000 0400 0000
00000390: 0000 0000 0000 0000 0000 0000 0400 0000
000003a0: 0400 0000 0000 0000 0000 0000 0000 0000
000003b0: 0400 0000 0000 0000 0000 0000 0400 0000
000003c0: 0400 0000 0400 0000 0000 0000 0000 0000
000003d0: 0400 0000 0000 0000 0000 0000 0000 0000
000003e0: 0000 0000 0000 0000 0400 0000 0400 0000
000003f0: 0400 0000 0400 0000 0000 0000 0400 0000
0.0 6e-45 6e-45 6e-45 0.0 0.0 6e-45 6e-45
6e-45 6e-45 6e-45 0.0 6e-45 0.0 0.0 6e-45
0.0 6e-45 6e-45 0.0 6e-45 6e-45 0.0 0.0
6e-45 0.0 6e-45 6e-45 6e-45 0.0 6e-45 6e-45
-6e-45 0.00024159523 6e-45 -2.8700176e-06 -6e-45 0.0 6e-45 0.00019448501
0.00040239686 6e-45 -6e-45 -6e-45 0.0005054803 6e-45 0.0 6e-45
0.002543367 0.00060596614 0.0002622963 6e-45 2.3014865e-05 6e-45 6e-45 0.0
-6e-45 6e-45 8.934504e-07 6e-45 0.00048748584 0.00048663892 -6e-45 0.0001704583
0.0 0.0 6e-45 -6e-45 0.0 0.0 0.0 6e-45
6e-45 6e-45 6e-45 0.0 6e-45 0.0 0.0 6e-45
6e-45 -6e-45 6e-45 0.0 6e-45 -6e-45 0.0 0.0
0.0 0.0 6e-45 6e-45 6e-45 6e-45 0.0 6e-45
6e-45 -0.00013364965 -6e-45 3.8924286e-06 6e-45 0.0 -6e-45 -3.204585e-05
-0.00018455103 -6e-45 6e-45 0.0 -0.00028515447 -6e-45 0.0 6e-45
-0.0016163468 -0.00033331756 -0.00016532498 -6e-45 -1.4956765e-06 -6e-45 0.0 0.0
0.0 -6e-45 -4.089883e-09 6e-45 -0.00028113014 -0.0003192393 0.0 -7.592557e-05
-6e-45 0.00022883473 6e-45 -2.7183305e-06 -6e-45 0.0 6e-45 0.00018421623
0.00038114283 6e-45 -6e-45 -6e-45 0.0004787769 6e-45 0.0 6e-45
0.0024089671 0.00057395536 0.00024844095 6e-45 2.1798312e-05 6e-45 6e-45 0.0
-6e-45 6e-45 8.4622235e-07 6e-45 0.00046173343 0.00046091832 6e-45 0.00016145458
0.0 6e-45 6e-45 -6e-45 0.0 0.0 6e-45 6e-45
6e-45 6e-45 6e-45 6e-45 6e-45 0.0 0.0 6e-45
0.0 6e-45 6e-45 0.0 6e-45 6e-45 -6e-45 0.0
6e-45 6e-45 -6e-45 6e-45 6e-45 0.0 6e-45 6e-45
0.0 0.0 6e-45 6e-45 0.0 0.0 0.0 0.0
0.0 0.0 6e-45 0.0 0.0 0.0 0.0 6e-45
0.0 0.0 0.0 0.0 0.0 0.0 0.0 0.0
0.0 0.0 6e-45 6e-45 6e-45 6e-45 0.0 6e-45
0.0 0.0 0.0 6e-45 0.0 0.0 0.0 6e-45
6e-45 0.0 0.0 0.0 6e-45 0.0 0.0 6e-45
6e-45 6e-45 0.0 0.0 6e-45 0.0 0.0 0.0
0.0 0.0 6e-45 6e-45 6e-45 6e-45 0.0 6e-45
