Version1/model/best_model_4.pth (torch, 37922 bytes, 21 tensors)

layer1.weight f4 [32, 6]
00000000: 917e 2a3e 58cc 2ebe aa7f 96bd 1e74 54bf
00000010: ed4c 1e3f 73c8 6abd a299 443d c44b 453e
00000020: 3e32 893c ece1 c7be aaa5 a43e 5873 fdbe
00000030: 88ef 18be b9e4 2f3f db36 e7bd a6a1 14c0
00000040: 9cf4 3f3f 3de8 acbe 1d77 50bd 090d 403f
00000050: 6602 ebbd 8750 373b d18b 143e 28fc 43be
00000060: 07ff 3ebf 8b6c 383f 68b3 3a3f b0ed c9be
00000070: 30ea 573f 98f7 debf c822 933a 19ed 773f
00000080: becf 53be a457 403f 37dc 173e 29eb 533f
00000090: ebea 38bf 9d63 063f 2198 14be b29d 87bf
000000a0: c1f7 b1be f2de 12c0 4934 173e d1c0 883e
000000b0: 958b 42bf 1f19 0abf a3ce 0fbe 6ac1 ce3e
000000c0: f6ba f63d 1f5a b53d 8513 59bf 6ebb 743e
000000d0: 254c fa3d 8d81 2b3f e9ba abbd 800e b5be
000000e0: b0d1 e3bd a887 88be d517 373c a077 093e
000000f0: 9efb c1be b887 f33d 70f4 513e f0e6 91bc
00000100: f4eb 2c3e 003c 743e f666 603e 6852 a23e
00000110: a38d b83e 1e8a 953e d6ea a3bd 120a 0740
00000120: 79b8 8f3e 8703 afbd 1d28 ae3e 300a 52bf
00000130: cb61 e5bd 753c 513b 4da7 bebe 81cf d2be
00000140: 3052 c63c 7100 8c3e 2caa 603e eccf abbe
00000150: a075 58bd 7ee6 4abe 2f3b b6be e866 8abd
00000160: 280b e0bd f44e a9be afd4 5c3d 14d4 e73e
00000170: 2b99 93be 6ebc 8dbe ea15 453e dcca 1ebe
00000180: c5ea 183e 353c 01be f348 883e 3f3f 08bf
00000190: 8ded ef3e ecc7 e5be abe6 18bf 5257 ae3e
000001a0: 8310 7dbf 419e d2bf f797 c53d a8b8 67bf
000001b0: 741b 66bd 2b07 553e 3640 063e 0eb2 ba3d
000001c0: 66dc e43e aa44 f1bd bf5d b6be 8d3b 72be
000001d0: 6d9a 6fbe 9d96 9bbe 209f 293e a012 8cbe
000001e0: 74f6 d4be 4caa 183f 15d6 5cbe b0bc f7bd
000001f0: 0990 90bf b250 913f 5cc0 813e 9db0 a73d
00000200: 75ac 82be cd02 4cbf 1223 bbbe 86e4 893e
00000210: 32ef c43e 5e11 09be 2737 023c f270 e5bf
00000220: 57dd 0d3f 71a6 b5bf f867 e7bd 6d54 6c3f
00000230: 02d5 aebe ce88 3d3f ea79 f83e bbef 5f3f
00000240: 884c 15bf a6a5 aebe 6057 7cbe 70d5 ef3e
00000250: a17c 183f ab80 2fbf 2483 dbbc d876 5c3e
00000260: 1339 093f c455 e03f 38ca 2c3f 089d 803f
00000270: 01dc 2fbe a928 843e 9fe6 60be b25e 0240
00000280: e50e 883d e38e 88be 60d8 9f3e d227 943e
00000290: 579f 84be 4c86 0ec0 51e3 36bf 2a3b e3bf
000002a0: 4fc6 9d3e 9e8d 003f 1cbd 8dbe a0c1 97bf
000002b0: 7d38 163f 5ac5 e4bf b563 f93c 7fa4 373e
000002c0: 7643 863e 9784 39c0 e565 2d3f fcdb 2bc0
000002d0: 7ee0 cfbe 1006 803e 18f4 993d 9cd1 ddbd
000002e0: fad6 cabe 88b8 0dbd 4df0 0bbd 3557 893e
000002f0: dc8d 7f3e 282d 43bc ebc7 ba3d 3646 5fbf
0.16649844 -0.17070138 -0.07348569 -0.8298968 0.6183613 -0.05732007 0.04799808 0.19267184
0.01674759 -0.39039552 0.32157642 -0.49502063 -0.14935124 0.6870838 -0.1128976 -2.3223662
0.7498262 -0.33770934 -0.050894845 0.7501989 -0.11475067 0.0027971582 0.1450646 -0.19139159
-0.7460789 0.72040623 0.7293 -0.39439154 0.84341717 -1.741931 0.0011225576 0.9684616
-0.20684716 0.7513373 0.14830099 0.827807 -0.72233456 0.5249575 -0.14511158 -1.0595
-0.34759334 -2.2948575 0.14766039 0.26709607 -0.75994235 -0.5394458 -0.1404367 0.40381938
0.12047379 0.0885508 -0.8479541 0.23899624 0.12221555 0.66994554 -0.0838526 -0.35362625
-0.11123979 -0.26665998 0.011175116 0.1342454 -0.3788728 0.11891121 0.20503402 -0.017810315
0.16886884 0.23851013 0.21914276 0.31703496 0.3604556 0.29206938 -0.08003776 2.1099896
0.2807043 -0.08545595 0.3401498 -0.82046795 -0.11200293 0.0031926904 -0.37237015 -0.41173938
0.024209112 0.27344087 0.21939915 -0.3355707 -0.05284655 -0.19814488 -0.35592028 -0.06757909
-0.10939628 -0.3306805 0.05391377 0.4527899 -0.28827795 -0.27682823 0.19246641 -0.15507072
0.14933307 -0.12620623 0.26618156 -0.53221506 0.46860924 -0.4487909 -0.5972697 0.34050995
-0.9885332 -1.6454545 0.096481256 -0.9051614 -0.056178525 0.20803516 0.13110432 0.091159925
0.446994 -0.11780675 -0.35618398 -0.2365553 -0.23398753 -0.30388346 0.16564608 -0.2735796
-0.4159428 0.5963485 -0.21566041 -0.12096536 -1.1293956 1.1352751 0.2534207 0.08187983
-0.255222 -0.79691774 -0.36550194 0.26932162 0.38463742 -0.13385531 0.00794772 -1.7925093
0.5541586 -1.4191419 -0.11299127 0.92316324 -0.34146887 0.7403687 0.48530513 0.87475175
-0.583199 -0.34110755 -0.24642706 0.46842527 0.5956517 -0.68555707 -0.026795931 0.2152971
0.53602713 1.7526174 0.6749606 1.0047922 -0.17173769 0.2581227 -0.21962975 2.0370297
0.06643466 -0.26671514 0.3121977 0.2893663 -0.25902817 -2.2269468 -0.7144061 -1.775243
0.3081536 0.5021609 -0.27683342 -1.1855965 0.58679944 -1.7872727 0.030443052 0.17933844
0.26223344 -2.8987176 0.67733604 -2.6853018 -0.4060096 0.25004625 0.0751726 -0.108309954
-0.3961714 -0.03459981 -0.034164716 0.26824346 0.24956459 -0.011912622 0.091201626 -0.8721651

layer1.bias f4 [32]
00000000: 6f81 db40 c934 de40 a17c 453f 3178 e240
00000010: b34d 19c0 9ba0 c6c0 9d70 953e 2f54 b140
00000020: 40f3 d2c0 f066 123e 8c04 603e 3cf9 ecc0
00000030: dccb d640 1487 1fbe c0bf 52be 5412 de40
00000040: dc85 e040 0911 4fbe 9b30 f640 66bb 983e
00000050: 5f19 b2c0 b6f4 cb40 c2ac 8dc0 b129 bfc0
00000060: f934 a6c0 478c c2c0 36f9 2dc0 adfe 2dc0
00000070: ff5a b2c0 7a44 b540 98db 7f3e 9096 ed40
6.85955 6.9439435 0.77143294 7.077172 -2.3953674 -6.207105 0.2918748 5.5415263
-6.5921936 0.1429708 0.21876734 -7.405424 6.712385 -0.15578872 -0.2058096 6.9397373
7.0163403 -0.20221342 7.6934333 0.29830474 -5.565597 6.373622 -4.4273386 -5.9738393
-5.1939664 -6.0796237 -2.7183356 -2.7186692 -5.573608 5.664609 0.24986112 7.424629

layer2.weight f4 [32, 32]
00000000: 52c9 cebe 7be5 8ebe 8f78 1cbe ff40 77be
00000010: 698e 0ebe cd02 84be 6053 773c faf8 74be
00000020: a772 21be da39 6fbd c0f3 a93c c0dc aabd
00000030: 4d3d debe c716 98bd 907e efbd 8724 43be
00000040: 5218 cfbe d75a e1bd cfcc 97be 9821 d2bc
00000050: 2c7b 1fbe 3c75 89be d9f9 fbbd 8e7c c1be
00000060: b364 8dbe 4d4c 78be cdb3 24be cca5 23bd
00000070: 399c 71be 606a c9be 8724 333e 2c7b 7ebe
00000080: f80c 7c3f 3282 033f 338d 69bf e783 633f
00000090: fd52 0abf 798a 31bf 26c4 a4bf b972 0b3f
000000a0: b03b 3abf 355f 18be c438 24be ba95 b8be
000000b0: ac32 753f e7dc c7bd a84f 6dbd 2bf8 ec3e
000000c0: 0d8d b03f e4d6 e7be 5cb2 b73f 260b 8f3d
000000d0: 2c85 27bf 861b 413f 2106 82bf 6eef 8cbf
000000e0: c7fb 81bf 8720 fcbf c403 57c0 2e4c afbf
000000f0: 40a9 56bf 9d48 80be ece2 bebd 2207 263f
00000100: 3dd5 913e b329 00be 396b d43c 1310 103f
00000110: fc0f 03bf ca24 6cbf 7e30 80bf b5df c93d
00000120: 5688 0bbf c790 593e 23b2 01be c31a 64bf
00000130: 28ef c33e 70bb e53d d85c 01be c7fc d23d
00000140: 36a7 853e 401f f3be 503e 073f 66f2 05be
00000150: 5604 1dbf 6c24 623e e79d aebf fc75 7abf
00000160: 75f1 ffbe 955b f6bf 9b04 06c0 803b 3abe
00000170: 7b77 85bf 00a1 153e 9009 71bc c39b bfbc
00000180: 0ee7 80bf 804a b33e c8ee c0bf 4c3c 253f
00000190: 1ce0 88bf de83 713e d2ab 723f ddf4 a13e
000001a0: 1009 88bf bee6 7b3d 50d8 063c e613 5ebf
000001b0: c4e5 c1bf 75ff 463c fd4d 85bd 2c61 e43e
000001c0: 08bd 83bf e0f0 933f 7d81 323f 4432 003d
000001d0: a426 e53f 166a 92bf 4c81 dcbd 1916 193f
000001e0: e68f ecbd 75f6 c93e 9212 2f3f 0d62 313f
000001f0: e7bc 75bd 9059 943d 754d d5bd cb0c 053f
00000200: 8306 0abe dc13 44bd 382e 803d 2ebc adbe
00000210: 1a96 2fbe a9b2 c4be 16fe b63d fdd7 8fbd
00000220: 42aa 5ebe 94ff efbd 0376 97bd 7cb2 b2be
00000230: 8720 b0be c8a4 c1bd 50b6 49bc 1419 9cbd
00000240: 9245 75be ad27 f6bd 0430 8fbe 7621 b43d
00000250: c0b6 12bd bea9 aebe c0ec 543c 61f6 94be
00000260: 3491 8cbd cf58 7dbe a709 4ebe ccc0 1cbd
00000270: beb0 e73d 75c8 273e 3009 c93c f055 8cbe
00000280: 5615 c83d 0430 9cbd 6862 90bc a2c3 d7bd
00000290: 4140 d5bd 47f5 c4bd 76c4 debd 5401 09bd
000002a0: 5b45 203e 0343 2ebe b843 19be 66b3 20be
000002b0: 6a94 11be eca9 6c3d c859 0ebd 6f6f 9abd
000002c0: bea4 2ebe 2c1b 603d 931c c7bd 3110 27be
000002d0: 2659 20be 2031 af3c f662 b83d 0259 f03d
000002e0: 4c84 febd 6e29 0dbe 7dc8 043e 3c9e 39bd
000002f0: 8048 91ba 8ef6 aa3d e41c 0bbe c0cc dfbb
00000300: be87 34bd ed80 52be 24d3 05be 39dd 26be
00000310: 85c6 23be 935f ac3d a8b9 11bc 1808 963d
00000320: 60a1 88bd 0b1f 19be 1498 eabd b48b 68be
00000330: f267 a33c eb59 da3d f76b 2e3e 1229 cdbd
00000340: 0754 a23b 6c3d eebd 0310 1abe 9e05 dcbd
00000350: b0c7 1cbe e05a ccbd f4c2 26be 2438 19bd
00000360: 3258 66be c101 29bd f49e 623d 8161 3a3d
00000370: 1a0b 893c 1580 c43d dd4f 2a3e f775 53be
00000380: cae5 413f 89f4 f83e 81b7 ad3f d5ec 413f
00000390: 6cce 813e d06e 23bf 86a1 063f bb7c 963b
000003a0: 1b85 11bf 9018 423d 4e09 db3d cc2b 60bf
000003b0: d2b1 373f 83ed 273d b21d 9abd 41bd ed3e
000003c0: 203f 8b3f 0af8 81bf ca8b a93f 2677 d33d
000003d0: bf1a 39bf 10a3 773e db17 b7be 2591 4cbf
000003e0: 112b c5be 670f 19c0 64d6 debf 64c1 c93e
000003f0: 6743 0f3f 6616 9b3f 1805 cabd f6c7 3e3f
-0.4038797 -0.27909455 -0.15280364 -0.24145888 -0.13921513 -0.25783387 0.015095562 -0.23923102
-0.15766393 -0.05840478 0.020746112 -0.08342886 -0.43406144 -0.074262194 -0.11694062 -0.19056903
-0.40448242 -0.110036545 -0.29648444 -0.025650784 -0.1557433 -0.26847255 -0.12303514 -0.3779034
-0.2761589 -0.24247856 -0.16084214 -0.039953038 -0.2359475 -0.3933897 0.17494403 -0.24851674
0.9845729 0.5137054 -0.9123108 0.8887314 -0.5403288 -0.6935192 -1.287236 0.5447193
-0.72747326 -0.14880069 -0.1603728 -0.36051732 0.95780444 -0.09758931 -0.057937294 0.46283087
1.3793045 -0.45281136 1.4351306 0.06984548 -0.6543758 0.7543262 -1.015812 -1.1010568
-1.0154961 -1.9697427 -3.3596048 -1.3695123 -0.83852005 -0.250554 -0.09320626 0.64854634
0.28483 -0.12515907 0.025930034 0.5627453 -0.51196265 -0.92243636 -1.0014799 0.09857122
-0.5450491 0.21246634 -0.1266561 -0.89103335 0.382684 0.112173915 -0.12633073 0.1030212
0.26104134 -0.4748478 0.52829456 -0.13080749 -0.6133474 0.22084206 -1.3641938 -0.9783628
-0.49988905 -1.9246699 -2.094031 -0.1818676 -1.0427088 0.14612198 -0.0147117525 -0.023389703
-1.0070512 0.35017776 -1.507287 0.6454513 -1.0693393 0.2358546 0.94793427 0.31632128
-1.0627766 0.06149935 0.008230284 -0.8674911 -1.5148244 0.012145867 -0.06509016 0.44605386
-1.0292063 1.1557884 0.69728833 0.031297937 1.7902417 -1.1438625 -0.10766849 0.59799343
-0.11550884 0.39445844 0.6838771 0.6929024 -0.059994604 0.07243645 -0.104151644 0.51972646
-0.13479047 -0.047870502 0.062588155 -0.33932632 -0.17147103 -0.38417557 0.08935182 -0.07023618
-0.21744636 -0.117186695 -0.07395556 -0.34901798 -0.34399816 -0.09455258 -0.012311533 -0.07621971
-0.2395232 -0.12019286 -0.2796632 0.08795445 -0.035818815 -0.34113878 0.012995899 -0.29094222
-0.06863633 -0.24740909 -0.2012087 -0.038269803 0.11313008 0.16385062 0.024540514 -0.27409315
0.097696945 -0.07626346 -0.017625049 -0.10535361 -0.10412646 -0.096170954 -0.10877316 -0.033448532
0.15651457 -0.1701775 -0.14967239 -0.15693435 -0.14216772 0.057779238 -0.03475359 -0.075407855
-0.17055032 0.054713413 -0.09722247 -0.1631477 -0.15659007 0.02138573 0.0900325 0.11735727
-0.124275774 -0.13785335 0.12967105 -0.04531692 -0.0011084229 0.08347808 -0.1358524 -0.006829828
-0.044074766 -0.20556994 -0.13068825 -0.16295327 -0.15993698 0.08416667 -0.008894362 0.073257625
-0.06671405 -0.14953248 -0.11454788 -0.22709543 0.019947026 0.10661682 0.17033373 -0.10017599
0.0049538645 -0.11632809 -0.1504517 -0.10743259 -0.1531055 -0.099782705 -0.16285306 -0.037407055
-0.22494581 -0.04126144 0.05532737 0.045503143 0.016728926 0.09594742 0.16632028 -0.20650469
0.75741255 0.48624066 1.3571626 0.75752 0.253528 -0.6384096 0.52590215 0.0045925057
-0.5684373 0.047386706 0.10695134 -0.8756683 0.7175571 0.040997993 -0.07525195 0.46433452
1.0878639 -1.015382 1.3245785 0.1032546 -0.72306436 0.24183297 -0.35760388 -0.7990897
-0.3850942 -2.391565 -1.7409177 0.39405358 0.5596222 1.211621 -0.09864253 0.74523866

layer2.bias f4 [32]
00000000: 187b 65be 3518 a140 ab0a 4240 8f8f 4ac0
00000010: 23c9 a83c 0e21 a93d d642 6ebe 6d90 9440
00000020: 01d6 c540 5ae3 3c40 883c 16be 5ebd 86bd
00000030: abd0 ae40 89b4 d8bd 96aa d53d 2a58 5640
00000040: 32d9 ddbe 2d11 c940 3b88 a140 20e5 0fbe
00000050: 029a 6d40 c59a 6240 9aa3 15be a85b 2d3d
00000060: c8ce 66be 2200 63be d3a4 95c0 1e8a 21be
00000070: a619 b140 0260 46c0 ef2d 22be 5469 8240
-0.22410238 5.034205 3.0319011 -3.1650121 0.020603722 0.08258258 -0.23267683 4.64263
6.1823735 2.9513764 -0.14671528 -0.06579088 5.462972 -0.10581309 0.10432927 3.349131
-0.4332977 6.2833467 5.0478797 -0.14052248 3.712525 3.5406964 -0.1461319 0.04232374
-0.22539818 -0.2216802 -4.67637 -0.15775344 5.534381 -3.0996099 -0.15837835 4.0753574

layer3.weight f4 [32, 32]
00000000: 59e0 a7bd 67b7 933c 64f0 573a 8259 3abe
00000010: ce1e ae3d a079 7b3c 76c3 a9bd 9d30 66be
00000020: ecb1 7fbd 979f fa3c 50be 2dbe ba43 11be
00000030: 434a 21be 74ea 073d 009c eabd 833d 68bd
00000040: 20e9 debb 0599 97bc f69d aabb f28d 04be
00000050: 1f04 57be cfdc 65be ba54 ecbd 0613 903d
00000060: 15c7 01be 578f 253e 9512 c5bd 99fd 6dbd
00000070: 6d80 8b3b d1d0 f2bd f9c3 c3bd d18c e93d
00000080: 92af 123e dce2 0d40 f5c2 883f c031 ddbe
00000090: 8c25 1d3e ad9d c3bd cdc3 913d ce3d a03f
000000a0: 89fa e13f a635 b43f f428 463e 9314 b53d
000000b0: 6628 9c3f e814 713d 3c26 efbd e71a 9f3f
000000c0: 7267 9d3f 2e1c b23f 6bb2 de3f a01a 673a
000000d0: 3317 7d3e 45b0 013f dc77 51be b466 2a3d
000000e0: 1c6d 073e 6cfa 30be f770 bf3e 0b8a 0dbe
000000f0: 47ea 8d3f 5c2b bf3d 77b0 f6bd c630 ac3f
00000100: 1d34 8bbd ec3c 29bd 3de7 b43c e36e 903d
00000110: 4beb 293e 0282 13be 28ef aabc 0046 c7be
00000120: 278c ccbe 1c63 52be 3dd5 29be 7e92 e3bd
00000130: e0fb adbe 75db 183e e486 323d a877 05be
00000140: f81e 3bbe fd8d bd3e 58fa 3cbe 5253 f23d
00000150: 8faa 0fbf 371d c1bd 0b8e 213e 5f14 e8bd
00000160: 0878 23be 3e64 f9bd 4f0e 94be 9bad 873c
00000170: 3e00 dfbe 2075 09bf 3aa8 933d 0dee d1be
00000180: fac0 3fbe ae64 91bf 93d3 febf 8053 b33e
00000190: 47e4 65bd bb80 293e 5472 e43d 9d76 12c0
000001a0: 69bb 9abf abaf 17c0 9cfc d8bc b8c2 0fbe
000001b0: 0a3e bd3e 1dca ecbd 5ca1 15bd 06cc fabf
000001c0: c661 683f 0f9f 903e c813 92bf 1d83 a5bc
000001d0: 3ea3 b8c0 b74c 12c0 c7cd 263e dca4 bfbd
000001e0: 01a1 19be 54cc 9f3e 2a1c 98bf 4ea3 30be
000001f0: 2685 be3e b144 583f ba1f f23d 746d 05c0
00000200: 17e3 203e 20b9 1740 056f aa3f 2772 bdbe
00000210: cd47 7b3e e682 ecbd 458b 4a3e ccc3 0040
00000220: d0a9 0840 6092 fc3f fd35 583e 2c5d 173d
00000230: a34b aa3f 4d3a b0bc 506e 173d b8be aa3f
00000240: d7b1 7f3f bf38 d23f de1c 0140 3022 b93d
00000250: 548d 263f 24bf 543f d121 9bbd a8db b6bc
00000260: 5b52 fe3d ce5b a3be 36ca c73e c1ab 38be
00000270: 5834 ad3f 69ed 273e aeac 32be c885 c83f
00000280: 1620 d4bd dcfa 283c dc4d 46be 08e5 673d
00000290: 0899 583d 4aff a8bd e59c 43be 159b 67bd
000002a0: 1025 21bc 6017 5bbe 64ad 64bc de44 213d
000002b0: 1c38 9bbc 1749 2cbe 708b dabd 161f 42be
000002c0: 881f d5bd 5c91 0ebd d5e9 e2bc 15fb 113e
000002d0: 7cdb db3c f829 133c 0557 483e 424d df3d
000002e0: 8271 02be a354 dcbd 3437 adbd 1be5 24be
000002f0: 889d d1bd badf b8bd d4dd cbbd 5743 37be
00000300: d2ce b93d 5193 cfbd 1eac bebc 92c6 79bc
00000310: b6ad 0cbe 94ac 2cbd 3a1a 9f3d c0b1 2e3c
00000320: f4eb ccbd 418d bebd 124f 5bbe 0d75 05be
00000330: 5885 e03c 028b 26be 50c0 b73c b18a 943d
00000340: 8064 cebd dc83 d3bd a677 debd ae11 953d
00000350: 46aa ce3d fea3 0bbe 3aa6 bd3d 4210 33be
00000360: 2087 8fbc cb46 2c3e 13f7 c7bd c646 c6bd
00000370: bb16 33be bafb d9bd 69c7 e2bd 541d 06be
00000380: 10fb d9bc e89a d3bc 603f 843d 8ecf bfbe
00000390: af1c 323e 50a2 f03c b7c6 2dbe 0948 6cbd
000003a0: 9c45 42be 14bc 87bd e2d8 d13d 186d aabd
000003b0: d4f8 acbe 7a10 b33d d912 cabd f8ae 60bd
000003c0: 254d 8dbe 5a33 9cbe 77d4 d2bd 4a89 f6bd
000003d0: 3427 90bd 242a 233d 48fd 863d b86c 4f3d
000003e0: 8069 69bc a34c dcbd b6e7 20be 803c 3cbe
000003f0: 470a acbe 83a5 14be 06b6 ae3d 2d31 84be
-0.08197088 0.018031789 0.000823742 -0.18198207 0.08501969 0.015348822 -0.08289234 -0.22479482
-0.06242554 0.030593676 -0.1696713 -0.14185992 -0.15750985 0.033182576 -0.11455536 -0.056699287
-0.006802693 -0.018505583 -0.0052068187 -0.12944773 -0.20997666 -0.22447513 -0.11539598 0.070348784
-0.126736 0.16167961 -0.09622685 -0.058103178 0.004257253 -0.11856235 -0.09558863 0.11403812
0.14324787 2.2169714 1.0684496 -0.4320202 0.15346354 -0.09551559 0.07117424 1.2518861
1.7654582 1.4078872 0.1935156 0.08841815 1.2199829 0.05885783 -0.116772145 1.2430085
1.2297194 1.391485 1.7398199 0.0008815918 0.24715881 0.5065959 -0.20455879 0.04160185
0.13225216 -0.17283028 0.37390873 -0.1382219 1.1087121 0.09334442 -0.12045377 1.3452384
-0.06797049 -0.041317865 0.02208292 0.070524 0.16593663 -0.14405063 -0.020865992 -0.38920593
-0.39950678 -0.2054562 -0.1658525 -0.111119255 -0.33981228 0.14927466 0.043585673 -0.13033926
-0.18273532 0.3702239 -0.18454874 0.11832298 -0.56119627 -0.094294004 0.15776841 -0.113320105
-0.15963757 -0.12177323 -0.28917167 0.016562274 -0.43554872 -0.53694344 0.07209821 -0.4100193
-0.18725958 -1.135885 -1.9908317 0.35024643 -0.056125905 0.16553013 0.11154619 -2.2884896
-1.2088443 -2.370097 -0.026487641 -0.14039123 0.36961395 -0.115619875 -0.036530837 -1.9593513
0.9077419 0.28246352 -1.1412287 -0.020204121 -5.769927 -2.2859323 0.16289435 -0.09357616
-0.15002824 0.31210577 -1.1883595 -0.17249796 0.3721096 0.84479815 0.118224576 -2.0848055
0.15711628 2.3706741 1.331513 -0.37001154 0.24539109 -0.115484044 0.1977969 2.0119505
2.1353645 1.973217 0.21114345 0.03695409 1.3304332 -0.021512175 0.036970437 1.3339453
0.9988074 1.6423568 2.017387 0.09039724 0.650594 0.8310416 -0.07574809 -0.022321537
0.12418052 -0.3190598 0.39021462 -0.18034269 1.3531599 0.16399159 -0.17448685 1.5665827
-0.103576824 0.010313716 -0.19365638 0.056614906 0.052880317 -0.082518175 -0.1910282 -0.056544382
-0.009835497 -0.21395636 -0.013957355 0.039372317 -0.018947653 -0.16824757 -0.10671127 -0.18957171
-0.10406405 -0.034806594 -0.02769939 0.14255936 0.026838057 0.008982174 0.19564445 0.10903408
-0.12738612 -0.10758331 -0.08457795 -0.16103022 -0.10235125 -0.090270475 -0.0995442 -0.17896782
0.09072651 -0.1013552 -0.023275431 -0.015245097 -0.1373814 -0.04215677 0.07768674 0.010662496
-0.10005942 -0.09304286 -0.21416882 -0.13032933 0.027407333 -0.16263965 0.022430569 0.07253016
-0.100777626 -0.103278846 -0.10862665 0.07278763 0.10091071 -0.13636777 0.09260221 -0.1748667
-0.017520487 0.1682388 -0.097639225 -0.09681468 -0.1748914 -0.10643716 -0.11073191 -0.13097125
-0.026608974 -0.025830701 0.064574 -0.3746304 0.17393754 0.029374272 -0.16970335 -0.057685886
-0.18971866 -0.0662767 0.10246445 -0.08321589 -0.3378359 0.08743377 -0.09866876 -0.054854363
-0.2759792 -0.30507928 -0.10294431 -0.120379046 -0.070387274 0.03983511 0.06591278 0.05064079
-0.014246345 -0.10756805 -0.1571339 -0.18382454 -0.3360159 -0.14516263 0.08530812 -0.25818768

layer3.bias f4 [32]
00000000: 5adc 32be 4e5b 1840 9b1c 5cbe 11e1 97bf
00000010: aafb 5740 da39 eb3c 5777 b1bc aa69 8abe
00000020: 060e d7bf 67f8 9dbf fbd0 0740 ead4 0bc0
00000030: 1c9d 4640 3413 debf 6fed 0fc0 6d1d 02be
00000040: 000a c0bf 3a91 94bf e638 a4be 167f 4440
00000050: 98d0 1cbe 2f2c 573c aff8 a1bf c513 88bd
00000060: 337e ff3f 98f5 d6bf 628a 2a40 e31b 90bd
00000070: 411d c53d 932f 93bd 2449 71bf bc99 febf
-0.1746687 2.3805728 -0.21495287 -1.186556 3.3747354 0.02871411 -0.021663351 -0.2703374
-1.6801155 -1.2341431 2.1221302 -2.1848702 3.1033392 -1.734961 -2.2488668 -0.12706538
-1.5003052 -1.160682 -0.3207466 3.0702567 -0.15313947 0.013133093 -1.2654017 -0.06644396
1.9960388 -1.6793699 2.6646962 -0.07036569 0.0962472 -0.071868084 -0.9425223 -1.9890666

output_layer.weight f4 [1, 32]
00000000: e3ec 2b3d 1dbb cb3f 96c7 9f3e 4704 05c0
00000010: ff4c c33f f51f 4f3b cb4e 363d 4463 9d3d
00000020: f7cf ffbf ab20 09c0 36ca cf3f 7d15 1bc0
00000030: f01e ce3f 1138 c5bf fc27 12c0 6ee6 ab3c
00000040: 2843 2fc0 aad0 28c0 34b9 08be c8b9 cd3f
00000050: c5cf 2fbd cf1e a5bd cc2c 27c0 0b36 60bc
00000060: 7c00 c13f d4a0 92bf a209 cd3f bac8 4b38
00000070: 5855 8fbc 588d 02be 6dcd 19c0 9fd6 19c0
0.04197396 1.5916477 0.3120696 -2.078386 1.5257872 0.0031604741 0.044508737 0.07684949
-1.9985341 -2.142619 1.6233585 -2.4231865 1.6103191 -1.5407735 -2.2836905 0.0209839
-2.738474 -2.6377358 -0.133519 1.6072321 -0.042922754 -0.08062517 -2.6121092 -0.01368476
1.5078273 -1.1455331 1.6018565 4.8585913e-05 -0.01749675 -0.12749231 -2.4031632 -2.4037244

exp_avg f4 [32, 6]
00000000: 563f 3c3d 0e8d 053c 23f4 803a 6a00 3c3b
00000010: 8f9e 513c 258e 9138 1424 153d ab6a ad3b
00000020: 76f7 023a ec8b 433b 9182 013c b881 7938
00000030: cd19 79bc 9470 31bc 896c f3b9 7c87 98b7
00000040: e14f f2bb c106 9038 7549 bc3d 6853 413c
00000050: 12ad b33a 08e5 ea3b c0a5 893c 53e3 0239
00000060: a3af f2ba ae38 d5ba cb4d c5b8 97db 07b8
00000070: 87b6 76ba 155a 14b7 e17d 63bd 5f54 e0bb
00000080: b03b 74ba c1b8 05bb 6d72 2bbc 6753 79b8
00000090: 0400 0000 0400 0000 0400 0000 0400 0000
000000a0: 0400 0000 0400 0000 2f7b e03c 02aa a03b
000000b0: 0b90 153a 74ed 193b b4f8 e63b e778 1938
000000c0: c6f8 e0bc ba76 90bb dd42 d2b9 a62c 12bb
000000d0: 9183 b0bb ddc6 8eb8 0400 0000 0400 0000
000000e0: 0000 0000 0400 0000 0400 0000 0000 0000
000000f0: 0000 0000 0000 0000 0000 0000 0000 0000
00000100: 0000 0000 0000 0000 1222 19bd a704 a9bb
00000110: 4079 e2b9 24bf 76bb d480 d2bb 2925 b8b8
00000120: c91c 413d 1249 053c d14f 853a 71fb 173b
00000130: fdd7 4a3c 683e 8438 0400 0000 0400 0000
00000140: 0000 0000 0400 0000 0400 0000 0000 0000
00000150: 0000 0000 0000 0000 0000 0000 0000 0000
00000160: 0000 0000 0000 0000 f087 1a3d 8429 bf3b
00000170: 203a 2a3a e823 663b 48ce 103c 9192 7e38
00000180: fab9 8b3d 0084 353c 9685 9c3a da77 a63b
00000190: 99cb 853c 2b83 fc38 0400 0000 0400 0000
000001a0: 0400 0000 0400 0000 0400 0000 0400 0000
000001b0: fead eb3d e421 663c a926 b63a 61fb 2b3c
000001c0: d563 9c3c 1cbe 3e39 0000 0000 0000 0000
000001d0: 0000 0000 0000 0000 0000 0000 0000 0000
000001e0: 0400 0000 0400 0000 0400 0000 0400 0000
000001f0: 0400 0000 0400 0000 85f7 113d bf3d d03b
00000200: f64f 4c3a 9d7f c93a 792b 1c3c 2a89 2538
00000210: 2f7b 60bd 77ee 08bc d58f 89ba 9e8a 21bb
00000220: 17ae 2fbc 2635 9fb8 7c1a 673d 48cd bbba
00000230: 0798 a6b9 7dda 013c 4cd4 cfbb 5a72 2db8
00000240: 0400 0000 0400 0000 0400 0080 0400 0000
00000250: 0400 0000 0400 0000 6e78 03be 0de5 93bc
00000260: 10b5 19bb 1604 7fbb cca7 dbbc 2c04 44b9
00000270: 5c9a 55bd 61ca 2ebc f918 a5ba 6bb9 bebb
00000280: 4559 a8bc 95a6 beb9 44b3 17bd d905 00bc
00000290: b431 96ba 9d75 a63a bf72 42bc 1093 38b8
000002a0: 3e1d 0ebd 4330 e7bb a8bd 74ba 18f9 14bb
000002b0: 57f0 1cbc c93c d5b7 87d0 1abb 1095 8ebb
000002c0: 6d8b 21b9 8b28 efba 6bb5 e83a 1518 77b8
000002d0: 0000 0000 0000 0000 0000 0000 0000 0000
000002e0: 0000 0000 0000 0000 8832 843d 8b69 0d3c
000002f0: 3e46 503a daa0 d83b f80c 463c ed75 ee38
0.04595884 0.008151306 0.0009838383 0.002868677 0.012794151 6.940615e-05 0.03641136 0.005292257
0.0004995981 0.0029838039 0.007904665 5.9487036e-05 -0.015203905 -0.010830063 -0.00046429437 -1.8182902e-05
-0.007394776 6.867713e-05 0.09193698 0.011799671 0.0013708195 0.007168416 0.016802669 0.00012482451
-0.0018515479 -0.0016267502 -9.408182e-05 -3.2391017e-05 -0.0009411354 -8.842461e-06 -0.05553997 -0.0068459953
-0.00093167555 -0.0020404311 -0.010464293 -5.94439e-05 6e-45 6e-45 6e-45 6e-45
6e-45 6e-45 0.027402489 0.004903079 0.0005705363 0.002348748 0.0070486907 3.659064e-05
-0.027462374 -0.0044086846 -0.00040104138 -0.0022304445 -0.0053867777 -6.808129e-05 6e-45 6e-45
0.0 6e-45 6e-45 0.0 0.0 0.0 0.0 0.0
0.0 0.0 -0.037386008 -0.0051580253 -0.00043196417 -0.003765055 -0.006424049 -8.780725e-05
0.047146592 0.008135097 0.0010170882 0.0023190642 0.012380597 6.3058746e-05 6e-45 6e-45
0.0 6e-45 6e-45 0.0 0.0 0.0 0.0 0.0
0.0 0.0 0.037727296 0.0058338065 0.00064936467 0.0035116617 0.008838244 6.069482e-05
0.068225816 0.0110788345 0.0011941667 0.0050802054 0.016332434 0.00012040728 6e-45 6e-45
6e-45 6e-45 6e-45 6e-45 0.11507796 0.014046166 0.001389702 0.010496945
0.019090572 0.00018190633 0.0 0.0 0.0 0.0 0.0 0.0
6e-45 6e-45 6e-45 6e-45 6e-45 6e-45 0.035636444 0.006355017
0.00077938975 0.0015373115 0.009531849 3.946681e-05 -0.054804977 -0.008357636 -0.0010495136 -0.0024649273
-0.010722659 -7.5916105e-05 0.05642174 -0.0014328146 -0.00031775257 0.007925627 -0.0063424464 -4.1352912e-05
6e-45 6e-45 -6e-45 6e-45 6e-45 6e-45 -0.12838909 -0.018053556
-0.002345387 -0.0038912348 -0.02681341 -0.00018693571 -0.05214916 -0.010668368 -0.0012595943 -0.0058204434
-0.02055038 -0.00036363737 -0.037036195 -0.007813894 -0.0011458904 0.0012699846 -0.011868178 -4.400598e-05
-0.034695856 -0.007055314 -0.00093361223 -0.002273148 -0.009578786 -2.5419884e-05 -0.0023622827 -0.0043512657
-0.00015406097 -0.0018246336 0.0017754262 -5.8911817e-05 0.0 0.0 0.0 0.0
0.0 0.0 0.064549506 0.00863112 0.0007945037 0.006610972 0.012088053 0.0001137069

exp_avg_sq f4 [32, 6]
00000000: e7dd 4c3d 74e7 043b 957f 2e37 6c28 0f3a
00000010: c0fb 243b 2159 5436 ec87 9b3c 3237 583a
00000020: 1c12 8836 eab3 5a39 3470 883a e678 a435
00000030: 461d df3b 22ab 453a 4fc7 d834 5e07 0d37
00000040: 352a 8339 a7b8 4934 e0a1 883d 9cc4 293b
00000050: 414f 6c37 2fe1 5f3a 66c4 503b de24 9236
00000060: 0588 c937 24fb 6737 6cce 0c32 44ce 0234
00000070: 40e0 8036 dcbd 9530 c8be dd3c d936 8c3a
00000080: 9f9e bc36 598e 9e39 888b 9a3a a0bf f135
00000090: dd35 0d2d 93be 972d 0e98 0326 ac63 8726
000000a0: e4ea 1a2b 6b68 9026 be2f 2a3c 0ba1 c939
000000b0: 8f7d 1736 7477 f938 5f67 0a3a c2f2 3035
000000c0: 808e 203c c3c8 c139 8d67 ff35 8538 c938
000000d0: d241 d339 7f9b 2c35 2eab e104 ea07 a001
000000e0: 0000 0000 0a09 3402 2eab e104 0000 0000
000000f0: 0000 0000 0000 0000 0000 0000 0000 0000
00000100: 0000 0000 0000 0000 be0e f43c ba1e 993a
00000110: 9c80 9536 d4b4 bb39 766f 843a bc36 e135
00000120: baee 233d 43ba d43a d22a 1237 a6d5 e339
00000130: a034 063b 78cc 2e36 23e0 010d c5b3 f709
00000140: 0000 0000 7822 830c c1c1 440b 0000 0000
00000150: 0000 0000 0000 0000 0000 0000 0000 0000
00000160: 0000 0000 0000 0000 8b69 ba3c 4ee5 713a
00000170: 1ebb 9c36 108c 8b39 db08 9b3a 4339 b935
00000180: 85f9 9c3d 7a53 4e3b 9fd4 8637 cc58 583a
00000190: 9765 7d3b b91b a636 317f 0327 b087 e326
000001a0: 8e29 2820 8114 7d22 e26a 8d25 8497 7a20
000001b0: b13a b83d af75 783b c47f a537 79d9 973a
000001c0: c8f1 9b3b 0550 c836 0000 0000 0000 0000
000001d0: 0000 0000 0000 0000 0000 0000 0000 0000
000001e0: f76f a434 2577 ad34 3360 6d2e 75b7 b230
000001f0: 6cf8 ac32 f001 702d e9c4 b93c 529a 643a
00000200: 0240 a036 9fee 8c39 cc1e 923a fe8d c235
00000210: 3f62 923c 8463 003a 0ad3 6636 01b9 2d39
00000220: 604e 163a a833 8d35 998c 513d c587 043b
00000230: 3349 1a37 11b6 0b3a a96d 173b 895a 5436
00000240: 05ad 8030 a93b 072e 357a 232a 5931 702d
00000250: 280f 042f 1138 3c29 0c9b 253e fedc cf3b
00000260: c638 1638 fb0f cc3a 178b f63b a7b8 3637
00000270: 6976 983d 602f bd3a 900f 1e37 4c0d 563a
00000280: 1bdf 093b 5301 1a36 119f ec3c 16af 233a
00000290: e93e 0b36 a493 3c39 d45d 033a cb5b 4c35
000002a0: 6010 9c3c bcb6 0d3a f854 6b36 95d7 8339
000002b0: fd0d 3b3a 3474 9635 4624 e53c b9ab f43a
000002c0: 09bd 4b36 e6dc 5938 443c b23a 5000 4f35
000002d0: 0000 0000 0000 0000 0000 0000 0000 0000
000002e0: 0000 0000 0000 0000 9a08 2b3d d044 e63a
000002f0: 7b35 0f37 992e 183a db3b 0d3b d9a2 3036
0.05001631 0.0020279558 1.0400913e-05 0.00054610404 0.0025174469 3.1642342e-06 0.018985711 0.0008247971
4.055224e-06 0.00020857123 0.0010409416 1.2254138e-06 0.0068089096 0.00075404544 4.037815e-07 8.40597e-06
0.00025017714 1.878676e-07 0.066715 0.0025904542 1.4085149e-05 0.000854033 0.0031855344 4.355431e-06
2.4024406e-05 1.3827146e-05 8.196007e-09 1.2182232e-07 3.8408034e-06 1.0895138e-09 0.02706851 0.0010697498
5.6213025e-06 0.00030242166 0.0011790851 1.801167e-06 8.026882e-12 1.7251344e-11 4.565583e-16 9.394523e-16
5.5037767e-13 1.002031e-15 0.010387359 0.00038457694 2.2573838e-06 0.00011895495 0.0005279686 6.591837e-07
0.0097996 0.00036961408 1.9029118e-06 9.5949545e-05 0.00040294096 6.430127e-07 5.305445e-36 5.8786074e-38
0.0 1.3226906e-37 5.305445e-36 0.0 0.0 0.0 0.0 0.0
0.0 0.0 0.029792186 0.0011682131 4.455518e-06 0.00035802147 0.0010104019 1.6779736e-06
0.04002259 0.0016229827 8.712248e-06 0.00043455994 0.0020478144 2.6047037e-06 4.002099e-31 5.963214e-33
0.0 2.020449e-31 3.789399e-32 0.0 0.0 0.0 0.0 0.0
0.0 0.0 0.022755405 0.00092275895 4.6709456e-06 0.000266165 0.0011828201 1.380024e-06
0.076647796 0.0031482861 1.6073054e-05 0.0008252978 0.0038665289 4.950413e-06 1.8248853e-15 1.5788067e-15
1.4243903e-19 3.4298748e-18 2.4532028e-16 2.1225956e-19 0.089955695 0.0037911942 1.9729028e-05 0.0011585198
0.004759047 5.96978e-06 0.0 0.0 0.0 0.0 0.0 0.0
3.0628846e-07 3.231045e-07 5.3973003e-11 1.3003346e-09 2.0136405e-08 1.3642851e-11 0.022676902 0.0008720505
4.775823e-06 0.00026880667 0.0011148094 1.4495452e-06 0.017869113 0.00048976415 3.4395512e-06 0.00016567485
0.00057337247 1.0520353e-06 0.051159475 0.0020222527 9.196158e-06 0.0005329559 0.0023106134 3.164316e-06
9.362401e-10 3.0748435e-11 1.4519707e-13 1.3653378e-11 1.2010715e-10 4.1793016e-14 0.16172427 0.006343483
3.581566e-05 0.0015568727 0.007523905 1.0891038e-05 0.0744446 0.0014433675 9.421157e-06 0.00081654335
0.0021037522 2.294856e-06 0.028884443 0.00062440464 2.0749233e-06 0.00017984078 0.0005011235 7.61295e-07
0.019050777 0.00054059527 3.5067187e-06 0.00025146888 0.00071355683 1.120969e-06 0.027971398 0.00186669
3.035939e-06 5.194256e-05 0.0013598283 7.7113964e-07 0.0 0.0 0.0 0.0
0.0 0.0 0.04175625 0.0017568115 8.535916e-06 0.00058052834 0.002155057 2.6320834e-06

exp_avg f4 [32]
00000000: 0db7 053a 6591 bd39 7edf bdb9 e170 603a
00000010: cd5d 59b8 6c52 06ba 0400 0000 ec3f 9e39
00000020: 69c1 70b9 0400 0000 0000 0000 0054 8cb9
00000030: d58a 053a 0400 0000 0000 0000 017b cc39
00000040: 2499 393a 0400 0000 84da 863a 0000 0000
00000050: 0400 0000 5b06 cd39 63c0 0fba fa15 9639
00000060: 0400 0000 c52f a5ba 7b2b aeba 632d f6b9
00000070: ea17 d5b9 300e e0b8 0000 0000 17c1 1e3a
0.0005100824 0.00036157217 -0.00036215404 0.0008561742 -5.182419e-05 -0.0005123976 6e-45 0.00030183734
-0.00022960234 6e-45 0.0 -0.00026765466 0.0005094235 6e-45 0.0 0.00039001557
0.00070800097 6e-45 0.0010288511 0.0 6e-45 0.00039105382 -0.0005483685 0.00028626603
6e-45 -0.0012602737 -0.0013288105 -0.00046954592 -0.00040644343 -0.00010683795 0.0 0.00060559943

exp_avg_sq f4 [32]
00000000: a4dd 3837 79b0 9736 e186 6835 f176 7037
00000010: ccff 4b32 e987 b236 67b8 dc26 07b7 1e36
00000020: 93f9 f535 ea07 a000 0000 0000 c670 9f36
00000030: 6aae 1637 5b65 1407 0000 0000 6e50 ae36
00000040: 20d1 8d37 be94 6321 59b3 b037 0000 0000
00000050: 701c 902e c632 a636 45ed 3b36 ea69 3137
00000060: fadc ec2a a4a2 0c38 d520 4437 c9d1 5336
00000070: 6660 6336 a15c b636 0000 0000 677b 1f37
1.1018859e-05 4.520695e-06 8.662301e-07 1.4332808e-05 1.1874317e-08 5.3206354e-06 1.5315549e-15 2.365037e-06
1.8326558e-06 1.4696518e-38 0.0 4.751698e-06 8.981306e-06 1.1164068e-34 0.0 5.1949673e-06
1.6905891e-05 7.710745e-19 2.106435e-05 0.0 6.5534134e-11 4.9530963e-06 2.800328e-06 1.0574682e-05
4.2075355e-13 3.3530072e-05 1.1690155e-05 3.1563561e-06 3.3881747e-06 5.434806e-06 0.0 9.50587e-06

exp_avg f4 [32, 32]
00000000: 0400 0000 0400 0000 0000 0000 0400 0000
00000010: 0000 0000 0400 0000 0000 0000 0400 0000
00000020: 0400 0000 0000 0000 0000 0000 0400 0000
00000030: 0400 0000 0000 0000 0000 0000 0400 0000
00000040: 0400 0000 0000 0000 0400 0000 0000 0000
00000050: 0400 0000 0400 0000 0000 0000 0400 0000
00000060: 0400 0000 0400 0000 0400 0000 0000 0000
00000070: 0400 0000 0400 0000 0000 0000 0400 0000
00000080: 90c2 473b 4133 1d3b 227f 5d3b 65ad 273b
00000090: 8c84 2a38 2f06 f43a 0400 0080 1f77 a93a
000000a0: 818e c039 0000 0000 0000 0000 3f04 883a
000000b0: 7d9a d93a 0400 0000 0000 0000 6313 273b
000000c0: 96e3 303b 0400 0080 7b5e 173b 0000 0000
000000d0: 0400 0080 4286 723a 8ef0 3e3b fae0 fc3a
000000e0: 0400 0080 26eb d53a 0ee5 c039 4e99 af39
000000f0: af75 7f3b e858 9a3b 0000 0000 aa3b cb3a
00000100: 0400 0000 0400 0000 0400 0000 0400 0000
00000110: 0400 0000 0400 0000 0400 0080 0400 0000
00000120: 0400 0000 0400 0080 0000 0000 0400 0000
00000130: 0400 0000 0400 0000 0000 0000 0400 0000
00000140: 0400 0000 0400 0080 0400 0000 0000 0000
00000150: 0400 0080 0400 0000 0400 0000 0400 0000
00000160: 0400 0000 0400 0000 0400 0000 0400 0000
00000170: 0400 0000 0400 0000 0000 0000 0400 0000
00000180: 337b 3539 b5f3 3739 2a27 1637 cd03 a639
00000190: 32e1 4fb3 1796 263a 0400 0080 e84d 2939
000001a0: 3ade 9e39 0400 0000 0000 0000 b5cd 0f3a
000001b0: a72d 4b39 0400 0080 0000 0000 4e23 9739
000001c0: f35b 7739 0400 0000 ca14 9839 0000 0000
000001d0: 0400 0000 9e9c 0939 f33f c237 6d1b 003a
000001e0: 0400 0000 e501 8d3a e39f 5d3a ac28 4fb3
000001f0: dd53 2a39 3bd0 4636 0000 0000 7e69 4239
00000200: 0000 0000 0000 0000 0000 0000 0400 0000
00000210: 0000 0000 0400 0000 0000 0000 0000 0000
00000220: 0400 0000 0000 0000 0000 0000 0400 0000
00000230: 0400 0000 0000 0000 0000 0000 0000 0000
00000240: 0400 0000 0000 0000 0400 0000 0000 0000
00000250: 0000 0000 0400 0000 0000 0000 0400 0000
00000260: 0000 0000 0400 0000 0400 0000 0000 0000
00000270: 0000 0000 0000 0000 0000 0000 0400 0000
00000280: 0000 0000 0000 0000 0000 0000 0000 0000
00000290: 0000 0000 0000 0000 0000 0000 0000 0000
000002a0: 0000 0000 0000 0000 0000 0000 0000 0000
000002b0: 0000 0000 0000 0000 0000 0000 0000 0000
000002c0: 0000 0000 0000 0000 0000 0000 0000 0000
000002d0: 0000 0000 0000 0000 0000 0000 0000 0000
000002e0: 0000 0000 0000 0000 0000 0000 0000 0000
000002f0: 0000 0000 0000 0000 0000 0000 0000 0000
00000300: 0400 0000 0400 0000 0000 0000 0400 0000
00000310: 0400 0000 0400 0000 0400 0000 0400 0000
00000320: 0400 0000 0000 0000 0000 0000 0400 0000
00000330: 0400 0000 0400 0000 0000 0000 0400 0000
00000340: 0400 0000 0400 0000 0400 0000 0000 0000
00000350: 0400 0000 0400 0000 0400 0000 0400 0000
00000360: 0400 0000 0400 0000 0000 0000 0400 0000
00000370: 0400 0000 0400 0000 0000 0000 0400 0000
00000380: 46fb 123b 7673 a03a 11ec 9d38 7a6c 1b3a
00000390: ab16 d6b9 b4c2 1f3a 0400 0000 b5f0 b33a
000003a0: 7819 793a 0000 0000 0000 0000 e8a0 f03a
000003b0: ac0c 1f3b 0400 0000 0000 0000 df9e aa3a
000003c0: 35c3 093b 0400 0080 6c15 403a 0000 0000
000003d0: 0400 0080 ca20 f93a 3a0f 383b 0eef c9b8
000003e0: 0400 0080 ef7b 933a 89e1 2739 4ecf 5f3a
000003f0: 2fac 313b 40b4 b53a 0000 0000 27a1 f539
6e-45 6e-45 0.0 6e-45 0.0 6e-45 0.0 6e-45
6e-45 0.0 0.0 6e-45 6e-45 0.0 0.0 6e-45
6e-45 0.0 6e-45 0.0 6e-45 6e-45 0.0 6e-45
6e-45 6e-45 6e-45 0.0 6e-45 6e-45 0.0 6e-45
0.0030480959 0.0023986849 0.00337977 0.002558553 4.0654602e-05 0.0018617566 -6e-45 0.0012929178
0.00036727267 0.0 0.0 0.0010377242 0.0016601827 6e-45 0.0 0.0025493733
0.002699112 -6e-45 0.0023097086 0.0 -6e-45 0.00092515734 0.002913508 0.0019293122
-6e-45 0.001632069 0.00036791753 0.00033492822 0.0038980057 0.0047103055 0.0 0.0015505452
6e-45 6e-45 6e-45 6e-45 6e-45 6e-45 -6e-45 6e-45
6e-45 -6e-45 0.0 6e-45 6e-45 6e-45 0.0 6e-45
6e-45 -6e-45 6e-45 0.0 -6e-45 6e-45 6e-45 6e-45
6e-45 6e-45 6e-45 6e-45 6e-45 6e-45 0.0 6e-45
0.000173074 0.00017543028 8.949815e-06 0.0003166482 -4.8400757e-08 0.00063547626 -6e-45 0.00016146118
0.0003030168 6e-45 0.0 0.000548567 0.00019376595 -6e-45 0.0 0.00028827268
0.0002359001 6e-45 0.00029007188 0.0 6e-45 0.00013123683 2.315638e-05 0.0004886899
6e-45 0.0010758011 0.0008454306 -4.8232934e-08 0.00016243705 2.9625505e-06 0.0 0.0001854058
0.0 0.0 0.0 6e-45 0.0 6e-45 0.0 0.0
6e-45 0.0 0.0 6e-45 6e-45 0.0 0.0 0.0
6e-45 0.0 6e-45 0.0 0.0 6e-45 0.0 6e-45
0.0 6e-45 6e-45 0.0 0.0 0.0 0.0 6e-45
0.0 0.0 0.0 0.0 0.0 0.0 0.0 0.0
0.0 0.0 0.0 0.0 0.0 0.0 0.0 0.0
0.0 0.0 0.0 0.0 0.0 0.0 0.0 0.0
0.0 0.0 0.0 0.0 0.0 0.0 0.0 0.0
6e-45 6e-45 0.0 6e-45 6e-45 6e-45 6e-45 6e-45
6e-45 0.0 0.0 6e-45 6e-45 6e-45 0.0 6e-45
6e-45 6e-45 6e-45 0.0 6e-45 6e-45 6e-45 6e-45
6e-45 6e-45 0.0 6e-45 6e-45 6e-45 0.0 6e-45
0.0022427603 0.0012241441 7.530314e-05 0.0005928945 -0.0004083415 0.00060943817 6e-45 0.0013728352
0.00095023913 0.0 0.0 0.0018358501 0.0024269028 6e-45 0.0 0.0013017318
0.0021020893 -6e-45 0.0007327411 0.0 -6e-45 0.0019006964 0.0028085248 -9.628954e-05
-6e-45 0.0011252145 0.0001601038 0.00085376657 0.0027110686 0.0013862923 0.0 0.0004685011

exp_avg_sq f4 [32, 32]
00000000: d8c7 421b 1ab1 3f1a 0000 0000 12c1 291a
00000010: 0000 0000 b548 c91b 0000 0000 565d 9419
00000020: 5a3e f11b 0000 0000 0000 0000 0a5d 481b
00000030: 86fc 881b 0000 0000 0000 0000 ed11 2418
00000040: 4b4d 271b 0000 0000 c4d2 101a 0000 0000
00000050: c4e6 9e1b 3091 cc1b 0000 0000 3358 061b
00000060: 9b7b 111b 0d38 e21c 543b 0b1b 0000 0000
00000070: 7629 331b fd7c 1c17 0000 0000 b104 0018
00000080: 7ad8 2739 e176 8b38 c83d d537 cd92 bc38
00000090: 1011 8d34 525b 4838 c108 341f 2b70 6a38
000000a0: 4849 db37 0000 0000 0000 0000 7ac5 8438
000000b0: a391 1339 2a90 8d07 0000 0000 36c3 c238
000000c0: 7d7d 1839 0c1f 9c1e 02e7 8e38 0000 0000
000000d0: 955c e425 926a c738 1132 1739 b5f5 1638
000000e0: 2fb6 9c2b e802 e838 131b e535 3fc4 7737
000000f0: e4ef 5139 880e 5d38 0000 0000 5448 1938
00000100: c661 062d 28f0 782c df8f ec2c 85ef bb2c
00000110: 0d91 c62c 3a35 7627 ab3c ea20 8ccb 2d2b
00000120: aec1 f629 f0fd 0700 0000 0000 4125 1026
00000130: 0014 d92b dff4 060a 0000 0000 0f0c 8e2c
00000140: 3c1f ba2c 7f84 4020 d951 c42c 0000 0000
00000150: bdf5 1d26 0528 bb2a 6df9 bc28 025f 542a
00000160: 0924 1327 7b26 4e2c db56 d224 b0bd 2b26
00000170: fe04 1b2c c00f 292c 0000 0000 3f3d 2b2c
00000180: d18c 3834 88dd 1734 1427 4133 c40b c435
00000190: a04e 8b30 a66f a936 ef08 0f29 b61f 2334
000001a0: 4fa6 0136 6b35 6700 0000 0000 c96f 6836
000001b0: bb92 c134 4497 7408 0000 0000 8781 2935
000001c0: 46ea c334 1c99 c61f bf89 1d35 0000 0000
000001d0: 5ede 142f 2508 8234 5204 c631 1452 2b36
000001e0: 2097 ea29 a3ca b137 4510 1637 65b5 1532
000001f0: 672e d334 99dd 6c31 0000 0000 b95b c934
00000200: 0000 0000 0000 0000 0000 0000 9709 8821
00000210: 0000 0000 d102 7323 0000 0000 0000 0000
00000220: 3709 2a24 0000 0000 0000 0000 325f e122
00000230: ff1a 6f21 0000 0000 0000 0000 0000 0000
00000240: 5ff3 0322 0000 0000 4c71 fa22 0000 0000
00000250: 0000 0000 0613 1221 0000 0000 db0a 8923
00000260: 0000 0000 e093 2026 d8ae 9f25 0000 0000
00000270: 0000 0000 0000 0000 0000 0000 f1c6 0420
00000280: 0000 0000 0000 0000 0000 0000 0000 0000
00000290: 0000 0000 0000 0000 0000 0000 0000 0000
000002a0: 0000 0000 0000 0000 0000 0000 0000 0000
000002b0: 0000 0000 0000 0000 0000 0000 0000 0000
000002c0: 0000 0000 0000 0000 0000 0000 0000 0000
000002d0: 0000 0000 0000 0000 0000 0000 0000 0000
000002e0: 0000 0000 0000 0000 0000 0000 0000 0000
000002f0: 0000 0000 0000 0000 0000 0000 0000 0000
00000300: abef ee1e 1366 9e1c 0000 0000 e356 351a
00000310: 5420 b90c 566d 571d 957f 730b de73 131d
00000320: b04f 0b1f 0000 0000 0000 0000 663c 4d0c
00000330: fb67 ab1f 199b f402 0000 0000 2dce 2c1c
00000340: b821 a61e b494 290d 1ae4 661a 0000 0000
00000350: d482 0506 1403 b91f 4b98 020c bc3e 6609
00000360: 1aa9 b006 2361 ea1e 0000 0000 5c11 2f0c
00000370: 2492 831f a0f1 9f0c 0000 0000 e587 d819
00000380: b884 ae38 d5db 0738 0522 f237 5085 9138
00000390: 19f5 8435 efae 7938 d428 c929 7525 1738
000003a0: 82fc cb37 0000 0000 0000 0000 c7f6 5138
000003b0: d411 b738 8427 2807 0000 0000 7082 6e38
000003c0: a66e 9b38 6f05 f121 3bf4 0d38 0000 0000
000003d0: 0e1a 2830 c305 8b38 fbc1 0639 0b8e 3138
000003e0: ab83 5d2b 4673 8238 0ace 3d35 a028 4a38
000003f0: 2a1a 4039 fe73 0138 0000 0000 3572 a937
1.6111877e-22 3.9640936e-23 0.0 3.5104342e-23 0.0 3.3299646e-22 0.0 1.534054e-23
3.99104e-22 0.0 0.0 1.6573675e-22 2.2662502e-22 0.0 0.0 2.1205553e-24
1.3838891e-22 0.0 2.9948757e-23 0.0 2.6288036e-22 3.3842794e-22 0.0 1.1112719e-22
1.2034058e-22 1.4969914e-21 1.151698e-22 0.0 1.481993e-22 5.0564076e-25 0.0 1.654598e-24
0.00016007005 6.6501794e-05 2.5420348e-05 8.991882e-05 2.627571e-07 4.7768764e-05 3.8123724e-20 5.5894412e-05
2.6140959e-05 0.0 0.0 6.3310334e-05 0.00014073266 2.1300054e-34 0.0 9.287002e-05
0.00014542598 1.6529983e-20 6.814116e-05 0.0 3.961443e-16 9.50891e-05 0.00014419133 3.599162e-05
1.1135033e-12 0.000110631634 1.7069709e-06 1.4768039e-05 0.0002002116 5.270404e-05 0.0 3.6545403e-05
7.638728e-12 3.5376233e-12 6.7234963e-12 5.3414517e-12 5.6436023e-12 3.4168212e-15 3.9681289e-19 6.1744425e-13
1.09581926e-13 7.33944e-40 0.0 5.0010525e-16 1.5424328e-12 6.4979204e-33 0.0 4.0372215e-12
5.2899057e-12 1.6306872e-19 5.579742e-12 0.0 5.4803355e-16 3.3245642e-13 2.0980364e-14 1.8862345e-13
2.0419883e-15 2.9295722e-12 9.122012e-17 5.958462e-16 2.2029596e-12 2.4025087e-12 0.0 2.433456e-12
1.7187564e-07 1.4143563e-07 4.4971856e-08 1.4606562e-06 1.0135928e-09 5.04959e-06 3.1760127e-14 1.5192094e-07
1.9319302e-06 9.478219e-39 0.0 3.4635761e-06 3.6055812e-07 7.360389e-34 0.0 6.3145893e-07
3.6492037e-07 8.410956e-20 5.8687505e-07 0.0 1.3539522e-10 2.4220313e-07 5.7630496e-09 2.5528761e-06
1.04179035e-13 2.1194404e-05 8.944485e-06 8.714186e-09 3.9335575e-07 3.4468484e-09 0.0 3.7505905e-07
0.0 0.0 0.0 9.218257e-19 0.0 1.3173653e-17 0.0 0.0
3.687068e-17 0.0 0.0 6.1087164e-18 8.101208e-19 0.0 0.0 0.0
1.788265e-18 0.0 6.7882594e-18 0.0 0.0 4.94919e-19 0.0 1.4858167e-17
0.0 5.571156e-16 2.7700582e-16 0.0 0.0 0.0 0.0 1.1246659e-19
0.0 0.0 0.0 0.0 0.0 0.0 0.0 0.0
0.0 0.0 0.0 0.0 0.0 0.0 0.0 0.0
0.0 0.0 0.0 0.0 0.0 0.0 0.0 0.0
0.0 0.0 0.0 0.0 0.0 0.0 0.0 0.0
2.5298355e-20 1.0481949e-21 0.0 3.750011e-23 2.852322e-31 2.8511538e-21 4.689608e-32 1.951519e-21
2.950031e-20 0.0 0.0 1.5810801e-31 7.259334e-20 3.59416e-37 0.0 5.71765e-22
1.758988e-20 5.225614e-31 4.7747144e-23 0.0 2.5110637e-35 7.835564e-20 1.0060665e-31 2.771474e-33
6.6452314e-35 2.4815889e-20 0.0 1.3486734e-31 5.572243e-20 2.4643252e-31 0.0 2.2388764e-23
8.321687e-05 3.2391243e-05 2.886449e-05 6.93897e-05 9.906099e-07 5.9529146e-05 8.933276e-14 3.603609e-05
2.4317069e-05 0.0 0.0 5.0059312e-05 8.729441e-05 1.2650528e-34 0.0 5.68651e-05
7.411586e-05 1.6332233e-18 3.3844477e-05 0.0 6.115507e-10 6.62911e-05 0.00012851499 4.2332376e-05
7.86977e-13 6.2203544e-05 7.0707813e-07 4.8198388e-05 0.00018320294 3.0864023e-05 0.0 2.0199552e-05

exp_avg f4 [32]
00000000: 0400 0000 f5d3 cc38 0400 0000 b424 b937
00000010: 0400 0000 0000 0000 0400 0000 46c1 9038
00000020: bec9 d638 0400 0000 0400 0000 0400 0000
00000030: acf2 8f37 0400 0000 0000 0000 0400 0000
00000040: 5037 91b7 9c7a 7f38 195d b538 0400 0000
00000050: c4e9 0ab8 0400 0000 0400 0000 0000 0000
00000060: 0400 0000 0400 0000 fdc0 64b8 0400 0000
00000070: c564 8237 4dc6 c8b7 0400 0000 c3c1 2e39
6e-45 9.766958e-05 6e-45 2.207081e-05 6e-45 0.0 6e-45 6.902455e-05
0.000102418926 6e-45 6e-45 6e-45 1.7159931e-05 6e-45 0.0 6e-45
-1.7311104e-05 6.0910927e-05 8.648093e-05 6e-45 -3.3119475e-05 6e-45 6e-45 0.0
6e-45 6e-45 -5.453917e-05 6e-45 1.5544132e-05 -2.3934199e-05 6e-45 0.00016666115

exp_avg_sq f4 [32]
00000000: 7ec7 e716 bc2f fc34 3bb1 f828 1acd d331
00000010: 59c2 e21f 0000 0000 76b3 011a 4d27 7d34
00000020: 0ad8 f134 bec5 9e21 d043 cf1f 30f9 0706
00000030: 7b5a cc33 afb7 0100 0000 0000 2cae 0c29
00000040: ef06 bf33 71d3 a534 c3ef fb34 6f98 d91b
00000050: f32a e931 3297 922b 1e88 8007 0000 0000
00000060: 9146 8308 e303 a616 cf11 b533 5dcc 8a1d
00000070: 48bd 0934 ed25 3e34 8236 9307 490e ab34
3.744596e-25 4.697339e-07 2.7610392e-14 6.1642256e-09 9.6036244e-20 0.0 2.6821542e-23 2.3576759e-07
4.5046937e-07 1.0758838e-18 8.7780096e-20 2.5573752e-35 9.5159486e-08 1.57729e-40 0.0 3.1237315e-14
8.895392e-08 3.088749e-07 4.6926843e-07 3.5998146e-22 6.7860753e-09 1.0415889e-12 1.9339302e-34 0.0
7.900866e-34 2.68212e-25 8.431709e-08 3.6739603e-21 1.282798e-07 1.7708926e-07 2.2150139e-34 3.1861626e-07

exp_avg f4 [32, 32]
00000000: 0000 0000 0400 0000 0400 0000 0400 0000
00000010: 0000 0000 0000 0000 0400 0000 0400 0000
00000020: 0400 0000 0400 0000 0400 0000 0000 0000
00000030: 0400 0000 0000 0000 0000 0000 0400 0000
00000040: 0000 0000 0400 0000 0400 0000 0000 0000
00000050: 0400 0000 0400 0000 0000 0000 0000 0000
00000060: 0400 0000 0000 0000 0400 0000 0400 0000
00000070: 0400 0000 0000 0000 0400 0000 0400 0000
00000080: 0400 0080 c63c 3eb8 0400 0000 3899 86b8
00000090: 0400 0080 0000 0000 0400 0000 2b10 ee39
000000a0: 829a 0b3a 0400 0000 0400 0080 0400 0080
000000b0: e289 263a 0400 0000 0000 0000 0400 0000
000000c0: 6322 8f3a 3cf5 283a e844 00b9 0400 0000
000000d0: b3a6 08b8 0400 0000 0400 0000 0000 0000
000000e0: 0400 0080 0400 0000 a27e 52b9 0400 0000
000000f0: 6274 553a 26b4 e3b9 0400 0080 63e7 33b9
00000100: 0000 0000 0000 0000 0400 0000 0400 0080
00000110: 0000 0000 0000 0000 0000 0000 0400 0000
00000120: 0400 0000 0400 0000 0400 0000 0000 0000
00000130: 0400 0000 0000 0000 0000 0000 0400 0000
00000140: 0400 0000 0400 0080 0400 0000 0000 0000
00000150: 0400 0000 0400 0080 0000 0000 0000 0000
00000160: 0000 0000 0000 0000 0400 0000 0400 0000
00000170: 0400 0000 0400 0000 0000 0000 0400 0000
00000180: 0400 0000 f3c1 a7b9 0400 0080 25ae af38
00000190: 0400 0000 0000 0000 0400 0080 71de 05ba
000001a0: 178c 66ba 0400 0080 0400 0000 0000 0000
000001b0: 7381 95ba 0400 0080 0000 0000 0400 0000
000001c0: 778d 64bb 31bd 88ba 4cc0 40b9 0400 0080
000001d0: 7f02 cab5 0400 0080 0000 0000 0000 0000
000001e0: 0000 0000 0400 0080 bd59 8939 0400 0000
000001f0: 8176 d7ba 9d14 f8b9 0000 0000 3195 9bb9
00000200: 0400 0080 584f 36b8 0400 0000 4307 81b8
00000210: 0400 0080 0000 0000 0400 0000 fb39 e439
00000220: ced5 053a 0400 0000 0400 0080 0400 0080
00000230: 24a8 1f3a 0400 0000 0000 0000 0400 0000
00000240: 4038 893a fbf9 213a 68e7 f5b8 0400 0000
00000250: 79ff 02b8 0400 0000 0400 0000 0000 0000
00000260: 0400 0080 0400 0000 27c9 49b9 0400 0000
00000270: 07a2 4c3a 7e46 dab9 0400 0000 1973 2cb9
00000280: 0000 0000 0400 0000 0400 0000 0400 0080
00000290: 0000 0000 0000 0000 0400 0000 0400 0000
000002a0: 0400 0000 0400 0000 0400 0000 0400 0000
000002b0: 0400 0000 0000 0000 0000 0000 0400 0000
000002c0: 0000 0000 0400 0000 0400 0000 0000 0000
000002d0: 0400 0000 0400 0000 0400 0080 0000 0000
000002e0: 0400 0000 0400 0000 0400 0080 0400 0000
000002f0: 0400 0000 0000 0000 0400 0000 0400 0000
00000300: 0000 0000 0000 0000 0400 0000 0400 0000
00000310: 0000 0000 0000 0000 0000 0000 0000 0000
00000320: 0000 0000 0000 0000 0400 0000 0000 0000
00000330: 0000 0000 0000 0000 0000 0000 0400 0000
00000340: 0000 0000 0000 0000 0000 0000 0000 0000
00000350: 0000 0000 0000 0000 0000 0000 0000 0000
00000360: 0000 0000 0000 0000 0400 0000 0400 0000
00000370: 0400 0000 0400 0000 0000 0000 0400 0000
00000380: 0000 0000 0000 0000 0000 0000 0400 0000
00000390: 0000 0000 0000 0000 0000 0000 0400 0000
000003a0: 0400 0000 0000 0000 0000 0000 0000 0000
000003b0: 0400 0000 0000 0000 0000 0000 0400 0000
000003c0: 0400 0000 0400 0000 0000 0000 0000 0000
000003d0: 0400 0000 0000 0000 0000 0000 0000 0000
000003e0: 0000 0000 0000 0000 0400 0000 0400 0000
000003f0: 0400 0000 0400 0000 0000 0000 0400 0000
0.0 6e-45 6e-45 6e-45 0.0 0.0 6e-45 6e-45
6e-45 6e-45 6e-45 0.0 6e-45 0.0 0.0 6e-45
0.0 6e-45 6e-45 0.0 6e-45 6e-45 0.0 0.0
6e-45 0.0 6e-45 6e-45 6e-45 0.0 6e-45 6e-45
-6e-45 -4.535613e-05 6e-45 -6.418157e-05 -6e-45 0.0 6e-45 0.00045406944
0.00053254527 6e-45 -6e-45 -6e-45 0.00063529436 6e-45 0.0 6e-45
0.0010920282 0.0006445234 -0.00012232701 6e-45 -3.2580178e-05 6e-45 6e-45 0.0
-6e-45 6e-45 -0.00020074335 6e-45 0.00081426476 -0.00043431035 -6e-45 -0.00017156969
0.0 0.0 6e-45 -6e-45 0.0 0.0 0.0 6e-45
6e-45 6e-45 6e-45 0.0 6e-45 0.0 0.0 6e-45
6e-45 -6e-45 6e-45 0.0 6e-45 -6e-45 0.0 0.0
0.0 0.0 6e-45 6e-45 6e-45 6e-45 0.0 6e-45
6e-45 -0.00031997226 -6e-45 8.377087e-05 6e-45 0.0 -6e-45 -0.0005106694
-0.0008794679 -6e-45 6e-45 0.0 -0.0011406377 -6e-45 0.0 6e-45
-0.0034874359 -0.001043236 -0.00018382183 -6e-45 -1.5050899e-06 -6e-45 0.0 0.0
0.0 -6e-45 0.00026197536 6e-45 -0.0016438515 -0.00047317604 0.0 -0.0002967506
-6e-45 -4.3466076e-05 6e-45 -6.152552e-05 -6e-45 0.0 6e-45 0.00043530748
0.0005105407 6e-45 -6e-45 -6e-45 0.00060904236 6e-45 0.0 6e-45
0.0010469034 0.00061789126 -0.00011725613 6e-45 -3.1232343e-05 6e-45 6e-45 0.0
-6e-45 6e-45 -0.00019243789 6e-45 0.00078061264 -0.0004163272 6e-45 -0.00016446075
0.0 6e-45 6e-45 -6e-45 0.0 0.0 6e-45 6e-45
6e-45 6e-45 6e-45 6e-45 6e-45 0.0 0.0 6e-45
0.0 6e-45 6e-45 0.0 6e-45 6e-45 -6e-45 0.0
6e-45 6e-45 -6e-45 6e-45 6e-45 0.0 6e-45 6e-45
0.0 0.0 6e-45 6e-45 0.0 0.0 0.0 0.0
0.0 0.0 6e-45 0.0 0.0 0.0 0.0 6e-45
0.0 0.0 0.0 0.0 0.0 0.0 0.0 0.0
0.0 0.0 6e-45 6e-45 6e-45 6e-45 0.0 6e-45
0.0 0.0 0.0 6e-45 0.0 0.0 0.0 6e-45
6e-45 0.0 0.0 0.0 6e-45 0.0 0.0 6e-45
6e-45 6e-45 0.0 0.0 6e-45 0.0 0.0 0.0
0.0 0.0 6e-45 6e-45 6e-45 6e-45 0.0 6e-45
