Version 1/model/base_model_old.pth (torch, 37922 bytes, 21 tensors)

layer1.weight f4 [32, 6]
0	0x3e534b92	0.20634297
1	0xbea3b286	-0.3197214
2	0x3cac25df	0.021014152
3	0xbeeb817a	-0.4599722
4	0x3f27e342	0.6558114
5	0xbedd8663	-0.4326659
6	0x3d3e1a4f	0.04641181
7	0x3e7cb12e	0.24676964
8	0x3dde26a0	0.10847211
9	0xbe89de42	-0.26927382
10	0x3f0b1c4f	0.5434007
11	0xbf118b96	-0.56853616
12	0xbe858a6a	-0.26082164
13	0x3f18e818	0.59729147
14	0xbf6c9ce7	-0.92426914
15	0xbea74e91	-0.3267713
16	0x3ef0ff5e	0.4706983
17	0x3f304923	0.688616
18	0xbdf202ab	-0.11816915
19	0x3f52c2bd	0.823284
20	0x3e10a83e	0.1412668
21	0x3e1fe70a	0.15615478
22	0x3e9eade1	0.30992034
23	0xbec9f5d6	-0.3944537
24	0xbe82bad9	-0.25533178
25	0x3e80a23b	0.25123772
26	0xbeba9326	-0.3644039
27	0xbe44ab23	-0.19205908
28	0x3fc26bb3	1.5189117
29	0xbfa1cc87	-1.2640542
30	0xbaa3bf0e	-0.0012492852
31	0x3f2e6a60	0.68131065
32	0x3c686bba	0.01418584
33	0x3efafd44	0.4902135
34	0x3dc711f6	0.09720223
35	0x3f35a713	0.7095806
36	0xbf1c7f6a	-0.6113192
37	0x3f038fce	0.51391304
38	0x3f972705	1.1808783
39	0xbf16204e	-0.58643043
40	0xbdcd9320	-0.100378275
41	0xc00302eb	-2.047053
42	0x3d7de914	0.06198986
43	0x3e84273f	0.25811192
44	0xbf0e6c6a	-0.55634177
45	0xbf0948c3	-0.5362665
46	0xbdc46cda	-0.09591074
47	0xbdfc6f35	-0.123258986
48	0x3dfd446a	0.123665646
49	0x3c68125e	0.014164535
50	0xbf381396	-0.71904886
51	0x3d33b35a	0.043872215
52	0x3c4d22fa	0.012520546
53	0x3f50396f	0.81337637
54	0xbdabbae9	-0.0838526
55	0xbeb50e80	-0.35362625
56	0xbde3d1b0	-0.11123979
57	0xbe8887a8	-0.26665998
58	0x3c3717d5	0.011175116
59	0x3e0977a0	0.1342454
60	0xbec1fb9e	-0.3788728
61	0x3df387b8	0.11891121
62	0x3e51f470	0.20503402
63	0xbc91e6f0	-0.017810315
64	0x3e2cebf4	0.16886884
65	0x3e743c00	0.23851013
66	0x3e29e20b	0.16590135
67	0x3ebc758a	0.36808425
68	0x3ec8ace5	0.39194408
69	0x3cd9d43b	0.026590457
70	0xbebe62a1	-0.37184623
71	0x3fc7a8b9	1.5598365
72	0x3e83a56a	0.25712138
73	0xbe8c969e	-0.27458662
74	0x3ed8ebdd	0.4236745
75	0xbf1c9345	-0.61162215
76	0xbe108b68	-0.1411568
77	0xbe995574	-0.29948008
78	0xbebea74d	-0.37237015
79	0xbed2cf81	-0.41173938
80	0x3cc65230	0.024209112
81	0x3e8c0071	0.27344087
82	0x3e60aa2c	0.21939915
83	0xbeabcfec	-0.3355707
84	0xbd5875a0	-0.05284655
85	0xbe4ae67e	-0.19814488
86	0xbeb63b2f	-0.35592028
87	0xbd8a66e8	-0.06757909
88	0xbde00b28	-0.10939628
89	0xbea94ef4	-0.3306805
90	0x3ba66498	0.0050779097
91	0x3ee746bc	0.45171154
92	0xbda417a8	-0.080123246
93	0xbe9901f3	-0.298843
94	0x3ed916e4	0.42400277
95	0xbe88d94d	-0.26728287
96	0x3e16e7f8	0.14736927
97	0xbe84f542	-0.25968367
98	0x3e87c05c	0.26513946
99	0xbe8d98d7	-0.2765567
100	0x3ef839c0	0.4848156
101	0xbf344975	-0.70424587
102	0xbf18e6ab	-0.5972697
103	0x3eae5752	0.34050995
104	0xbf7d1083	-0.9885332
105	0xbfd29e41	-1.6454545
106	0x3dc597f7	0.096481256
107	0xbf67b8a8	-0.9051614
108	0xbdf5c28f	-0.12
109	0x3e741f58	0.23840082
110	0x3e3d412c	0.18481892
111	0x3e838ae8	0.25691915
112	0x3f15f17e	0.5857161
113	0xbe96176c	-0.29314744
114	0xbeb65dbf	-0.35618398
115	0xbe723b8d	-0.2365553
116	0xbe6f9a6d	-0.23398753
117	0xbe9b969d	-0.30388346
118	0x3e299f20	0.16564608
119	0xbe8c12a0	-0.2735796
120	0xbd05de39	-0.03268263
121	0x3f0f2476	0.5591501
122	0x3e23717f	0.15961264
123	0x3f02b7da	0.51061785
124	0xbf1447e2	-0.57922184
125	0x3f9407f8	1.1564932
126	0x3e9261f2	0.2859035
127	0xbe5a6092	-0.21325901
128	0xbe2ac393	-0.16676168
129	0xbf15911a	-0.5842453
130	0xbeb1d580	-0.347332
131	0xbbe47cee	-0.0069729006
132	0x3e67753d	0.22603317
133	0xbe30c2cf	-0.17261814
134	0x3eaf12ff	0.3419418
135	0xbff21d31	-1.8915159
136	0x3f148158	0.5800986
137	0xbfb11d3a	-1.3837044
138	0xbd4865da	-0.04892526
139	0x3f33cc46	0.7023357
140	0xbdbba034	-0.09161416
141	0x3e4676be	0.19381234
142	0x3e4941e8	0.19654047
143	0x3f50e805	0.81604034
144	0xbdc21138	-0.094759405
145	0x3e5c1bf5	0.2149504
146	0xbe1da83b	-0.15396206
147	0x3f07a5a2	0.5298711
148	0x3fa0a5a2	1.2550547
149	0xbdd7be61	-0.10534359
150	0xbc7ba2db	-0.015358652
151	0x3d0399f5	0.032129247
152	0x3f24dd82	0.64400494
153	0x3fc854c3	1.5650867
154	0x3f2b0536	0.66804826
155	0x3f96871c	1.1759982
156	0xbe8b3a0f	-0.27192733
157	0x3eae7133	0.3407074
158	0xbe1b7c2d	-0.15184088
159	0x3f99240b	1.1964124
160	0x3db50679	0.08839125
161	0x3fbcaccf	1.4740237
162	0x3d0fa531	0.03506965
163	0x3fa48397	1.2852658
164	0xbfea477a	-1.8303063
165	0xbfa68212	-1.3008444
166	0xbf1480d8	-0.580091
167	0xc057c01e	-3.371101
168	0x3eed8382	0.46389395
169	0x3f08c704	0.53428674
170	0xbf69c184	-0.91310906
171	0xbfae17a0	-1.360096
172	0x3f12ec26	0.57391584
173	0xbf94dc1b	-1.1629671
174	0xbd530e02	-0.05152703
175	0x3ec8dfd5	0.3923327
176	0x3f041ad5	0.5160344
177	0xbe14e678	-0.14541042
178	0x3f09b312	0.53788865
179	0xbf561d0b	-0.83638066
180	0xbecfe07e	-0.4060096
181	0x3e800610	0.25004625
182	0x3d99f418	0.0751726
183	0xbdddd19c	-0.108309954
184	0xbecad6fa	-0.3961714
185	0xbd0db888	-0.03459981
186	0xbd460d1c	-0.048352346
187	0x3e74cd17	0.2390636
188	0x3eae8a45	0.34089866
189	0x3c73fa1e	0.014891176
190	0x3ec590b3	0.3858696
191	0xbf738ed8	-0.9513984

layer1.bias f4 [32]
0	0x40a59f93	5.1757293
1	0x40a08653	5.016397
2	0x3eef7807	0.4677126
3	0x40ab36cc	5.350439
4	0xc039e111	-2.904362
5	0xc0a8bc02	-5.27295
6	0x3f184604	0.59481835
7	0x4073ba33	3.8082397
8	0xc0ac7c34	-5.3901615
9	0x3e1266f0	0.1429708
10	0x3e60048c	0.21876734
11	0xc0affc7e	-5.499572
12	0x409f8d21	4.9859776
13	0xbe1f8714	-0.15578872
14	0xbe52bfc0	-0.2058096
15	0x40a3327b	5.099912
16	0x40a94ec0	5.290863
17	0xbe4f1109	-0.20221342
18	0x40bbfd5b	5.874677
19	0x3e98bb66	0.29830474
20	0xc09ea741	-4.9579167
21	0x4091bcaa	4.5542803
22	0xc063e4e1	-3.5608447
23	0xc0b0da19	-5.5266232
24	0xc094ab28	-4.645893
25	0xc098a64b	-4.7702994
26	0xc05e1beb	-3.470454
27	0xc001c845	-2.0278485
28	0xc07e8056	-3.976583
29	0x40aaeac5	5.3411584
30	0x3e7fdb98	0.24986112
31	0x40ae2975	5.4425607

layer2.weight f4 [32, 32]
0	0xbecec952	-0.4038797
1	0xbe8ee57b	-0.27909455
2	0xbe1c788f	-0.15280364
3	0xbe7740ff	-0.24145888
4	0xbe0e8e69	-0.13921513
5	0xbe8402cd	-0.25783387
6	0x3c775360	0.015095562
7	0xbe74f8fa	-0.23923102
8	0xbe2172a7	-0.15766393
9	0xbd6f39da	-0.05840478
10	0x3ca9f3c0	0.020746112
11	0xbdaadcc0	-0.08342886
12	0xbede3d4d	-0.43406144
13	0xbd9816c7	-0.074262194
14	0xbdef7e90	-0.11694062
15	0xbe432487	-0.19056903
16	0xbecf1852	-0.40448242
17	0xbde15ad7	-0.110036545
18	0xbe97cccf	-0.29648444
19	0xbcd22198	-0.025650784
20	0xbe1f7b2c	-0.1557433
21	0xbe89753c	-0.26847255
22	0xbdfbf9d9	-0.12303514
23	0xbec17c8e	-0.3779034
24	0xbe8d64b3	-0.2761589
25	0xbe784c4d	-0.24247856
26	0xbe24b3cd	-0.16084214
27	0xbd23a5cc	-0.039953038
28	0xbe719c39	-0.2359475
29	0xbec96a60	-0.3933897
30	0x3e332487	0.17494403
31	0xbe7e7b2c	-0.24851674
32	0x3f52ee05	0.8239444
33	0x3eb86ebe	0.3602199
34	0xbd0ba401	-0.034091953
35	0x3f51b045	0.8190959
36	0xbec2c96b	-0.38044295
37	0xbf225cb5	-0.6342271
38	0xbf95618f	-1.1670398
39	0x3e3c33bc	0.1837911
40	0xbf5b39f2	-0.8563529
41	0xbe185f35	-0.14880069
42	0xbe2438c4	-0.1603728
43	0xbf14ac73	-0.58075637
44	0x3f20c961	0.6280728
45	0xbdc7dce7	-0.09758931
46	0xbd6d4fa8	-0.057937294
47	0x3e7e9ce5	0.24864538
48	0x3f9893fb	1.192016
49	0xbee7d6e4	-0.45281136
50	0x3fae8702	1.3634951
51	0x3d8f0b26	0.06984548
52	0xbf27dbfc	-0.65570045
53	0x3ec4fdae	0.38474792
54	0xbf99c850	-1.2014256
55	0xbf54cb9b	-0.8312318
56	0xbf343cd5	-0.7040532
57	0xbffe70f1	-1.9878217
58	0xbfce02f3	-1.609465
59	0xbed27402	-0.41104132
60	0xbf62db23	-0.88615626
61	0x3ec56cd6	0.38559598
62	0xbdbee2ec	-0.09320626
63	0x3efc95e1	0.493331
64	0x3edd9432	0.43277127
65	0x3c93bb49	0.01803364
66	0x3efda9b7	0.49543545
67	0x3f41b531	0.756671
68	0xbea1614d	-0.31519547
69	0xbf475dec	-0.7787769
70	0xbf80307e	-1.0014799
71	0x3e2f4f64	0.17120129
72	0xbef041c5	-0.46925178
73	0x3e5990c7	0.21246634
74	0xbe01b223	-0.1266561
75	0xbf63f15f	-0.8904018
76	0x3ef306ff	0.47466275
77	0x3de5bb70	0.112173915
78	0xbe015cd8	-0.12633073
79	0x3e88368a	0.2660411
80	0x3ed1a8ac	0.40949
81	0xbef31f40	-0.4748478
82	0x3f42cf1c	0.76097274
83	0xbe05f266	-0.13080749
84	0xbf1d0456	-0.6133474
85	0x3e8ae2a4	0.27126038
86	0xbf800681	-1.0001985
87	0xbf7692be	-0.9631766
88	0xbee19f07	-0.4406664
89	0xbfe97902	-1.8240054
90	0xc005fb11	-2.0934489
91	0xbe091a4d	-0.13388939
92	0xbf668a8b	-0.9005515
93	0x3ea013b8	0.31265044
94	0xbc710990	-0.0147117525
95	0x3e1f728a	0.15571037
96	0xbf345769	-0.7044588
97	0xbdd821a2	-0.1055329
98	0xbfa12390	-1.2588978
99	0xbeb1f88e	-0.34759945
100	0xbf020040	-0.5078163
101	0x3efdc09f	0.4956102
102	0x3f19836f	0.59966177
103	0xbdfbb7d0	-0.12290919
104	0x3c63b469	0.013897994
105	0x3d7be6be	0.06149935
106	0x3c06d850	0.008230284
107	0x3e8eca8f	0.27888915
108	0xbf2c2e46	-0.6725811
109	0x3c46ff75	0.012145867
110	0xbd854dfd	-0.06509016
111	0xbe2e6efb	-0.17034523
112	0xbf4103fd	-0.7539671
113	0x3f93f0e0	1.1557884
114	0xbf0d31c6	-0.55154073
115	0x3d003244	0.031297937
116	0x3f08e9cb	0.5348174
117	0xbe89a548	-0.26883912
118	0x3f36a3a4	0.71343446
119	0x3e9d425f	0.307147
120	0x3e6521c9	0.2237617
121	0x3f7f8079	0.9980541
122	0x3f3a1885	0.72693664
123	0x3f31d972	0.6947242
124	0x3f4b730b	0.79472417
125	0xbdacd5c8	-0.08439213
126	0xbdd54d75	-0.104151644
127	0xbda9a05b	-0.082825385
128	0xbe0a0683	-0.13479047
129	0xbd4413dc	-0.047870502
130	0x3d802e38	0.062588155
131	0xbe0f2d5c	-0.13982147
132	0xbe2f961a	-0.17147103
133	0xbe0d9bfa	-0.13829032
134	0x3db6fe16	0.08935182
135	0xbd8fd7fd	-0.07023618
136	0x3d178a88	0.036997348
137	0xbdefff94	-0.117186695
138	0xbd977603	-0.07395556
139	0xbde63324	-0.11240223
140	0xbe1765e9	-0.1478497
141	0xbdc1a4c8	-0.09455258
142	0xbc49b650	-0.012311533
143	0xbd9c1914	-0.07621971
144	0xbcc86628	-0.024462774
145	0xbdf627ad	-0.12019286
146	0xbd2a6708	-0.041602165
147	0x3db42176	0.08795445
148	0xbd12b6c0	-0.035818815
149	0xbe228286	-0.15870103
150	0x3c54ecc0	0.012995899
151	0xbd339c80	-0.043850422
152	0xbd8c9134	-0.06863633
153	0x3c8ce5d0	0.017199427
154	0x3d7d7370	0.061877668
155	0xbd1cc0cc	-0.038269803
156	0x3de7b0be	0.11313008
157	0x3e27c875	0.16385062
158	0x3cc90930	0.024540514
159	0xbe0e6dbf	-0.13909052
160	0x3dc81556	0.097696945
161	0xbd9c3004	-0.07626346
162	0xbc906268	-0.017625049
163	0xbdd7c3a2	-0.10535361
164	0xbdd54041	-0.10412646
165	0xbdc4f547	-0.096170954
166	0xbddec476	-0.10877316
167	0xbd090154	-0.033448532
168	0x3e20455b	0.15651457
169	0xbe2e4303	-0.1701775
170	0xbe1943b8	-0.14967239
171	0xbe20b366	-0.15693435
172	0xbe11946a	-0.14216772
173	0x3d6ca9ec	0.057779238
174	0xbd0e59c8	-0.03475359
175	0xbd9a6f6f	-0.075407855
176	0xbe2ea4be	-0.17055032
177	0x3d601b2c	0.054713413
178	0xbdc71c93	-0.09722247
179	0xbe271031	-0.1631477
180	0xbe205926	-0.15659007
181	0x3caf3120	0.02138573
182	0x3db862f6	0.0900325
183	0x3df05902	0.11735727
184	0xbdfe844c	-0.124275774
185	0xbe0d296e	-0.13785335
186	0x3e04c87d	0.12967105
187	0xbd399e3c	-0.04531692
188	0xba914880	-0.0011084229
189	0x3daaf68e	0.08347808
190	0xbe0b1ce4	-0.1358524
191	0xbbdfccc0	-0.006829828
192	0xbc50b782	-0.012739064
193	0xbe3407c1	-0.17581083
194	0xbe05d324	-0.13068825
195	0xbe0ee281	-0.13953592
196	0xbe23c685	-0.15993698
197	0x3deadfcd	0.11468468
198	0xbc11b9a8	-0.008894362
199	0x3dd4063a	0.1035275
200	0xbd10c7f3	-0.035346936
201	0xbe191f0b	-0.14953248
202	0xbdea9814	-0.11454788
203	0xbe688bb4	-0.22709543
204	0x3d52c51f	0.05145752
205	0x3dda59eb	0.10661682
206	0x3e2e6bf7	0.17033373
207	0xbd918bfe	-0.071067795
208	0x3d144bfb	0.036205273
209	0xbdee3d6c	-0.11632809
210	0xbe015816	-0.12631258
211	0xbddc059e	-0.10743259
212	0xbe1cc7b0	-0.1531055
213	0xbd8bcd50	-0.068262696
214	0xbe26c2f4	-0.16285306
215	0xbd193824	-0.037407055
216	0xbe665832	-0.22494581
217	0xbc22b0c9	-0.009929844
218	0x3d629ef4	0.05532737
219	0x3d3a6181	0.045503143
220	0x3d457136	0.04820367
221	0x3dc48015	0.09594742
222	0x3e2a4fdd	0.16632028
223	0xbe3d33d1	-0.18476798
224	0x3ee6cdb0	0.45078802
225	0x3eabaeae	0.33531708
226	0x3f372015	0.7153333
227	0x3f6b7e6e	0.9198979
228	0xbe038b85	-0.12846191
229	0xbee721a8	-0.45142865
230	0x3f2078b9	0.6268421
231	0x3e447149	0.1918384
232	0xbebc1b41	-0.36739543
233	0x3d421890	0.047386706
234	0x3ddb094e	0.10695134
235	0xbf645b1c	-0.8920152
236	0x3f1e0c7e	0.6173781
237	0x3d27ed83	0.040997993
238	0xbd9a1db2	-0.07525195
239	0x3edf25dd	0.43583575
240	0x3f589f4c	0.8461807
241	0xbf81f80a	-1.015382
242	0x3f9fecb9	1.2494117
243	0x3dd37726	0.1032546
244	0xbed5ee1f	-0.41783234
245	0x3e7b73a9	0.2455584
246	0xbf9b012b	-1.2109731
247	0xbf3800c5	-0.71876174
248	0xbeb4bdcc	-0.35301054
249	0xc00c6a2f	-2.193981
250	0xbf9b9a14	-1.2156396
251	0x3ed92435	0.42410436
252	0x3ec54e30	0.38536215
253	0x3efd46a1	0.49467948
254	0xbdca0518	-0.09864253
255	0x3f2158ec	0.6302631

layer2.bias f4 [32]
0	0xbe657b18	-0.22410238
1	0x40888b11	4.266976
2	0x404fa1c7	3.244249
3	0xc066e08c	-3.6074553
4	0x3e19eb1f	0.15031098
5	0x3da9210e	0.08258258
6	0xbe5760f3	-0.21033077
7	0x40636066	3.5527587
8	0x4090062e	4.5007544
9	0x40504830	3.254406
10	0x3b45247d	0.0030081563
11	0xbd86bd5e	-0.06579088
12	0x405ef7dc	3.4838781
13	0xbdd8b489	-0.10581309
14	0x3dd5aa96	0.10432927
15	0x4067c32e	3.6212878
16	0xbf920f0b	-1.1410841
17	0x40799bbc	3.9001303
18	0x4092d0ad	4.587973
19	0x3d264e13	0.0406018
20	0x40863256	4.1936445
21	0x40706ca5	3.7566311
22	0xbe15a39a	-0.1461319
23	0x3d2d5ba8	0.04232374
24	0xbe66cec8	-0.22539818
25	0xbe630022	-0.2216802
26	0xc04df680	-3.2181702
27	0x3d7c2225	0.061556
28	0x40548bb9	3.321028
29	0xc0297269	-2.647608
30	0xbe222def	-0.15837835
31	0x4058c422	3.386971

layer3.weight f4 [32, 32]
0	0xbda7e059	-0.08197088
1	0x3c93b767	0.018031789
2	0x3a57f064	0.000823742
3	0xbe3a5982	-0.18198207
4	0x3dae1ece	0.08501969
5	0x3c7b79a0	0.015348822
6	0xbda9c376	-0.08289234
7	0xbe66309d	-0.22479482
8	0xbd7fb1ec	-0.06242554
9	0x3cfa9f97	0.030593676
10	0xbe2dbe50	-0.1696713
11	0xbe1143ba	-0.14185992
12	0xbe214a43	-0.15750985
13	0x3d07ea74	0.033182576
14	0xbdea9c00	-0.11455536
15	0xbd683d83	-0.056699287
16	0xbbdee920	-0.006802693
17	0xbc979905	-0.018505583
18	0xbbaa9df6	-0.0052068187
19	0xbe048df2	-0.12944773
20	0xbe57041f	-0.20997666
21	0xbe65dccf	-0.22447513
22	0xbdec54ba	-0.11539598
23	0x3d901306	0.070348784
24	0xbe01c715	-0.126736
25	0x3e258f57	0.16167961
26	0xbdc51295	-0.09622685
27	0xbd6dfd99	-0.058103178
28	0x3b8b806d	0.004257253
29	0xbdf2d0d1	-0.11856235
30	0xbdc3c3f9	-0.09558863
31	0x3de98cd1	0.11403812
32	0x3e12af92	0.14324787
33	0x3ff31122	1.8989604
34	0x3fb67629	1.425481
35	0xbe48cfb1	-0.19610478
36	0xbd78c2f6	-0.060732804
37	0xbdc39dad	-0.09551559
38	0x3db560e4	0.08856371
39	0x3f524538	0.8213687
40	0x3fc103a8	1.5079241
41	0x3fb89683	1.4420933
42	0xbcf9900a	-0.030464191
43	0x3db51493	0.08841815
44	0x3f28e2e8	0.6597123
45	0x3d7114e8	0.05885783
46	0xbdef263c	-0.116772145
47	0x3fc9362c	1.5719657
48	0x3f440ea7	0.7658486
49	0x3f53b396	0.826959
50	0x3ff1856d	1.8868843
51	0x3cd468b9	0.025928842
52	0x3ffa72b8	1.9566259
53	0x3f7271de	0.94705
54	0xbe5177dc	-0.20455879
55	0x3d2a66b4	0.04160185
56	0x3e076d1c	0.13225216
57	0xbe30fa6c	-0.17283028
58	0xbea5dc86	-0.3239481
59	0x3dc55e37	0.09637111
60	0x3f07546f	0.5286321
61	0x3ecd6017	0.40112373
62	0xbdf6b077	-0.12045377
63	0x3f8b68a0	1.0891304
64	0xbd8b341d	-0.06797049
65	0xbd293cec	-0.041317865
66	0x3cb4e73d	0.02208292
67	0xbe3a3329	-0.18183579
68	0x3e29eb4b	0.16593663
69	0xbe138202	-0.14405063
70	0xbcaaef28	-0.020865992
71	0xbdaf5c46	-0.08562522
72	0xbe6da5cf	-0.23207782
73	0xbe52631c	-0.2054562
74	0xbe29d53d	-0.1658525
75	0xbde3927e	-0.111119255
76	0xbe0f0267	-0.1396576
77	0x3e18db75	0.14927466
78	0x3d3286e4	0.043585673
79	0xbe0577a8	-0.13033926
80	0x3dc6c182	0.097048774
81	0xbd1db7c5	-0.038505334
82	0x3d7c9b1a	0.061671354
83	0x3df25352	0.11832298
84	0xbe4bdf65	-0.19909437
85	0xbe3b845b	-0.18312208
86	0x3e218e0b	0.15776841
87	0xbde8145f	-0.113320105
88	0xbe237808	-0.15963757
89	0xbdf9643e	-0.12177323
90	0x3d2d000c	0.042236373
91	0x3c87ad9b	0.016562274
92	0xbe673112	-0.22577313
93	0xbe8b25ab	-0.27177176
94	0x3d93a83a	0.07209821
95	0xbe1d60b6	-0.15368924
96	0xbe3fc0fa	-0.18725958
97	0xbfa4675b	-1.2844042
98	0xbffed393	-1.9908317
99	0x3e6624b6	0.22474942
100	0x3e330fa7	0.1748644
101	0x3e2980bb	0.16553013
102	0x3dba8a02	0.09108354
103	0xc01e8a8c	-2.4772062
104	0xbfd0b10f	-1.6304034
105	0xc017afab	-2.370097
106	0x3e4c1d83	0.19933133
107	0xbe0fc2b8	-0.14039123
108	0x3e24b42b	0.16084354
109	0xbdecca1d	-0.115619875
110	0xbd15a15c	-0.036530837
111	0xbffacc06	-1.9593513
112	0x3f3b131c	0.73076034
113	0x3e473bf2	0.19456461
114	0xbfea9896	-1.8327816
115	0xbd7b77c3	-0.06139351
116	0xc08ae930	-4.3409653
117	0xc0090783	-2.1410835
118	0x3e26cdc7	0.16289435
119	0xbdbfa4dc	-0.09357616
120	0xbe19a101	-0.15002824
121	0x3e9fcc54	0.31210577
122	0x3d3aaacc	0.04557304
123	0xbe30a34e	-0.17249796
124	0x3e0beecf	0.13665317
125	0x3f0561c4	0.52102304
126	0x3df21fba	0.118224576
127	0xc00e525c	-2.2237768
128	0x3e20e317	0.15711628
129	0x400309f6	2.047483
130	0x3fd8130f	1.6880816
131	0xbe0eabea	-0.13932768
132	0x3d0c5e30	0.03426951
133	0xbdec82e6	-0.115484044
134	0x3e5be5a9	0.21474327
135	0x3fcb0b0d	1.5862747
136	0x3ff0a9b1	1.8801786
137	0x400066db	2.0062778
138	0xbc510496	-0.012757441
139	0x3d175d2c	0.03695409
140	0x3f45d4c4	0.7727778
141	0xbcb03a4d	-0.021512175
142	0x3d176e50	0.036970437
143	0x3fd4c5ef	1.6622905
144	0x3f081028	0.5314965
145	0x3f8a5e93	1.0810112
146	0x400a32cb	2.1593502
147	0x3de9a692	0.11408724
148	0x4017429f	2.3634412
149	0x3fa2bca3	1.2713817
150	0xbd9b21d1	-0.07574809
151	0xbcb6dba8	-0.022321537
152	0x3dfe525b	0.12418052
153	0xbea35bce	-0.3190598
154	0xbe9f1207	-0.3106844
155	0x3d5f71d7	0.054551926
156	0x3f46878f	0.77550596
157	0x3eeec4cf	0.46634528
158	0xbe32acae	-0.17448685
159	0x3fa70d1c	1.3050876
160	0xbdd42016	-0.103576824
161	0x3c28fadc	0.010313716
162	0xbe464ddc	-0.19365638
163	0x3d67e508	0.056614906
164	0x3d589908	0.052880317
165	0xbda8ff4a	-0.082518175
166	0xbe439ce5	-0.1910282
167	0xbd679b15	-0.056544382
168	0xbc212510	-0.009835497
169	0xbe5b1760	-0.21395636
170	0xbc64ad64	-0.013957355
171	0x3d2144de	0.039372317
172	0xbc9b381c	-0.018947653
173	0xbe2c4917	-0.16824757
174	0xbdda8b70	-0.10671127
175	0xbe421f16	-0.18957171
176	0xbdd51f88	-0.10406405
177	0xbd0e915c	-0.034806594
178	0xbce2e9d5	-0.02769939
179	0x3e11fb15	0.14255936
180	0x3cdbdb7c	0.026838057
181	0x3c1329f8	0.008982174
182	0x3e485705	0.19564445
183	0x3ddf4d42	0.10903408
184	0xbe027182	-0.12738612
185	0xbddc54a3	-0.10758331
186	0xbdad3734	-0.08457795
187	0xbe24e51b	-0.16103022
188	0xbdd19d88	-0.10235125
189	0xbdb8dfba	-0.090270475
190	0xbdcbddd4	-0.0995442
191	0xbe374357	-0.17896782
192	0x3db9ced2	0.09072651
193	0xbdcf9351	-0.1013552
194	0xbcbeac1e	-0.023275431
195	0xbc79c692	-0.015245097
196	0xbe0cadb6	-0.1373814
197	0xbd2cac94	-0.04215677
198	0x3d9f1a3a	0.07768674
199	0x3c2eb1c0	0.010662496
200	0xbdccebf4	-0.10005942
201	0xbdbe8d41	-0.09304286
202	0xbe5b4f12	-0.21416882
203	0xbe05750d	-0.13032933
204	0x3ce08558	0.027407333
205	0xbe268b02	-0.16263965
206	0x3cb7c050	0.022430569
207	0x3d948ab1	0.07253016
208	0xbdce6480	-0.100777626
209	0xbdd383dc	-0.103278846
210	0xbdde77a6	-0.10862665
211	0x3d9511ae	0.07278763
212	0x3dceaa46	0.10091071
213	0xbe0ba3fe	-0.13636777
214	0x3dbda63a	0.09260221
215	0xbe331042	-0.1748667
216	0xbc8f8720	-0.017520487
217	0x3e2c46cb	0.1682388
218	0xbdc7f713	-0.097639225
219	0xbdc646c6	-0.09681468
220	0xbe3316bb	-0.1748914
221	0xbdd9fbba	-0.10643716
222	0xbde2c769	-0.11073191
223	0xbe061d54	-0.13097125
224	0xbcd9fb10	-0.026608974
225	0xbcd39ae8	-0.025830701
226	0x3d843f60	0.064574
227	0xbebfcf8e	-0.3746304
228	0x3e321caf	0.17393754
229	0x3cf0a250	0.029374272
230	0xbe2dc6b7	-0.16970335
231	0xbd6c4809	-0.057685886
232	0xbe42459c	-0.18971866
233	0xbd87bc14	-0.0662767
234	0x3dd1d8e2	0.10246445
235	0xbdaa6d18	-0.08321589
236	0xbeacf8d4	-0.3378359
237	0x3db3107a	0.08743377
238	0xbdca12d9	-0.09866876
239	0xbd60aef8	-0.054854363
240	0xbe8d4d25	-0.2759792
241	0xbe9c335a	-0.30507928
242	0xbdd2d477	-0.10294431
243	0xbdf6894a	-0.120379046
244	0xbd902734	-0.070387274
245	0x3d232a24	0.03983511
246	0x3d86fd48	0.06591278
247	0x3d4f6cb8	0.05064079
248	0xbc696980	-0.014246345
249	0xbddc4ca3	-0.10756805
250	0xbe20e7b6	-0.1571339
251	0xbe3c3c80	-0.18382454
252	0xbeac0a47	-0.3360159
253	0xbe14a583	-0.14516263
254	0x3daeb606	0.08530812
255	0xbe84312d	-0.25818768

layer3.bias f4 [32]
0	0xbe32dc5a	-0.1746687
1	0x3fb87567	1.4410828
2	0xbd359d4c	-0.044339463
3	0xbf8fe9ea	-1.124326
4	0x401b5314	2.4269457
5	0x3ceb39da	0.02871411
6	0xbcb17757	-0.021663351
7	0xbe8a69aa	-0.2703374
8	0xbfd115e1	-1.6334802
9	0xbf9bd065	-1.2172972
10	0x3f96627c	1.1748805
11	0xc002a7e8	-2.0414982
12	0x4008512b	2.129954
13	0xbfba6fef	-1.456541
14	0xc0115a32	-2.27113
15	0xbdb9e079	-0.09076018
16	0xbfc21273	-1.516188
17	0xbfa495a0	-1.2858162
18	0xbdaf7862	-0.08567883
19	0x40061470	2.0949974
20	0xbe1cd098	-0.15313947
21	0x3c572c2f	0.013133093
22	0xbfc9a8c4	-1.5754628
23	0xbd86e7ce	-0.06587182
24	0x3f85814f	1.0430087
25	0xbfb09323	-1.3794903
26	0x3fdbbb86	1.7166603
27	0xbc6d765e	-0.014493553
28	0x3dc51d41	0.0962472
29	0x3e191b5f	0.14951847
30	0xbf580f2b	-0.84398144
31	0xc0058256	-2.08608

output_layer.weight f4 [1, 32]
0	0x3d2bece3	0.04197396
1	0x3f9f294b	1.2434477
2	0xbcc120f1	-0.023575278
3	0xbffc150a	-1.9693921
4	0x3f98f849	1.1950771
5	0x3b4f1ff5	0.0031604741
6	0x3d364ecb	0.044508737
7	0x3d9d6344	0.07684949
8	0xc0162c71	-2.3464625
9	0xc0047156	-2.0694175
10	0x3fa1a1d9	1.2627517
11	0xc026a0d7	-2.603567
12	0x3f9e11b2	1.234915
13	0xbf95931a	-1.1685517
14	0xc017e5c3	-2.3733985
15	0x3d241c6b	0.040066164
16	0xc01f479e	-2.4887462
17	0xc0355c1f	-2.8337476
18	0x3c98fae0	0.018674314
19	0x3f9bf865	1.2185179
20	0xbd2fcfc5	-0.042922754
21	0xbda51ecf	-0.08062517
22	0xc02f2652	-2.736714
23	0x3c30a841	0.010782302
24	0x3f91c0a2	1.1386912
25	0xbf668880	-0.9005203
26	0x3f9d5bb4	1.229361
27	0xbd357d64	-0.044309035
28	0xbc8f5558	-0.01749675
29	0x3e16f9a5	0.1474367
30	0xc00862f7	-2.1310403
31	0xc01e9ab5	-2.4781926

exp_avg f4 [32, 6]
0	0xbd7bc224	-0.061464444
1	0xbc8d2ed2	-0.01723424
2	0x39a34679	0.0003114229
3	0x3b1d198f	0.0023971533
4	0xbc3b58d7	-0.011434755
5	0xb9a07e87	-0.00030611848
6	0xbca5695d	-0.020191843
7	0xbc06a75c	-0.0082186125
8	0x3941c7a5	0.00018480288
9	0x3b654018	0.003498083
10	0xbbaa8da4	-0.005204873
11	0xb90c7ba8	-0.00013397506
12	0xbccaeaa6	-0.024770092
13	0xbc3f84d7	-0.011689386
14	0x380fb74e	3.4264573e-05
15	0xbab87998	-0.0014074324
16	0xbbc6e9d9	-0.0060703573
17	0xb8b72e8f	-8.734792e-05
18	0xbc9502c5	-0.018189797
19	0xbca3c0c7	-0.019989384
20	0x39984244	0.0002904107
21	0x3b8e4af8	0.004342433
22	0xbc3bb9ad	-0.011457843
23	0xb9fd7c07	-0.00048348328
24	0xbb22ad36	-0.002482248
25	0xbae9c55a	-0.0017835305
26	0xb763a294	-1.35681075e-05
27	0x379c65d6	1.864407e-05
28	0xba172f29	-0.000576722
29	0x380c72e2	3.3485594e-05
30	0x3c860c12	0.016363177
31	0x3c53409c	0.012893822
32	0xb9998f87	-0.0002928937
33	0xba96d8b3	-0.0011508673
34	0x3bbfb1a4	0.005850034
35	0x398fbfbf	0.00027417947
36	0xb91732d0	-0.00014419411
37	0xb95ab698	-0.00020858122
38	0x33b1e288	8.2834106e-08
39	0x31d20b85	6.113114e-09
40	0xb84e50b1	-4.9189377e-05
41	0x31d20f9d	6.1135794e-09
42	0xbc356ff6	-0.011074057
43	0xbb983de0	-0.004646048
44	0x390eea85	0.0001362954
45	0x3ad20352	0.0016022718
46	0xbb3b894a	-0.0028615766
47	0xb8c3bf08	-9.333907e-05
48	0x3cca46e5	0.024692008
49	0x3c005ece	0.007835103
50	0xb9683a20	-0.00022146897
51	0xbaae35c3	-0.0013291169
52	0x3b6920fe	0.0035572643
53	0x39311f86	0.00016891779
54	0x00000004	6e-45
55	0x00000004	6e-45
56	0x00000000	0.0
57	0x00000004	6e-45
58	0x00000004	6e-45
59	0x00000000	0.0
60	0x00000000	0.0
61	0x00000000	0.0
62	0x00000000	0.0
63	0x00000000	0.0
64	0x00000000	0.0
65	0x00000000	0.0
66	0x3daee974	0.085406214
67	0x3cc8b7f3	0.024501776
68	0xb98e4ae0	-0.00027140137
69	0x3a19484a	0.0005847259
70	0x3c775398	0.015095614
71	0x39aee821	0.00033360816
72	0xbcd4d52d	-0.025980556
73	0xbc1c7a09	-0.00955058
74	0x399ea9cd	0.0003026262
75	0x3b6d0e6c	0.0036171926
76	0xbbb153e1	-0.0054116105
77	0xb9712fc4	-0.00023001345
78	0x00000004	6e-45
79	0x00000004	6e-45
80	0x00000000	0.0
81	0x00000004	6e-45
82	0x00000004	6e-45
83	0x00000000	0.0
84	0x00000000	0.0
85	0x00000000	0.0
86	0x00000000	0.0
87	0x00000000	0.0
88	0x00000000	0.0
89	0x00000000	0.0
90	0xbd2b575c	-0.04183136
91	0xbc2c1305	-0.0105025815
92	0x3937d88e	0.00017532913
93	0x392afd0c	0.0001630673
94	0xbbe10971	-0.0068675806
95	0xb94452ba	-0.00018722835
96	0xbd756d1e	-0.059918515
97	0xbcaaab77	-0.020833714
98	0x39ef2fd2	0.0004562126
99	0x3bc06b63	0.0058721765
100	0xbc457fb5	-0.0120543735
101	0xb9d137f8	-0.00039905286
102	0x060451a9	2.4886435e-35
103	0x063dbd9e	3.5686258e-35
104	0x00000004	6e-45
105	0x031fc811	4.6955565e-37
106	0x053dbd9e	8.9215645e-36
107	0x00000004	6e-45
108	0xbc3c1ee6	-0.011481976
109	0xbcbb197e	-0.022839304
110	0x399d70b1	0.00030029335
111	0x3bfb377f	0.0076665278
112	0xbc703922	-0.014662059
113	0xba0a1e52	-0.00052688003
114	0x00000000	0.0
115	0x00000000	0.0
116	0x00000000	0.0
117	0x00000000	0.0
118	0x00000000	0.0
119	0x00000000	0.0
120	0x3d8962a1	0.06708265
121	0x3c79eac0	0.015253723
122	0x38136ddf	3.5149857e-05
123	0x3c09fb58	0.008421741
124	0x3bf100b9	0.0073548225
125	0x38ad734f	8.270761e-05
126	0xbc28f97e	-0.01031339
127	0xbbad7cdc	-0.0052944254
128	0x3947aa0c	0.00019041466
129	0x3b47e429	0.0030500984
130	0xbb52d9e1	-0.0032173323
131	0xb9134d50	-0.00014047814
132	0xbdb3d852	-0.08781494
133	0xbbe77cd1	-0.00706444
134	0xb9f9d1a8	-0.00047649187
135	0xbc7569b4	-0.014978815
136	0xbc15c483	-0.00914109
137	0xb909ad87	-0.00013129982
138	0xbc29471e	-0.010331897
139	0x3c59a58c	0.013284098
140	0xb985d3bd	-0.00025525494
141	0xbb23b3a7	-0.0024978907
142	0x3b2546e9	0.0025219268
143	0x39a5b060	0.00031602662
144	0xbbe3bef0	-0.0069502518
145	0x3b6d0996	0.0036169044
146	0xb92d0bb4	-0.00016502925
147	0xbb2da7d9	-0.002649775
148	0x3a80d3c7	0.000982874
149	0x3935c75a	0.0001733577
150	0x3d1b9c4d	0.037990857
151	0x3d320070	0.04345745
152	0xba6c588f	-0.0009015882
153	0xbbc5dd10	-0.0060383156
154	0x3cb1a3fd	0.021684641
155	0x3a684902	0.00088609767
156	0x3cc0ad5b	0.023520162
157	0x3c13e2d6	0.00902625
158	0x37eda1d3	2.8327957e-05
159	0x3b8a54a0	0.004221514
160	0x3bb6d95d	0.005580111
161	0x398acb47	0.00026472865
162	0xbc29be26	-0.010360276
163	0xbb0b8da4	-0.0021294141
164	0x37690774	1.3889618e-05
165	0x365b1a9e	3.2649036e-06
166	0xba4dfeea	-0.00078581145
167	0x3881e1f8	6.193289e-05
168	0x3d0b629d	0.03402959
169	0x3c33b727	0.01096896
170	0xb9bba576	-0.00035790697
171	0x3a08692d	0.00052036607
172	0x3ba21cfc	0.004947303
173	0x39ea10e9	0.00044644557
174	0xbc9ad762	-0.01890153
175	0xbc448f4b	-0.011997054
176	0x395d2815	0.00021091134
177	0x3a444958	0.0007487736
178	0xbbf6016f	-0.007507495
179	0xb966f4aa	-0.00022025654
180	0x00000000	0.0
181	0x00000000	0.0
182	0x00000000	0.0
183	0x00000000	0.0
184	0x00000000	0.0
185	0x00000000	0.0
186	0xbb1f4f0e	-0.0024308595
187	0xbc49bfe5	-0.012313818
188	0x39870c87	0.0002575854
189	0x3b5c0b1b	0.0033575955
190	0xbbfea473	-0.0077710687
191	0xb96c1a23	-0.0002251645

exp_avg_sq f4 [32, 6]
0	0x3d08593e	0.033288233
1	0x3a8405fd	0.0010072585
2	0x3640aad9	2.8709676e-06
3	0x39bdd213	0.00036205407
4	0x3a93698b	0.0011246664
5	0x35eb5d1f	1.7535966e-06
6	0x3c1b1540	0.009465516
7	0x39948d81	0.00028334188
8	0x355a25d8	8.12664e-07
9	0x38cced8a	9.771723e-05
10	0x39a05b84	0.00030585763
11	0x34f780b3	4.6100976e-07
12	0x3b06b037	0.002055181
13	0x39f6fecd	0.00047110618
14	0x3439149b	1.7236964e-07
15	0x3737dbd0	1.0958829e-05
16	0x3950e8ce	0.00019923152
17	0x3428b516	1.5712098e-07
18	0x3d897bbc	0.067130536
19	0x3ae1251b	0.0017177196
20	0x36bb1b74	5.5762303e-06
21	0x3a871c7f	0.0010308175
22	0x3af0bafb	0.0018366271
23	0x36863c1f	4.00051e-06
24	0x3a844879	0.0010092399
25	0x383a491b	4.441394e-05
26	0x33459a73	4.6008108e-08
27	0x37578fdc	1.28484935e-05
28	0x37bbc231	2.2382565e-05
29	0x331aff37	3.6088036e-08
30	0x3cc10760	0.023563087
31	0x3a3ab3de	0.0007122139
32	0x36038dfd	1.960317e-06
33	0x39a14f40	0.0003076736
34	0x3a33fc44	0.00068658986
35	0x35b08e5e	1.3154456e-06
36	0x379e8bf0	1.8900231e-05
37	0x37aedade	2.0844334e-05
38	0x30ba8f0c	1.3573938e-09
39	0x334e9444	4.809796e-08
40	0x35966d5b	1.1207698e-06
41	0x30e999e2	1.6996717e-09
42	0x3b83deb4	0.004024351
43	0x38d9b635	0.00010381305
44	0x34ad3235	3.2260292e-07
45	0x3833ffaa	4.291503e-05
46	0x390069de	0.0001224647
47	0x34570fd2	2.0029191e-07
48	0x3c458839	0.012056404
49	0x399383f4	0.00028136338
50	0x356dc86c	8.858103e-07
51	0x39342d80	0.00017183088
52	0x39802fa3	0.00024449555
53	0x3521bb5b	6.024981e-07
54	0x15961b47	6.0627554e-26
55	0x1254e4c9	6.7177404e-28
56	0x00000000	0.0
57	0x12ef816f	1.5114928e-27
58	0x15961b47	6.0627554e-26
59	0x00000000	0.0
60	0x00000000	0.0
61	0x00000000	0.0
62	0x00000000	0.0
63	0x00000000	0.0
64	0x00000000	0.0
65	0x00000000	0.0
66	0x3d5b1f75	0.053496797
67	0x3aca8405	0.0015450722
68	0x364077e8	2.8680024e-06
69	0x3a48d79a	0.00076615217
70	0x3a473a96	0.00075999775
71	0x362cfe10	2.577788e-06
72	0x3cb685b2	0.022280548
73	0x39f3e679	0.00046520287
74	0x35fdcc0e	1.8909357e-06
75	0x398f8026	0.00027370563
76	0x3a24c09f	0.00062848063
77	0x35a17608	1.2029786e-06
78	0x1dacc6dc	4.5733637e-21
79	0x1aa4c351	6.814436e-23
80	0x00000000	0.0
81	0x1d2e73b3	2.3088523e-21
82	0x1c02e01e	4.3303057e-22
83	0x00000000	0.0
84	0x00000000	0.0
85	0x00000000	0.0
86	0x00000000	0.0
87	0x00000000	0.0
88	0x00000000	0.0
89	0x00000000	0.0
90	0x3c4a60a3	0.012352142
91	0x39c14c52	0.00036868692
92	0x357fca83	9.5289596e-07
93	0x39178880	0.00014451332
94	0x39c1d586	0.00036970916
95	0x35305e1a	6.5702045e-07
96	0x3d7904df	0.06079566
97	0x3ad8d18f	0.0016541946
98	0x36b09b29	5.2632718e-06
99	0x3a346390	0.0006881291
100	0x3af71865	0.0018851875
101	0x3653dc47	3.1569668e-06
102	0x37aeef19	2.0853755e-05
103	0x3797583b	1.8041688e-05
104	0x30dfb626	1.6277155e-09
105	0x332856e3	3.919457e-08
106	0x363c21f6	2.803395e-06
107	0x3126af46	2.425581e-09
108	0x3d9f7ee3	0.077878736
109	0x3b1544d2	0.0022776616
110	0x36eace7a	6.9977805e-06
111	0x3a8b4b86	0.0010627366
112	0x3b20c0a1	0.0024528878
113	0x36979c11	4.518319e-06
114	0x00000000	0.0
115	0x00000000	0.0
116	0x00000000	0.0
117	0x00000000	0.0
118	0x00000000	0.0
119	0x00000000	0.0
120	0x3c95a68e	0.018267896
121	0x3a41ae91	0.0007388378
122	0x352fa83b	6.543739e-07
123	0x397cad22	0.0002409709
124	0x3977df38	0.00023638911
125	0x3577dda7	9.2337217e-07
126	0x3c0716af	0.008245154
127	0x3922c91a	0.0001552444
128	0x353d206a	7.0455155e-07
129	0x38dfb37e	0.00010666902
130	0x3973d15a	0.00023252275
131	0x34e558b6	4.271912e-07
132	0x3d4fd65e	0.050741546
133	0x39ff635a	0.00048711413
134	0x361866d4	2.2709619e-06
135	0x39e14d97	0.00042973153
136	0x3a21b80e	0.0006169089
137	0x35de0994	1.6543077e-06
138	0x3d09bae9	0.033625517
139	0x3a6df166	0.00090768037
140	0x3648181b	2.9816354e-06
141	0x39cf81b6	0.0003957876
142	0x3a8d44ff	0.0010778009
143	0x3608a87a	2.0363645e-06
144	0x3bd9fe0d	0.0066525997
145	0x38d336ab	0.00010071447
146	0x3521b125	6.0234953e-07
147	0x38c5d1c6	9.4327654e-05
148	0x3927e02d	0.00016009873
149	0x34c0a457	3.588236e-07
150	0x3e8fa14f	0.28052756
151	0x3c0da47f	0.008645176
152	0x37bdc151	2.2620576e-05
153	0x3b821677	0.003969963
154	0x3bffc1c9	0.0078050834
155	0x3785ad41	1.5935513e-05
156	0x3d22ab73	0.039714288
157	0x3a9fbd12	0.0012187085
158	0x360c2035	2.0880373e-06
159	0x3a21d12a	0.00061728305
160	0x3a6dd663	0.00090727786
161	0x361504b4	2.2205468e-06
162	0x3bd59e73	0.0065191328
163	0x39418f45	0.00018459286
164	0x332f2b31	4.0784645e-08
165	0x38417708	4.6125642e-05
166	0x384d3ad7	4.8930608e-05
167	0x3477167d	2.3011849e-07
168	0x3d5b0ce0	0.053479075
169	0x3a0f03bd	0.0005455574
170	0x3621c4b0	2.4105357e-06
171	0x3ab5b67a	0.0013863586
172	0x3a397de1	0.00070759474
173	0x35f7ceb4	1.8463093e-06
174	0x3c6ef566	0.014584875
175	0x3a0127d3	0.0004926894
176	0x359cc10e	1.1679092e-06
177	0x394aabd7	0.00019328237
178	0x39ea6ebb	0.0004471446
179	0x355fe7e5	8.3411425e-07
180	0x00000000	0.0
181	0x00000000	0.0
182	0x00000000	0.0
183	0x00000000	0.0
184	0x00000000	0.0
185	0x00000000	0.0
186	0x3c9b4207	0.018952383
187	0x3a1adaf9	0.0005907263
188	0x35e9e118	1.7425364e-06
189	0x396aea7e	0.00022403334
190	0x3a26a6b1	0.00063572364
191	0x358fd90b	1.0717498e-06

exp_avg f4 [32]
0	0xba8212c9	-0.0009923811
1	0xb9e12683	-0.00042944038
2	0xb9b8a958	-0.00035221386
3	0xba529d34	-0.00080342893
4	0xb72f9f84	-1.0467953e-05
5	0x39ea7e89	0.00044726234
6	0xb631735f	-2.644221e-06
7	0xb97af4f3	-0.00023933109
8	0x39b1c583	0.00033907228
9	0x00000004	6e-45
10	0x00000000	0.0
11	0x3aa4fe15	0.0012587929
12	0xba02161d	-0.00049624016
13	0x00000004	6e-45
14	0x00000000	0.0
15	0xba2331f9	-0.0006225403
16	0xba8a3f51	-0.0010547434
17	0x031fc811	4.6955565e-37
18	0xba760600	-0.00093850493
19	0x00000000	0.0
20	0x3a24bbe7	0.0006284103
21	0xb98f979b	-0.0002738804
22	0xba591620	-0.000828119
23	0x39223764	0.00015470159
24	0x3871f92d	5.769094e-05
25	0x3ac8fe0a	0.0015334499
26	0x39ce4d93	0.0003934918
27	0xb8820d6a	-6.2013816e-05
28	0x39ff951b	0.00048748482
29	0xba0de7a5	-0.0005413241
30	0x00000000	0.0
31	0xba015e90	-0.00049350504

exp_avg_sq f4 [32]
0	0x36aa3ae2	5.0732497e-06
1	0x35bd3348	1.4096522e-06
2	0x353be8ce	7.0001704e-07
3	0x371717bc	9.005827e-06
4	0x34009d33	1.1978118e-07
5	0x3659e4be	3.2468665e-06
6	0x3184878c	3.8571155e-09
7	0x3519fcb7	5.736469e-07
8	0x35b5e7c4	1.3553004e-06
9	0x1154e4c9	1.6794351e-28
10	0x00000000	0.0
11	0x369f37fa	4.745086e-06
12	0x364a2e39	3.012725e-06
13	0x17c56a34	1.2757636e-24
14	0x00000000	0.0
15	0x35e72d0b	1.722395e-06
16	0x3713003e	8.761939e-06
17	0x32176103	8.811415e-09
18	0x3742e191	1.161582e-05
19	0x00000000	0.0
20	0x35d5fdad	1.5943566e-06
21	0x35977c9c	1.1286643e-06
22	0x3687a7a0	4.0428276e-06
23	0x36a93d29	5.0437125e-06
24	0x35661631	8.571397e-07
25	0x381cd003	3.7387024e-05
26	0x36a39125	4.8746756e-06
27	0x34e14bfa	4.1964796e-07
28	0x3698786b	4.5439715e-06
29	0x360c309a	2.0889916e-06
30	0x00000000	0.0
31	0x3642a69e	2.9005237e-06

exp_avg f4 [32, 32]
0	0x00000004	6e-45
1	0x00000004	6e-45
2	0x00000000	0.0
3	0x00000004	6e-45
4	0x00000000	0.0
5	0x00000004	6e-45
6	0x00000000	0.0
7	0x00000004	6e-45
8	0x00000004	6e-45
9	0x00000000	0.0
10	0x00000000	0.0
11	0x00000004	6e-45
12	0x00000004	6e-45
13	0x00000000	0.0
14	0x00000000	0.0
15	0x00000004	6e-45
16	0x00000004	6e-45
17	0x00000000	0.0
18	0x00000004	6e-45
19	0x00000000	0.0
20	0x00000004	6e-45
21	0x00000004	6e-45
22	0x00000000	0.0
23	0x00000004	6e-45
24	0x00000004	6e-45
25	0x00000004	6e-45
26	0x00000004	6e-45
27	0x00000000	0.0
28	0x00000004	6e-45
29	0x00000004	6e-45
30	0x00000000	0.0
31	0x00000004	6e-45
32	0xbb0145ed	-0.0019725517
33	0xbb001452	-0.0019543362
34	0xb9950e43	-0.0002843012
35	0xbad4244f	-0.0016185137
36	0xba39322a	-0.0007064665
37	0xb980e590	-0.000245851
38	0x80000004	-6e-45
39	0xbab87d59	-0.0014075442
40	0xb54890f2	-7.471673e-07
41	0x00000000	0.0
42	0x00000000	0.0
43	0xb95e0329	-0.00021172747
44	0xbaa85b83	-0.0012844655
45	0x00000004	6e-45
46	0x00000000	0.0
47	0xbb069bb0	-0.0020539574
48	0xbabc46fe	-0.0014364419
49	0x80000004	-6e-45
50	0xba82e487	-0.0009986319
51	0x00000000	0.0
52	0xb7dd0b65	-2.6350559e-05
53	0xba9b584d	-0.0011851877
54	0xbb2b5f94	-0.0026149498
55	0xba470cce	-0.00075931556
56	0xba39d355	-0.0007088681
57	0x3a905153	0.0011010565
58	0xb820f58a	-3.837565e-05
59	0xba6753b5	-0.0008824424
60	0xbb84b96d	-0.004050425
61	0xbadfe610	-0.0017082114
62	0x00000000	0.0
63	0xba940491	-0.0011292865
64	0x38dff892	0.000106797685
65	0x38eb18eb	0.000112103146
66	0x388a54b4	6.59613e-05
67	0x38db6223	0.00010461013
68	0x39290e1e	0.00016122355
69	0x3772ce85	1.4472408e-05
70	0x80000004	-6e-45
71	0x37c57e56	2.354306e-05
72	0xae7ed781	-5.794432e-11
73	0x80000004	-6e-45
74	0x00000000	0.0
75	0xb36f0ed5	-5.5660013e-08
76	0x37a23fc9	1.9341607e-05
77	0x00000004	6e-45
78	0x00000000	0.0
79	0x38daec30	0.000104390434
80	0x38b8a24e	8.804035e-05
81	0x80000004	-6e-45
82	0x38e76433	0.00011033602
83	0x00000000	0.0
84	0x8224d445	-1.2109735e-37
85	0xb7140471	-8.8225215e-06
86	0x3884d87a	6.3345724e-05
87	0x37b7663e	2.186291e-05
88	0x39062427	0.00012792704
89	0x386e8ed6	5.6876648e-05
90	0x18a56881	4.2757022e-24
91	0xb50e4f1c	-5.301424e-07
92	0x38d13885	9.976424e-05
93	0x38f828d2	0.00011833165
94	0x00000000	0.0
95	0x38bdbfe3	9.047964e-05
96	0x3ab2b0dd	0.0013633032
97	0x3a8874da	0.0010410801
98	0x39970457	0.00028804198
99	0x3a999238	0.001171655
100	0x39e065a5	0.0004280034
101	0x3ac7a4be	0.0015231592
102	0xb6b6eb86	-5.451441e-06
103	0x3a00ca5e	0.00049129676
104	0x3a5fe887	0.0008541424
105	0x00000004	6e-45
106	0x00000000	0.0
107	0x3acc95be	0.0015608591
108	0x3a9c1e94	0.0011910968
109	0x80000004	-6e-45
110	0x00000000	0.0
111	0x3a828081	0.000995651
112	0x3a915926	0.001108919
113	0x00c09da6	1.7688969e-38
114	0x3a188320	0.0005817879
115	0x00000000	0.0
116	0x3a2e829a	0.00066570344
117	0x3abd13d6	0.0014425467
118	0x37e041e8	2.673357e-05
119	0x3a4a810b	0.00077249174
120	0x3a4646d7	0.00075636565
121	0x3b1a756c	0.0023568524
122	0x3915c1bb	0.00014281918
123	0x3a6ca9b6	0.00090279744
124	0x3b43afd8	0.002985945
125	0x3a56b3c9	0.0008190242
126	0x00000000	0.0
127	0x3a173b79	0.0005769055
128	0x00000000	0.0
129	0x00000000	0.0
130	0x00000000	0.0
131	0x00000000	0.0
132	0x00000000	0.0
133	0x00000000	0.0
134	0x00000000	0.0
135	0x00000000	0.0
136	0x00000000	0.0
137	0x00000000	0.0
138	0x00000000	0.0
139	0x00000000	0.0
140	0x00000000	0.0
141	0x00000000	0.0
142	0x00000000	0.0
143	0x00000000	0.0
144	0x00000000	0.0
145	0x00000000	0.0
146	0x00000000	0.0
147	0x00000000	0.0
148	0x00000000	0.0
149	0x00000000	0.0
150	0x00000000	0.0
151	0x00000000	0.0
152	0x00000000	0.0
153	0x00000000	0.0
154	0x00000000	0.0
155	0x00000000	0.0
156	0x00000000	0.0
157	0x00000000	0.0
158	0x00000000	0.0
159	0x00000000	0.0
160	0x00000000	0.0
161	0x00000000	0.0
162	0x00000000	0.0
163	0x00000000	0.0
164	0x00000000	0.0
165	0x00000000	0.0
166	0x00000000	0.0
167	0x00000000	0.0
168	0x00000000	0.0
169	0x00000000	0.0
170	0x00000000	0.0
171	0x00000000	0.0
172	0x00000000	0.0
173	0x00000000	0.0
174	0x00000000	0.0
175	0x00000000	0.0
176	0x00000000	0.0
177	0x00000000	0.0
178	0x00000000	0.0
179	0x00000000	0.0
180	0x00000000	0.0
181	0x00000000	0.0
182	0x00000000	0.0
183	0x00000000	0.0
184	0x00000000	0.0
185	0x00000000	0.0
186	0x00000000	0.0
187	0x00000000	0.0
188	0x00000000	0.0
189	0x00000000	0.0
190	0x00000000	0.0
191	0x00000000	0.0
192	0x00000004	6e-45
193	0x00000004	6e-45
194	0x00000000	0.0
195	0x00000004	6e-45
196	0x00000004	6e-45
197	0x00000004	6e-45
198	0x00000004	6e-45
199	0x00000004	6e-45
200	0x00000004	6e-45
201	0x00000000	0.0
202	0x00000000	0.0
203	0x00000004	6e-45
204	0x00000004	6e-45
205	0x00000004	6e-45
206	0x00000000	0.0
207	0x00000004	6e-45
208	0x00000004	6e-45
209	0x00000004	6e-45
210	0x00000004	6e-45
211	0x00000000	0.0
212	0x00000004	6e-45
213	0x00000004	6e-45
214	0x00000004	6e-45
215	0x00000004	6e-45
216	0x00000004	6e-45
217	0x00000004	6e-45
218	0x00000000	0.0
219	0x00000004	6e-45
220	0x00000004	6e-45
221	0x00000004	6e-45
222	0x00000000	0.0
223	0x00000004	6e-45
224	0x3a595a2f	0.00082913315
225	0xba621757	-0.0008624694
226	0xba41ddbc	-0.0007395407
227	0xbb3f3ffc	-0.0029182425
228	0xba8fbae1	-0.0010965728
229	0xbad72bf5	-0.0016416298
230	0x37573d72	1.2829305e-05
231	0xbabff4c2	-0.0014645087
232	0x38aca69d	8.232633e-05
233	0x00000000	0.0
234	0x00000000	0.0
235	0xba8c02e9	-0.001068202
236	0x39a88d0b	0.00032148542
237	0x00000004	6e-45
238	0x00000000	0.0
239	0xbad66d65	-0.0016359506
240	0x3a4e2753	0.0007864136
241	0x823242e9	-1.3096577e-37
242	0xbaa2e8df	-0.001242902
243	0x00000000	0.0
244	0xbaa526fe	-0.0012600122
245	0x38c791d3	9.516221e-05
246	0xbb228b4b	-0.0024802263
247	0xbb1f76b7	-0.0024332234
248	0xba4302dc	-0.0007439086
249	0x3ae9eb8d	0.0017846689
250	0xb91e5545	-0.0001509982
251	0xbb54ce32	-0.0032471535
252	0xbb2e386e	-0.0026583928
253	0xbabdaa15	-0.0014470244
254	0x00000000	0.0
255	0xba47982d	-0.00076139235

exp_avg_sq f4 [32, 32]
0	0x2c018fc3	1.8411806e-12
1	0x2aff0355	4.5299411e-13
2	0x00000000	0.0
3	0x2ae1d431	4.0115266e-13
4	0x00000000	0.0
5	0x2c85e2f3	3.8052838e-12
6	0x00000000	0.0
7	0x2a455f8f	1.7530268e-13
8	0x2ca0775e	4.560726e-12
9	0x00000000	0.0
10	0x00000000	0.0
11	0x2c05467a	1.893956e-12
12	0x2c363ca8	2.5897427e-12
13	0x00000000	0.0
14	0x00000000	0.0
15	0x28da442b	2.4232425e-14
16	0x2bde913b	1.5814358e-12
17	0x00000000	0.0
18	0x2ac0a99c	3.4223741e-13
19	0x00000000	0.0
20	0x2c536425	3.0040495e-12
21	0x2c881233	3.867373e-12
22	0x00000000	0.0
23	0x2bb2b8d7	1.2698964e-12
24	0x2bc18a22	1.3751814e-12
25	0x2d96790e	1.7106785e-11
26	0x2bb93993	1.3161021e-12
27	0x00000000	0.0
28	0x2bee57e3	1.6935311e-12
29	0x27d02e48	5.7781776e-15
30	0x00000000	0.0
31	0x28aa4e46	1.8907737e-14
32	0x390df5a0	0.0001353831
33	0x38a80e89	8.013572e-05
34	0x3587a03f	1.0104922e-06
35	0x37eadc4c	2.7997557e-05
36	0x37e5da36	2.740054e-05
37	0x37961e64	1.7895545e-05
38	0x2fd0ba3b	3.7967304e-10
39	0x383ed4bb	4.549765e-05
40	0x386c1d2a	5.6293946e-05
41	0x00000000	0.0
42	0x00000000	0.0
43	0x37306c97	1.05157005e-05
44	0x38d80a47	0.00010301597
45	0x183c5346	2.4340473e-24
46	0x00000000	0.0
47	0x38470ce4	4.7457303e-05
48	0x38b26dc9	8.5081505e-05
49	0x2f4fb193	1.8889627e-10
50	0x37e68d68	2.7483984e-05
51	0x00000000	0.0
52	0x3697e5d8	4.526908e-06
53	0x39002a93	0.00012222891
54	0x36ed6ef0	7.0760652e-06
55	0x36f668e2	7.3435813e-06
56	0x38439817	4.6633268e-05
57	0x3874c592	5.8358135e-05
58	0x34be967e	3.5499755e-07
59	0x363df0e6	2.8303416e-06
60	0x396c48e8	0.00022533874
61	0x382c512e	4.10836e-05
62	0x00000000	0.0
63	0x37e4c9a7	2.727362e-05
64	0x3897db9f	7.241149e-05
65	0x385351c2	5.0382463e-05
66	0x35317be0	6.61179e-07
67	0x377e3e58	1.5154095e-05
68	0x37861b3f	1.5986732e-05
69	0x377d12a9	1.508432e-05
70	0x319bce6d	4.5345616e-09
71	0x384bed65	4.8620062e-05
72	0x385ec7cd	5.3115004e-05
73	0x0f2a1d6b	8.387313e-30
74	0x00000000	0.0
75	0x36bfbd17	5.7142565e-06
76	0x38a436e7	7.830356e-05
77	0x1ab3894c	7.425448e-23
78	0x00000000	0.0
79	0x37ec5b41	2.8175886e-05
80	0x38390142	4.410861e-05
81	0x31000e57	1.8634603e-09
82	0x37398122	1.1056925e-05
83	0x00000000	0.0
84	0x36d2234e	6.2625977e-06
85	0x38ceaa35	9.854549e-05
86	0x3693c539	4.403901e-06
87	0x36f92b07	7.4257873e-06
88	0x37bac1a9	2.2263108e-05
89	0x37d02c91	2.4816285e-05
90	0x358be484	1.0422814e-06
91	0x36dabebb	6.5191102e-06
92	0x38efd12f	0.000114353716
93	0x37a92ffa	2.016871e-05
94	0x00000000	0.0
95	0x37599f0e	1.2971241e-05
96	0x377f1eff	1.5206401e-05
97	0x36c8bd6c	5.982516e-06
98	0x3445ae9d	1.8410579e-07
99	0x364efd5a	3.0843862e-06
100	0x3549c88b	7.5170163e-07
101	0x36f81786	7.3937144e-06
102	0x318f0ee0	4.163539e-09
103	0x36412e74	2.878628e-06
104	0x373e8704	1.1356318e-05
105	0x11094d1c	1.0831156e-28
106	0x00000000	0.0
107	0x36fbb3f8	7.501334e-06
108	0x3775fdc9	1.4662227e-05
109	0x1922b176	8.411042e-24
110	0x00000000	0.0
111	0x365ff151	3.3370054e-06
112	0x37292ab6	1.0083129e-05
113	0x308419b8	9.611574e-10
114	0x35bdfce4	1.4155198e-06
115	0x00000000	0.0
116	0x3690697d	4.303815e-06
117	0x37a260bd	1.9356952e-05
118	0x35619c63	8.4046604e-07
119	0x364f8b92	3.0926644e-06
120	0x3696977d	4.487984e-06
121	0x381ab14b	3.6881578e-05
122	0x3595245f	1.111195e-06
123	0x363ce3e5	2.8146835e-06
124	0x38172367	3.6034176e-05
125	0x362554f6	2.463637e-06
126	0x00000000	0.0
127	0x35d7a335	1.6066248e-06
128	0x00000000	0.0
129	0x00000000	0.0
130	0x00000000	0.0
131	0x00000000	0.0
132	0x00000000	0.0
133	0x00000000	0.0
134	0x00000000	0.0
135	0x00000000	0.0
136	0x00000000	0.0
137	0x00000000	0.0
138	0x00000000	0.0
139	0x00000000	0.0
140	0x00000000	0.0
141	0x00000000	0.0
142	0x00000000	0.0
143	0x00000000	0.0
144	0x00000000	0.0
145	0x00000000	0.0
146	0x00000000	0.0
147	0x00000000	0.0
148	0x00000000	0.0
149	0x00000000	0.0
150	0x00000000	0.0
151	0x00000000	0.0
152	0x00000000	0.0
153	0x00000000	0.0
154	0x00000000	0.0
155	0x00000000	0.0
156	0x00000000	0.0
157	0x00000000	0.0
158	0x00000000	0.0
159	0x00000000	0.0
160	0x00000000	0.0
161	0x00000000	0.0
162	0x00000000	0.0
163	0x00000000	0.0
164	0x00000000	0.0
165	0x00000000	0.0
166	0x00000000	0.0
167	0x00000000	0.0
168	0x00000000	0.0
169	0x00000000	0.0
170	0x00000000	0.0
171	0x00000000	0.0
172	0x00000000	0.0
173	0x00000000	0.0
174	0x00000000	0.0
175	0x00000000	0.0
176	0x00000000	0.0
177	0x00000000	0.0
178	0x00000000	0.0
179	0x00000000	0.0
180	0x00000000	0.0
181	0x00000000	0.0
182	0x00000000	0.0
183	0x00000000	0.0
184	0x00000000	0.0
185	0x00000000	0.0
186	0x00000000	0.0
187	0x00000000	0.0
188	0x00000000	0.0
189	0x00000000	0.0
190	0x00000000	0.0
191	0x00000000	0.0
192	0x1a84eaef	5.4973476e-23
193	0x1dc83f33	5.3004906e-21
194	0x00000000	0.0
195	0x1b050ed0	1.1006288e-22
196	0x1d764729	3.2594618e-21
197	0x1b5932e4	1.7966263e-22
198	0x1c21f750	5.3590075e-22
199	0x1df8f465	6.589775e-21
200	0x1bc00d31	3.177226e-22
201	0x00000000	0.0
202	0x00000000	0.0
203	0x1d0883f8	1.8067676e-21
204	0x1d1bc535	2.0616033e-21
205	0x13a2b434	4.1072243e-27
206	0x00000000	0.0
207	0x1d11d413	1.930023e-21
208	0x17850b03	8.597703e-25
209	0x1de198ff	5.97152e-21
210	0x18da6fef	5.6464703e-24
211	0x00000000	0.0
212	0x16b19d0f	2.869501e-25
213	0x1d09a5fe	1.8217615e-21
214	0x1cadbbd4	1.1496732e-21
215	0x1a19267b	3.1670743e-23
216	0x176b043b	7.5937935e-25
217	0x16a4c0a2	2.6617197e-25
218	0x00000000	0.0
219	0x1ce8e5d3	1.541188e-21
220	0x1d02f031	1.7329533e-21
221	0x1d54c732	2.8160948e-21
222	0x00000000	0.0
223	0x1d279ced	2.2183395e-21
224	0x39885881	0.00026005882
225	0x390bec90	0.000133442
226	0x36317c01	2.6447235e-06
227	0x389d69c1	7.5060416e-05
228	0x37c665c2	2.3650824e-05
229	0x38a4dbe4	7.861087e-05
230	0x33b2c91e	8.325354e-08
231	0x38878180	6.461423e-05
232	0x39026c36	0.00012438078
233	0x00000000	0.0
234	0x00000000	0.0
235	0x38b33774	8.545714e-05
236	0x3978520e	0.00023681691
237	0x17dfb327	1.4456262e-24
238	0x00000000	0.0
239	0x38b7bc35	8.761176e-05
240	0x392c014b	0.0001640368
241	0x32a051c4	1.8663634e-08
242	0x38238d59	3.899387e-05
243	0x00000000	0.0
244	0x37c6aeb9	2.36848e-05
245	0x39966af6	0.00028689922
246	0x3759c482	1.2979961e-05
247	0x384dee79	4.9097904e-05
248	0x38a14f88	7.691892e-05
249	0x394f45f3	0.00019767116
250	0x36a0e041	4.794478e-06
251	0x3853d9d0	5.0509174e-05
252	0x3a429bb8	0.00074237166
253	0x388f4fe1	6.83365e-05
254	0x00000000	0.0
255	0x3830a500	4.2115338e-05

exp_avg f4 [32]
0	0x00000004	6e-45
1	0xb8c99a2b	-9.613143e-05
2	0x36c04186	5.729674e-06
3	0x388db2cf	6.7567096e-05
4	0x00000000	0.0
5	0x00000000	0.0
6	0x00000004	6e-45
7	0xb6912b56	-4.3263817e-06
8	0xb828d923	-4.0256546e-05
9	0x0043b762	6.218764e-39
10	0x00000004	6e-45
11	0x00000004	6e-45
12	0xb8ced204	-9.861964e-05
13	0x00000004	6e-45
14	0x00000000	0.0
15	0x00000004	6e-45
16	0xb9064ad8	-0.00012807117
17	0xb81cbf1f	-3.7371294e-05
18	0xb936bd62	-0.00017427423
19	0x00000004	6e-45
20	0xba1524bc	-0.0005689373
21	0xb94ee760	-0.00019731885
22	0x00000004	6e-45
23	0x00000000	0.0
24	0x00000004	6e-45
25	0x00000004	6e-45
26	0x37c66e81	2.3654897e-05
27	0x00000004	6e-45
28	0xb8b7fc83	-8.773154e-05
29	0xb882d36a	-6.238262e-05
30	0x00000004	6e-45
31	0x39ac8279	0.00032903606

exp_avg_sq f4 [32]
0	0x279a2bbf	4.2791016e-15
1	0x3460c9a0	2.0934976e-07
2	0x33857055	6.213728e-08
3	0x32d258d0	2.4487605e-08
4	0x00000000	0.0
5	0x00000000	0.0
6	0x191180a9	7.522307e-24
7	0x34dfbd09	4.1674528e-07
8	0x34df981d	4.1647664e-07
9	0x3155db7f	3.1120349e-09
10	0x19dbafa0	2.2715004e-23
11	0x16b4e3c4	2.9224309e-25
12	0x333cdfc5	4.3975678e-08
13	0x0e123a50	1.8023966e-30
14	0x00000000	0.0
15	0x2e97b52c	6.8988676e-11
16	0x33c0e10b	8.981632e-08
17	0x341ea495	1.4774771e-07
18	0x34940a07	2.7574444e-07
19	0x10a99081	6.688139e-29
20	0x35099218	5.124907e-07
21	0x33822fe8	6.062311e-08
22	0x182afd26	2.2099792e-24
23	0x00000000	0.0
24	0x192ea3d0	9.028671e-24
25	0x275cdaaa	3.0649671e-15
26	0x33bb31e7	8.716943e-08
27	0x1adef00a	9.220485e-23
28	0x334c7126	4.760036e-08
29	0x33afd042	8.1869544e-08
30	0x1843d74c	2.5311856e-24
31	0x349b10e5	2.8883292e-07
