Version 1/model/best_model_3.pth (torch, 37922 bytes, 21 tensors)

layer1.weight f4 [32, 6]
0.12915508 -0.26185942 -0.038015332 -0.70512325 0.59216654 -0.37613073 -0.01814166 0.12901627
0.024154898 -0.2878191 0.26755416 -0.7388702 -0.15651901 0.6239472 -0.6083904 -2.1468384
0.6184849 -0.030557586 -0.08031099 0.7264472 -0.08262637 0.12260297 0.1548784 -0.4395373
-0.68758696 0.7898382 0.20044644 -0.40175837 0.8564375 -1.5998539 -0.037649512 0.99715304
-0.3259897 0.6011299 0.084213294 1.144193 -0.72233456 0.5249575 -0.14511158 -1.0595
-0.34759334 -2.2948575 0.070859544 0.20499966 -0.69786495 -0.5173636 -0.17015779 0.09454692
0.13595557 0.12398341 -0.7799265 0.11744604 0.14903042 0.95680803 -0.0838526 -0.35362625
-0.11123979 -0.26665998 0.011175116 0.1342454 -0.3788728 0.11891121 0.20503402 -0.017810315
0.16886884 0.23851013 0.1755728 0.33745304 0.26336873 0.10269763 -0.18196717 2.3745737
0.2354131 -0.13576351 0.36323565 -0.7161613 -0.13527092 -0.3014259 -0.37237015 -0.41173938
0.024209112 0.27344087 0.21939915 -0.3355707 -0.05284655 -0.19814488 -0.35592028 -0.06757909
-0.10939628 -0.3306805 -0.02187769 0.3719386 -0.25236696 -0.18627995 0.14937367 -0.42278603
0.11083931 -0.16940841 0.2720969 -0.42747915 0.45608303 -0.7316484 -0.5972697 0.34050995
-0.9885332 -1.6454545 0.096481256 -0.9051614 -0.102356136 0.16954465 0.12446331 0.2088559
0.43126196 -0.3435848 -0.35618398 -0.2365553 -0.23398753 -0.30388346 0.16564608 -0.2735796
-0.4159428 0.5963485 -0.21566041 -0.12096536 -1.1293956 1.1352751 0.20863512 0.011261039
-0.19913642 -0.7095141 -0.4031362 -0.0486715 0.3478584 -0.27988222 -0.047224067 -1.8069468
0.4070189 -1.1842884 -0.15926255 0.89643645 -0.32186788 0.7637579 0.4142371 1.2764246
-0.583199 -0.34110755 -0.24642706 0.46842527 0.5956517 -0.68555707 0.042996615 0.23958416
0.5426225 1.6820425 0.68080664 1.302682 -0.17023566 0.18556121 -0.24344127 1.9448568
-0.050445117 -0.14477012 0.29796708 0.2690982 -0.43085605 -2.132769 -0.96841925 -2.0931113
0.3183965 0.44827482 -0.44580126 -1.2724916 0.497483 -1.482378 -0.003747072 0.19235982
-0.026419641 -2.9223394 0.51422775 -2.6231353 -0.4060096 0.25004625 0.0751726 -0.108309954
-0.3961714 -0.03459981 -0.021313258 0.21944164 0.25712255 0.1638115 0.08319401 -1.1201283
00000000: 3b41 043e 7012 86be f7b5 1bbd f582 34bf
00000010: 3a98 173f 3594 c0be d29d 94bc d71c 043e
00000020: 7ee0 c53c 065d 93be dcfc 883e 9926 3dbf
00000030: 8546 20be 01bb 1f3f 79bf 1bbf cd65 09c0
00000040: 0755 1e3f e753 fabc 177a a4bd 72f8 393f
00000050: 0438 a9bd 4417 fb3d 7198 1e3e 080b e1be
00000060: b305 30bf d632 4a3f d541 4d3e 46b3 cdbe
00000070: 7d3f 5b3f 03c8 ccbf 6036 1abd 6c45 7f3f
00000080: 1fe8 a6be a6e3 193f 0578 ac3d eb74 923f
00000090: ebea 38bf 9d63 063f 2198 14be b29d 87bf
000000a0: c1f7 b1be f2de 12c0 cf1e 913d 6eeb 513e
000000b0: 47a7 32bf f171 04bf d83d 2ebe d1a1 c13d
000000c0: f037 0b3e 04eb fd3d 43a9 47bf 8d87 f03d
000000d0: 6e9b 183e 5ff1 743f e9ba abbd 800e b5be
000000e0: b0d1 e3bd a887 88be d517 373c a077 093e
000000f0: 9efb c1be b887 f33d 70f4 513e f0e6 91bc
00000100: f4eb 2c3e 003c 743e 5bc9 333e a5c6 ac3e
00000110: 44d8 863e 2353 d23d 9a55 3abe 04f9 1740
00000120: 2210 713e 9705 0bbe 06fa b93e 5956 37bf
00000130: 7684 0abe 7f54 9abe 4da7 bebe 81cf d2be
00000140: 3052 c63c 7100 8c3e 2caa 603e eccf abbe
00000150: a075 58bd 7ee6 4abe 2f3b b6be e866 8abd
00000160: 280b e0bd f44e a9be d738 b3bc bc6e be3e
00000170: 3e36 81be 2cc0 3ebe 69f5 183e 6977 d8be
00000180: b8ff e23d 6679 2dbe 4950 8b3e 8cde dabe
00000190: b783 e93e 4f4d 3bbf abe6 18bf 5257 ae3e
000001a0: 8310 7dbf 419e d2bf f797 c53d a8b8 67bf
000001b0: 18a0 d1bd 1d9d 2d3e 9fe6 fe3d 52de 553e
000001c0: 5ece dc3e 59ea afbe bf5d b6be 8d3b 72be
000001d0: 6d9a 6fbe 9d96 9bbe 209f 293e a012 8cbe
000001e0: 74f6 d4be 4caa 183f 15d6 5cbe b0bc f7bd
000001f0: 0990 90bf b250 913f 72a4 553e 3980 383c
00000200: 6bea 4bbe b7a2 35bf de67 cebe c45b 47bd
00000210: 7f1a b23e b94c 8fbe 066e 41bd 084a e7bf
00000220: c864 d03e c396 97bf b915 23be dc7c 653f
00000230: decb a4be a385 433f e316 d43e e261 a33f
00000240: 884c 15bf a6a5 aebe 6057 7cbe 70d5 ef3e
00000250: a17c 183f ab80 2fbf 381d 303d 8d55 753e
00000260: 4fe9 0a3f 2b4d d73f 5849 2e3f 49be a63f
00000270: 4252 2ebe c203 3e3e ab48 79be 11f1 f83f
00000280: 8a9f 4ebd 9e3e 14be 248f 983e 3dc7 893e
00000290: 2a99 dcbe 4a7f 08c0 53ea 77bf 89f5 05c0
000002a0: de04 a33e 4784 e53e 1040 e4be 01e1 a2bf
000002b0: 17b6 fe3e 90be bdbf 7091 75bb f9f9 443e
000002c0: 016e d8bc 9c07 3bc0 6ea4 033f 73e1 27c0
000002d0: 7ee0 cfbe 1006 803e 18f4 993d 9cd1 ddbd
000002e0: fad6 cabe 88b8 0dbd 2499 aebc 4fb5 603e
000002f0: 91a5 833e 34be 273e 9f61 aa3d 5d60 8fbf

layer1.bias f4 [32]
6.5039673 6.5503592 0.7005014 6.6958294 -2.3971176 -5.939121 0.2918748 5.1331534
-6.2459574 0.1429708 0.21876734 -7.0969157 6.36351 -0.15578872 -0.2058096 6.524057
6.664827 -0.20221342 7.3046575 0.29830474 -5.565597 6.0057054 -4.318381 -5.720214
-5.1939664 -5.761878 -2.7988257 -2.6179218 -5.3120646 5.390068 0.24986112 7.037267
00000000: 8020 d040 8b9c d140 0f54 333f 3c44 d640
00000010: 606a 19c0 470d bec0 9d70 953e cb42 a440
00000020: e2de c7c0 f066 123e 8c04 603e ef19 e3c0
00000030: e0a1 cb40 1487 1fbe c0bf 52be 13c5 d040
00000040: 4346 d540 0911 4fbe c1bf e940 66bb 983e
00000050: 5f19 b2c0 bd2e c040 2d30 8ac0 fe0b b7c0
00000060: f934 a6c0 4e61 b8c0 f61f 33c0 088c 27c0
00000070: 6ffc a9c0 707b ac40 98db 7f3e 4b31 e140

layer2.weight f4 [32, 32]
-0.4038797 -0.27909455 -0.15280364 -0.24145888 -0.13921513 -0.25783387 0.015095562 -0.23923102
-0.15766393 -0.05840478 0.020746112 -0.08342886 -0.43406144 -0.074262194 -0.11694062 -0.19056903
-0.40448242 -0.110036545 -0.29648444 -0.025650784 -0.1557433 -0.26847255 -0.12303514 -0.3779034
-0.2761589 -0.24247856 -0.16084214 -0.039953038 -0.2359475 -0.3933897 0.17494403 -0.24851674
0.87584203 0.39862207 -0.8532728 0.844852 -0.5815183 -0.6205326 -1.287236 0.38494554
-0.8275912 -0.14880069 -0.1603728 -0.4175231 0.82276493 -0.09758931 -0.057937294 0.3551446
1.2735181 -0.45281136 1.3588545 0.06984548 -0.6543758 0.60084426 -1.1557752 -1.0724038
-1.0154961 -1.9733481 -3.1388886 -1.307215 -0.8840785 -0.18933815 -0.09320626 0.5646803
0.28483 -0.12515907 0.025930034 0.5627453 -0.51196265 -0.92243636 -1.0014799 0.09857122
-0.5450491 0.21246634 -0.1266561 -0.89103335 0.382684 0.112173915 -0.12633073 0.1030212
0.26104134 -0.4748478 0.52829456 -0.13080749 -0.6133474 0.22084206 -1.3641938 -0.9783628
-0.49988905 -1.9246699 -2.094031 -0.1818676 -1.0427088 0.14612198 -0.0147117525 -0.023389703
-1.5001502 -0.4873275 -1.4810936 0.12499775 -1.0974077 0.28160796 0.94793427 -0.12121291
-0.7743739 0.06149935 0.008230284 -0.57615995 -1.4136658 0.012145867 -0.06509016 -0.20300075
-1.4387703 1.1557884 -0.04687012 0.031297937 1.7902417 -0.93312925 -0.048516076 0.41843942
-0.11550884 0.5036959 0.8058316 0.63619304 -0.26494628 -0.28792575 -0.104151644 -0.0703696
-0.13479047 -0.047870502 0.062588155 -0.33932632 -0.17147103 -0.38417557 0.08935182 -0.07023618
-0.21744636 -0.117186695 -0.07395556 -0.34901798 -0.34399816 -0.09455258 -0.012311533 -0.07621971
-0.2395232 -0.12019286 -0.2796632 0.08795445 -0.035818815 -0.34113878 0.012995899 -0.29094222
-0.06863633 -0.24740909 -0.2012087 -0.038269803 0.11313008 0.16385062 0.024540514 -0.27409315
0.097696945 -0.07626346 -0.017625049 -0.10535361 -0.10412646 -0.096170954 -0.10877316 -0.033448532
0.15651457 -0.1701775 -0.14967239 -0.15693435 -0.14216772 0.057779238 -0.03475359 -0.075407855
-0.17055032 0.054713413 -0.09722247 -0.1631477 -0.15659007 0.02138573 0.0900325 0.11735727
-0.124275774 -0.13785335 0.12967105 -0.04531692 -0.0011084229 0.08347808 -0.1358524 -0.006829828
-0.044074766 -0.20556994 -0.13068825 -0.16295327 -0.15993698 0.08416667 -0.008894362 0.073257625
-0.06671405 -0.14953248 -0.11454788 -0.22709543 0.019947026 0.10661682 0.17033373 -0.10017599
0.0049538645 -0.11632809 -0.1504517 -0.10743259 -0.1531055 -0.099782705 -0.16285306 -0.037407055
-0.22494581 -0.04126144 0.05532737 0.045503143 0.016728926 0.09594742 0.16632028 -0.20650469
0.6324074 0.2934719 1.1976506 0.5985365 0.1245828 -0.68984383 0.52590215 -0.07985553
-0.56947064 0.047386706 0.10695134 -0.8647821 0.6639542 0.040997993 -0.07525195 0.30670926
0.95916915 -1.015382 1.0807813 0.1032546 -0.72306436 0.21323173 -0.35107192 -0.9592929
-0.3850942 -2.4820867 -1.6568067 0.5192552 0.54891044 1.1211617 -0.09864253 0.51922697
00000000: 52c9 cebe 7be5 8ebe 8f78 1cbe ff40 77be
00000010: 698e 0ebe cd02 84be 6053 773c faf8 74be
00000020: a772 21be da39 6fbd c0f3 a93c c0dc aabd
00000030: 4d3d debe c716 98bd 907e efbd 8724 43be
00000040: 5218 cfbe d75a e1bd cfcc 97be 9821 d2bc
00000050: 2c7b 1fbe 3c75 89be d9f9 fbbd 8e7c c1be
00000060: b364 8dbe 4d4c 78be cdb3 24be cca5 23bd
00000070: 399c 71be 606a c9be 8724 333e 2c7b 7ebe
00000080: 2f37 603f 3118 cc3e 1670 5abf 3848 583f
00000090: 62de 14bf 39db 1ebf 26c4 a4bf 9517 c53e
000000a0: 04dd 53bf 355f 18be c438 24be 96c5 d5be
000000b0: b9a0 523f e7dc c7bd a84f 6dbd 83d5 b53e
000000c0: a402 a33f e4d6 e7be f2ee ad3f 260b 8f3d
000000d0: 2c85 27bf eed0 193f 71f0 93bf 8744 89bf
000000e0: c7fb 81bf ac96 fcbf 8de3 48c0 d252 a7bf
000000f0: f852 62bf dce1 41be ece2 bebd e38e 103f
00000100: 3dd5 913e b329 00be 396b d43c 1310 103f
00000110: fc0f 03bf ca24 6cbf 7e30 80bf b5df c93d
00000120: 5688 0bbf c790 593e 23b2 01be c31a 64bf
00000130: 28ef c33e 70bb e53d d85c 01be c7fc d23d
00000140: 36a7 853e 401f f3be 503e 073f 66f2 05be
00000150: 5604 1dbf 6c24 623e e79d aebf fc75 7abf
00000160: 75f1 ffbe 955b f6bf 9b04 06c0 803b 3abe
00000170: 7b77 85bf 00a1 153e 9009 71bc c39b bfbc
00000180: ec04 c0bf fd82 f9be 7a94 bdbf d2fe ff3d
00000190: db77 8cbf eb2e 903e d2ab 723f 793e f8bd
000001a0: 5e3d 46bf bee6 7b3d 50d8 063c 387f 13bf
000001b0: 00f3 b4bf 75ff 463c fd4d 85bd 6edf 4fbe
000001c0: a029 b8bf e0f0 933f e2fa 3fbd 4432 003d
000001d0: a426 e53f 8fe1 6ebf cbb8 46bd b13d d63e
000001e0: e68f ecbd 37f2 003f fb4a 4e3f 8cdd 223f
000001f0: 0aa7 87be 016b 93be 754d d5bd f01d 90bd
00000200: 8306 0abe dc13 44bd 382e 803d 2ebc adbe
00000210: 1a96 2fbe a9b2 c4be 16fe b63d fdd7 8fbd
00000220: 42aa 5ebe 94ff efbd 0376 97bd 7cb2 b2be
00000230: 8720 b0be c8a4 c1bd 50b6 49bc 1419 9cbd
00000240: 9245 75be ad27 f6bd 0430 8fbe 7621 b43d
00000250: c0b6 12bd bea9 aebe c0ec 543c 61f6 94be
00000260: 3491 8cbd cf58 7dbe a709 4ebe ccc0 1cbd
00000270: beb0 e73d 75c8 273e 3009 c93c f055 8cbe
00000280: 5615 c83d 0430 9cbd 6862 90bc a2c3 d7bd
00000290: 4140 d5bd 47f5 c4bd 76c4 debd 5401 09bd
000002a0: 5b45 203e 0343 2ebe b843 19be 66b3 20be
000002b0: 6a94 11be eca9 6c3d c859 0ebd 6f6f 9abd
000002c0: bea4 2ebe 2c1b 603d 931c c7bd 3110 27be
000002d0: 2659 20be 2031 af3c f662 b83d 0259 f03d
000002e0: 4c84 febd 6e29 0dbe 7dc8 043e 3c9e 39bd
000002f0: 8048 91ba 8ef6 aa3d e41c 0bbe c0cc dfbb
00000300: be87 34bd ed80 52be 24d3 05be 39dd 26be
00000310: 85c6 23be 935f ac3d a8b9 11bc 1808 963d
00000320: 60a1 88bd 0b1f 19be 1498 eabd b48b 68be
00000330: f267 a33c eb59 da3d f76b 2e3e 1229 cdbd
00000340: 0754 a23b 6c3d eebd 0310 1abe 9e05 dcbd
00000350: b0c7 1cbe e05a ccbd f4c2 26be 2438 19bd
00000360: 3258 66be c101 29bd f49e 623d 8161 3a3d
00000370: 1a0b 893c 1580 c43d dd4f 2a3e f775 53be
00000380: 74e5 213f f341 963e 9d4c 993f b039 193f
00000390: 4425 ff3d 9b99 30bf 86a1 063f 4c8b a3bd
000003a0: d4c8 11bf 9018 423d 4e09 db3d 5c62 5dbf
000003b0: e7f8 293f 83ed 273d b21d 9abd ff08 9d3e
000003c0: 1c8c 753f 0af8 81bf 0b57 8a3f 2677 d33d
000003d0: bf1a 39bf 6b59 5a3e b3bf b3be 3894 75bf
000003e0: 112b c5be 82da 1ec0 3e12 d4bf e9ed 043f
000003f0: 6585 0c3f 3a82 8f3f 1805 cabd 0fec 043f

layer2.bias f4 [32]
-0.22410238 4.8666363 3.0319011 -3.4460356 0.020603722 0.08258258 -0.23267683 4.3826485
5.883406 2.9513764 -0.14671528 -0.06579088 5.084548 -0.10581309 0.10432927 3.349131
-0.95349526 6.122254 4.863126 -0.14052248 3.737712 3.753304 -0.1461319 0.04232374
-0.22539818 -0.2216802 -4.487569 -0.15775344 5.128387 -3.3528967 -0.15837835 3.8982396
00000000: 187b 65be 7cbb 9b40 ab0a 4240 d98b 5cc0
00000010: 23c9 a83c 0e21 a93d d642 6ebe a83e 8c40
00000020: dd44 bc40 5ae3 3c40 883c 16be 5ebd 86bd
00000030: 9eb4 a240 89b4 d8bd 96aa d53d 2a58 5640
00000040: 4418 74bf 81e9 c340 ba9e 9b40 20e5 0fbe
00000050: ac36 6f40 2236 7040 9aa3 15be a85b 2d3d
00000060: c8ce 66be 2200 63be 2a9a 8fc0 1e8a 21be
00000070: bf1b a440 dc95 56c0 ef2d 22be c27c 7940

layer3.weight f4 [32, 32]
-0.08197088 0.018031789 0.000823742 -0.18198207 0.08501969 0.015348822 -0.08289234 -0.22479482
-0.06242554 0.030593676 -0.1696713 -0.14185992 -0.15750985 0.033182576 -0.11455536 -0.056699287
-0.006802693 -0.018505583 -0.0052068187 -0.12944773 -0.20997666 -0.22447513 -0.11539598 0.070348784
-0.126736 0.16167961 -0.09622685 -0.058103178 0.004257253 -0.11856235 -0.09558863 0.11403812
0.14324787 1.8527197 1.0684496 -0.38288447 0.15346354 -0.09551559 0.07117424 1.0603256
1.4376625 1.4078872 0.1935156 0.08841815 0.9029369 0.05885783 -0.116772145 1.2430085
1.142863 1.1385394 1.4668137 0.0008815918 0.3060558 0.6505794 -0.20455879 0.04160185
0.13225216 -0.17283028 0.13750377 -0.1382219 0.8485446 0.24611129 -0.12045377 0.9147609
-0.06797049 -0.041317865 0.02208292 0.070524 0.16593663 -0.14405063 -0.020865992 -0.38920593
-0.39950678 -0.2054562 -0.1658525 -0.111119255 -0.33981228 0.14927466 0.043585673 -0.13033926
-0.18273532 0.3702239 -0.18454874 0.11832298 -0.56119627 -0.094294004 0.15776841 -0.113320105
-0.15963757 -0.12177323 -0.28917167 0.016562274 -0.43554872 -0.53694344 0.07209821 -0.4100193
-0.18725958 -1.1036993 -1.9908317 0.30178922 -0.056125905 0.16553013 0.11154619 -2.4762893
-1.4585408 -2.370097 -0.026487641 -0.14039123 0.08409312 -0.115619875 -0.036530837 -1.9593513
0.6387663 -0.048451714 -1.1688632 -0.020204121 -5.776518 -2.2859323 0.16289435 -0.09357616
-0.15002824 0.31210577 -0.9984641 -0.17249796 -0.021019947 0.62173116 0.118224576 -2.2158444
0.15711628 2.0046806 1.331513 -0.3208549 0.24539109 -0.115484044 0.1977969 1.8199795
1.8070786 1.973217 0.21114345 0.03695409 1.0130624 -0.021512175 0.036970437 1.3339453
0.91190946 1.3890027 1.7419941 0.09039724 0.70957905 0.9745508 -0.07574809 -0.022321537
0.12418052 -0.3190598 0.15254833 -0.18034269 1.0927587 0.3163338 -0.17448685 1.1341149
-0.103576824 0.010313716 -0.19365638 0.056614906 0.052880317 -0.082518175 -0.1910282 -0.056544382
-0.009835497 -0.21395636 -0.013957355 0.039372317 -0.018947653 -0.16824757 -0.10671127 -0.18957171
-0.10406405 -0.034806594 -0.02769939 0.14255936 0.026838057 0.008982174 0.19564445 0.10903408
-0.12738612 -0.10758331 -0.08457795 -0.16103022 -0.10235125 -0.090270475 -0.0995442 -0.17896782
0.09072651 -0.1013552 -0.023275431 -0.015245097 -0.1373814 -0.04215677 0.07768674 0.010662496
-0.10005942 -0.09304286 -0.21416882 -0.13032933 0.027407333 -0.16263965 0.022430569 0.07253016
-0.100777626 -0.103278846 -0.10862665 0.07278763 0.10091071 -0.13636777 0.09260221 -0.1748667
-0.017520487 0.1682388 -0.097639225 -0.09681468 -0.1748914 -0.10643716 -0.11073191 -0.13097125
-0.026608974 -0.025830701 0.064574 -0.3746304 0.17393754 0.029374272 -0.16970335 -0.057685886
-0.18971866 -0.0662767 0.10246445 -0.08321589 -0.3378359 0.08743377 -0.09866876 -0.054854363
-0.2759792 -0.30507928 -0.10294431 -0.120379046 -0.070387274 0.03983511 0.06591278 0.05064079
-0.014246345 -0.10756805 -0.1571339 -0.18382454 -0.3360159 -0.14516263 0.08530812 -0.25818768
00000000: 59e0 a7bd 67b7 933c 64f0 573a 8259 3abe
00000010: ce1e ae3d a079 7b3c 76c3 a9bd 9d30 66be
00000020: ecb1 7fbd 979f fa3c 50be 2dbe ba43 11be
00000030: 434a 21be 74ea 073d 009c eabd 833d 68bd
00000040: 20e9 debb 0599 97bc f69d aabb f28d 04be
00000050: 1f04 57be cfdc 65be ba54 ecbd 0613 903d
00000060: 15c7 01be 578f 253e 9512 c5bd 99fd 6dbd
00000070: 6d80 8b3b d1d0 f2bd f9c3 c3bd d18c e93d
00000080: 92af 123e eb25 ed3f f5c2 883f 6f09 c4be
00000090: 8c25 1d3e ad9d c3bd cdc3 913d c0b8 873f
000000a0: 5305 b83f a635 b43f f428 463e 9314 b53d
000000b0: df26 673f e814 713d 3c26 efbd e71a 9f3f
000000c0: 5649 923f a9bb 913f 8dc0 bb3f a01a 673a
000000d0: 59b3 9c3e 5f8c 263f dc77 51be b466 2a3d
000000e0: 1c6d 073e 6cfa 30be cacd 0c3e 0b8a 0dbe
000000f0: 383a 593f 9904 7c3e 77b0 f6bd c52d 6a3f
00000100: 1d34 8bbd ec3c 29bd 3de7 b43c e36e 903d
00000110: 4beb 293e 0282 13be 28ef aabc 0046 c7be
00000120: 278c ccbe 1c63 52be 3dd5 29be 7e92 e3bd
00000130: e0fb adbe 75db 183e e486 323d a877 05be
00000140: f81e 3bbe fd8d bd3e 58fa 3cbe 5253 f23d
00000150: 8faa 0fbf 371d c1bd 0b8e 213e 5f14 e8bd
00000160: 0878 23be 3e64 f9bd 4f0e 94be 9bad 873c
00000170: 3e00 dfbe 2075 09bf 3aa8 933d 0dee d1be
00000180: fac0 3fbe 0546 8dbf 93d3 febf 1e84 9a3e
00000190: 47e4 65bd bb80 293e 5472 e43d 867b 1ec0
000001a0: 77b1 babf abaf 17c0 9cfc d8bc b8c2 0fbe
000001b0: 0439 ac3d 1dca ecbd 5ca1 15bd 06cc fabf
000001c0: 3086 233f 4e75 46bd 4f9d 95bf 1d83 a5bc
000001d0: 3cd9 b8c0 b74c 12c0 c7cd 263e dca4 bfbd
000001e0: 01a1 19be 54cc 9f3e 589b 7fbf 4ea3 30be
000001f0: 0632 acbc c629 1f3f ba1f f23d 65d0 0dc0
00000200: 17e3 203e b04c 0040 056f aa3f 1847 a4be
00000210: cd47 7b3e e682 ecbd 458b 4a3e 17f5 e83f
00000220: 5a4e e73f 6092 fc3f fd35 583e 2c5d 173d
00000230: 07ac 813f 4d3a b0bc 506e 173d b8be aa3f
00000240: e672 693f d7ca b13f aaf9 de3f 3022 b93d
00000250: f9a6 353f 297c 793f d121 9bbd a8db b6bc
00000260: 5b52 fe3d ce5b a3be a135 1c3e c1ab 38be
00000270: 84df 8b3f 81f6 a13e aeac 32be ad2a 913f
00000280: 1620 d4bd dcfa 283c dc4d 46be 08e5 673d
00000290: 0899 583d 4aff a8bd e59c 43be 159b 67bd
000002a0: 1025 21bc 6017 5bbe 64ad 64bc de44 213d
000002b0: 1c38 9bbc 1749 2cbe 708b dabd 161f 42be
000002c0: 881f d5bd 5c91 0ebd d5e9 e2bc 15fb 113e
000002d0: 7cdb db3c f829 133c 0557 483e 424d df3d
000002e0: 8271 02be a354 dcbd 3437 adbd 1be5 24be
000002f0: 889d d1bd badf b8bd d4dd cbbd 5743 37be
00000300: d2ce b93d 5193 cfbd 1eac bebc 92c6 79bc
00000310: b6ad 0cbe 94ac 2cbd 3a1a 9f3d c0b1 2e3c
00000320: f4eb ccbd 418d bebd 124f 5bbe 0d75 05be
00000330: 5885 e03c 028b 26be 50c0 b73c b18a 943d
00000340: 8064 cebd dc83 d3bd a677 debd ae11 953d
00000350: 46aa ce3d fea3 0bbe 3aa6 bd3d 4210 33be
00000360: 2087 8fbc cb46 2c3e 13f7 c7bd c646 c6bd
00000370: bb16 33be bafb d9bd 69c7 e2bd 541d 06be
00000380: 10fb d9bc e89a d3bc 603f 843d 8ecf bfbe
00000390: af1c 323e 50a2 f03c b7c6 2dbe 0948 6cbd
000003a0: 9c45 42be 14bc 87bd e2d8 d13d 186d aabd
000003b0: d4f8 acbe 7a10 b33d d912 cabd f8ae 60bd
000003c0: 254d 8dbe 5a33 9cbe 77d4 d2bd 4a89 f6bd
000003d0: 3427 90bd 242a 233d 48fd 863d b86c 4f3d
000003e0: 8069 69bc a34c dcbd b6e7 20be 803c 3cbe
000003f0: 470a acbe 83a5 14be 06b6 ae3d 2d31 84be

layer3.bias f4 [32]
-0.1746687 2.2260373 -0.21495287 -1.4028668 3.2198002 0.02871411 -0.021663351 -0.2703374
-1.7471352 -1.389897 1.9674923 -2.1848702 2.9258635 -1.9678346 -2.4312913 -0.12706538
-1.6219081 -1.4556025 -0.3207466 2.8905244 -0.15313947 0.013133093 -1.5379684 -0.06644396
1.8269988 -1.7883606 2.509522 -0.07036569 0.0962472 -0.071868084 -1.072372 -2.2108958
00000000: 5adc 32be 6577 0e40 9b1c 5cbe 2491 b3bf
00000010: 3511 4e40 da39 eb3c 5777 b1bc aa69 8abe
00000020: 20a2 dfbf 25e8 b1bf cad6 fb3f ead4 0bc0
00000030: 5941 3b40 01e2 fbbf 479a 1bc0 6d1d 02be
00000040: af9a cfbf 2f51 babf e638 a4be 5afe 3840
00000050: 98d0 1cbe 2f2c 573c 26dc c4bf c513 88bd
00000060: 19db e93f 00e9 e4bf 029c 2040 e31b 90bd
00000070: 411d c53d 932f 93bd 7c43 89bf 517f 0dc0

output_layer.weight f4 [1, 32]
0.04197396 1.3246208 0.3120696 -1.7963834 1.2509471 0.0031604741 0.044508737 0.07684949
-2.0509202 -1.8580905 1.3509005 -2.4231865 1.3310329 -1.2689172 -2.0148468 0.0209839
-2.4603107 -2.4601395 -0.133519 1.326905 -0.042922754 -0.08062517 -2.4218113 -0.01368476
1.2366239 -0.8856057 1.3272157 4.8585913e-05 -0.01749675 -0.12749231 -2.1840162 -2.0787187
00000000: e3ec 2b3d 2d8d a93f 96c7 9f3e e4ef e5bf
00000010: 091f a03f f51f 4f3b cb4e 363d 4463 9d3d
00000020: 4742 03c0 e9d5 edbf 4fea ac3f 7d15 1bc0
00000030: 495f aa3f e16b a2bf 40f3 00c0 6ee6 ab3c
00000040: bb75 1dc0 ed72 1dc0 34b9 08be 06d8 a93f
00000050: c5cf 2fbd cf1e a5bd f5fe 1ac0 0b36 60bc
00000060: b149 9e3f 0eb7 62bf 34e2 a93f bac8 4b38
00000070: 5855 8fbc 588d 02be ecc6 0bc0 ba09 05c0

exp_avg f4 [32, 6]
-0.053397868 -0.024804002 -0.0012688815 -0.0022022184 -0.022369394 0.00041909947 -0.030420832 -0.0153016
-0.0007998074 -0.0007897499 -0.01338228 0.0002881602 0.026164625 0.0011158604 7.398313e-06 0.0007827318
0.0039242115 0.00012554832 -0.044342402 -0.025076285 -0.0013294285 1.08857685e-05 -0.023147425 0.00043496492
-0.0050969333 -0.0047493745 -0.00011839408 -8.8708315e-05 -0.0021993062 -1.4670264e-05 0.024443366 0.014547984
0.0004835342 0.0015198473 0.011167883 -0.0002527693 6e-45 6e-45 6e-45 6e-45
6e-45 6e-45 -0.022205949 -0.009258217 -0.00049268646 -0.0007996897 -0.008865263 0.00012885877
0.025277013 0.010150197 0.00051613234 0.00065304624 0.009644283 -0.00019557336 6e-45 6e-45
0.0 6e-45 6e-45 0.0 0.0 0.0 0.0 0.0
0.0 0.0 0.006510902 0.012334022 0.0006055331 0.0001905182 0.0071230237 -0.0003243311
-0.05212583 -0.022774689 -0.001133953 -0.0024794969 -0.020648336 0.0003691767 6e-45 6e-45
0.0 6e-45 6e-45 0.0 0.0 0.0 0.0 0.0
0.0 0.0 -0.0306617 -0.016011927 -0.00084099435 -0.0009311391 -0.014420985 0.0002586222
-0.072432175 -0.032342028 -0.001616989 -0.0030878482 -0.028676806 0.0005359881 6e-45 6e-45
6e-45 6e-45 6e-45 6e-45 -0.07617926 -0.03500755 -0.0017476641 -0.0017457614
-0.03169286 0.00056823995 0.0 0.0 0.0 0.0 0.0 0.0
3.692675e-27 4.8639696e-27 3.0461996e-30 9.019033e-30 1.2200087e-27 3.0379482e-30 -0.03665346 -0.015813736
-0.00078494713 -0.0020089366 -0.01551364 0.00024569326 0.0296589 0.0066351695 0.0002995687 0.0016127174
0.008472963 -0.00016580803 0.1154746 0.027660936 0.0017444552 0.007984605 0.029018305 -0.0003211665
6e-45 6e-45 -6e-45 6e-45 6e-45 6e-45 0.103821166 0.043547112
0.0020649987 0.00485406 0.039464153 -0.0007833127 0.0016576932 0.004948099 0.0002014435 3.2727006e-05
-0.006068238 0.00028741366 -0.0120438505 -0.0014883212 0.00011422228 -0.0010054227 -0.00050139526 -5.0517247e-05
0.025423951 0.008380789 0.00054197176 0.00034365294 0.0099535715 -0.00017975764 -0.01753569 -0.015204563
-0.0007400142 -0.0012082474 -0.013879312 0.00025196275 0.0 0.0 0.0 0.0
0.0 0.0 -0.04073786 -0.02251518 -0.0011848458 -0.00044851386 -0.02013941 0.00037854438
00000000: b9b7 5abd c331 cbbc 9950 a6ba 1853 10bb
00000010: 0540 b7bc 94ba db39 1c35 f9bc 90b3 7abc
00000020: 2baa 51ba 3807 4fba 5a41 5bbc 3514 9739
00000030: 3257 d63c 1042 923a 063f f836 3e30 4d3a
00000040: ac96 803b 9fa5 0339 61a0 35bd c86c cdbc
00000050: 3840 aeba 05a2 3637 ab9f bdbc 010c e439
00000060: 2d04 a7bb a4a0 9bbb 564a f8b8 ea08 bab8
00000070: 3c22 10bb 4e20 76b7 743d c83c ab5a 6e3c
00000080: dd82 fd39 9d35 c73a 7ff9 363c 1f86 84b9
00000090: 0400 0000 0400 0000 0400 0000 0400 0000
000000a0: 0400 0000 0400 0000 40e9 b5bc c7af 17bc
000000b0: a127 01ba 44a2 51ba 9c3f 11bc 431e 0739
000000c0: bd11 cf3c 034d 263c 0e4d 073a 3131 2b3a
000000d0: 0e03 1e3c d312 4db9 0400 0000 0400 0000
000000e0: 0000 0000 0400 0000 0400 0000 0000 0000
000000f0: 0000 0000 0000 0000 0000 0000 0000 0000
00000100: 0000 0000 0000 0000 6859 d53b a314 4a3c
00000110: a3bc 1e3a d7c5 4739 4168 e93b fc0a aab9
00000120: e581 55bd fc91 babc 26a1 94ba 0e7f 22bb
00000130: b326 a9bc 0f8e c139 0400 0000 0400 0000
00000140: 0000 0000 0400 0000 0400 0000 0000 0000
00000150: 0000 0000 0000 0000 0000 0000 0000 0000
00000160: 0000 0000 0000 0000 3f2e fbbc 722b 83bc
00000170: 2d76 5cba b017 74ba ff45 6cbc af97 8739
00000180: 5257 94bd 1379 04bd 26f1 d3ba 7f5d 4abb
00000190: 9feb eabc 8d81 0c3a 0400 0000 0400 0000
000001a0: 0400 0000 0400 0000 0400 0000 0400 0000
000001b0: df03 9cbd 1464 0fbd e011 e5ba 08d2 e4ba
000001c0: 5fd0 01bd f0f5 143a 0000 0000 0000 0000
000001d0: 0000 0000 0000 0000 0000 0000 0000 0000
000001e0: 2c48 9213 83ae c013 1723 770e 7fed 360f
000001f0: 6f51 c112 b777 760e f021 16bd cf8b 81bc
00000200: e9c4 4dba 5da8 03bb ec2c 7ebc 64d0 8039
00000210: 39f7 f23c d66b d93b 6e0f 9d39 d161 d33a
00000220: 2fd2 0a3c c1dc 2db9 f27d ec3d 3099 e23c
00000230: 34a6 e43a dcd1 023c ccb7 ed3c 3d62 a8b9
00000240: 0400 0000 0400 0000 0400 0080 0400 0000
00000250: 0400 0000 0400 0000 31a0 d43d 755e 323d
00000260: ee54 073b ce0e 9f3b 2aa5 213d 3a57 4dba
00000270: f446 d93a aa23 a23b 943a 5339 5b44 0938
00000280: 12d8 c6bb 02b0 9639 9253 45bc c613 c3ba
00000290: 9f8a ef38 63c8 83ba 1170 03ba 7be2 53b8
000002a0: e445 d03c 944f 093c 1c13 0e3a 512c b439
000002b0: 4e14 233c 537d 3cb9 02a7 8fbc 8f1c 79bc
000002c0: 83fd 41ba 0e5e 9eba 0e66 63bc de19 8439
000002d0: 0000 0000 0000 0000 0000 0000 0000 0000
000002e0: 0000 0000 0000 0000 bedc 26bd c171 b8bc
000002f0: d44c 9bba 8326 ebb9 67fb a4bc 5e77 c639

exp_avg_sq f4 [32, 6]
0.05117378 0.0019817022 6.953888e-06 0.0006565035 0.0023175804 2.8692607e-06 0.019563373 0.00083885406
2.7346207e-06 0.00024918327 0.0009104293 1.1568251e-06 0.008405213 0.0007510635 2.7228327e-07 2.5958647e-05
0.0003119207 3.4016406e-07 0.07210374 0.002431556 9.06929e-06 0.0010666471 0.0028371694 4.0275277e-06
0.00015982165 7.2683884e-05 2.5546724e-08 1.0021274e-06 2.4354014e-05 8.570372e-09 0.02655856 0.000872362
2.8649456e-06 0.0003876802 0.0009247604 1.401811e-06 6.9815084e-11 1.5004627e-10 3.9709836e-15 8.171029e-15
4.786995e-12 8.71532e-15 0.00909354 0.00030113867 1.1756982e-06 0.00011315876 0.0003941553 5.0084424e-07
0.008927308 0.00026148936 1.1401636e-06 0.00010203795 0.00035719 4.999466e-07 4.6144998e-35 5.1130197e-37
0.0 1.1504308e-36 4.6144998e-35 0.0 0.0 0.0 0.0 0.0
0.0 0.0 0.036902353 0.001253925 3.1184225e-06 0.0005438566 0.0008530912 1.7586201e-06
0.038875252 0.0015018593 5.6222343e-06 0.00048133827 0.0018753362 2.2161732e-06 3.480883e-30 5.1865967e-32
0.0 1.7573129e-30 3.2958875e-31 0.0 0.0 0.0 0.0 0.0
0.0 0.0 0.0240314 0.0009567904 3.0524718e-06 0.000332292 0.0010260284 1.2847081e-06
0.08078082 0.0031460843 1.1545166e-05 0.0009901754 0.003809755 4.6994555e-06 1.5872249e-14 1.3731913e-14
1.2388863e-18 2.9831872e-17 2.1337147e-15 1.8461596e-18 0.10409097 0.0039190077 1.41748515e-05 0.0015612044
0.0047072303 5.9863737e-06 0.0 0.0 0.0 0.0 0.0 0.0
2.6639925e-06 2.8102465e-06 4.6943943e-10 1.1309857e-08 1.7513972e-07 1.186609e-10 0.02170453 0.0007506759
2.9695268e-06 0.00029855245 0.00096652267 1.2050776e-06 0.018971983 0.00025334416 1.7302632e-06 0.00020003032
0.00042663273 7.4561893e-07 0.041778244 0.0017335116 5.124995e-06 0.00059202575 0.0021339613 2.4599722e-06
8.143093e-09 2.6743974e-10 1.2628749e-12 1.1875254e-10 1.0446517e-09 3.635013e-13 0.15248415 0.005145916
2.1474712e-05 0.0016484251 0.006813412 8.63621e-06 0.06728388 0.0010925061 4.201419e-06 0.00088994484
0.0018399337 2.2187655e-06 0.017048802 0.00020385126 3.3592804e-07 0.00013147837 0.0001097652 3.0418823e-07
0.026813323 0.00047127838 2.3460416e-06 0.0004594575 0.0006817885 1.155352e-06 0.023150504 0.0018618392
1.3934116e-06 3.1056657e-05 0.0010528597 6.0739825e-07 0.0 0.0 0.0 0.0
0.0 0.0 0.04767146 0.0018648239 6.249731e-06 0.00078778056 0.0020410712 2.6549153e-06
00000000: 999b 513d 72df 013b 7155 e936 3419 2c3a
00000010: 8ce2 173b 868d 4036 5e43 a03c 8be6 5b3a
00000020: 6d84 3736 d0a4 8239 e0a9 6e3a 3544 9b35
00000030: 05b6 093c 05e3 443a 542e 9234 c5c1 d937
00000040: 4a89 a339 cb9f b634 20ab 933d bd5a 1f3b
00000050: 4e28 1837 bdce 8b3a ceef 393b 3324 8736
00000060: cc95 2739 dd6d 9838 d771 db32 d680 8635
00000070: d94b cc37 e53c 1332 5691 d93c 39af 643a
00000080: 6443 4036 8e41 cb39 9f6b 723a dc25 bc35
00000090: 6686 992e 45fa 242f dc11 8f27 3832 1328
000000a0: 6b6d a82c 5200 1d28 12fd 143c 26e2 9d39
000000b0: afcc 9d35 a64f ed38 a1a6 ce39 c171 0635
000000c0: d843 123c 8218 8939 b907 9935 35fd d538
000000d0: 3b45 bb39 1234 0635 5159 7506 affc 2d03
000000e0: 0000 0000 54bc c303 5159 7506 0000 0000
000000f0: 0000 0000 0000 0000 0000 0000 0000 0000
00000100: 0000 0000 0000 0000 ec26 173d be5a a43a
00000110: 1746 5136 9991 0e3a fba1 5f3a ba09 ec35
00000120: a83b 1f3d 09da c43a a0a6 bc36 215c fc39
00000130: d7cd f53a 91b9 1436 8e33 8d0e d9a6 860b
00000140: 0000 0000 f691 0e0e 53ea d50c 0000 0000
00000150: 0000 0000 0000 0000 0000 0000 0000 0000
00000160: 0000 0000 0000 0000 80dd c43c 1ed1 7a3a
00000170: 11d9 4c36 7a37 ae39 cd7b 863a 3c6e ac35
00000180: 6a70 a53d 892e 4e3b 1cb2 4137 c6c8 813a
00000190: 15ad 793b 04b0 9d36 eaf6 8e28 455f 7728
000001a0: cdd3 b621 4293 0924 17c0 1927 f838 0822
000001b0: a52d d53d 056b 803b 86d0 6d37 54a1 cc3a
000001c0: 1c3f 9a3b 8fde c836 0000 0000 0000 0000
000001d0: 0000 0000 0000 0000 0000 0000 0000 0000
000001e0: 0bc7 3236 ab97 3c36 dd09 0130 474d 4232
000001f0: 0a0e 3c34 1378 022f b3cd b13c 02c9 443a
00000200: 1548 4736 0887 9c39 3d5e 7d3a 27be a135
00000210: 226b 9b3c 47d3 8439 643b e835 3bbf 5139
00000220: adad df39 8b26 4835 aa1f 2b3d ff36 e33a
00000230: 5ff7 ab36 2d32 1b3a eed9 0b3b 0016 2536
00000240: b4e5 0b32 cc06 932f ddbb b12b de91 022f
00000250: 6a93 8f30 0fa2 cc2a ce24 1c3e 129f a83b
00000260: 9824 b437 f80f d83a 0b43 df3b 3de4 1037
00000270: 22cc 893d 6c32 8f3a eaf9 8c36 304b 693a
00000280: ee29 f13a 1ae6 1436 eea9 8b3c e8c0 5539
00000290: 9959 b434 75dd 0939 be31 e638 504f a334
000002a0: 9da7 db3c ea15 f739 b070 1d36 57e3 f039
000002b0: 0dba 323a 9811 9b35 20a6 bd3c f508 f43a
000002c0: 4205 bb35 d542 0238 1c00 8a3a 170c 2335
000002d0: 0000 0000 0000 0000 0000 0000 0000 0000
000002e0: 0000 0000 0000 0000 2643 433d 1b6d f43a
000002f0: c8b4 d136 0f83 4e3a 7ec3 053b 192b 3236

exp_avg f4 [32]
-0.0015208465 -0.0009116925 0.0003125373 -0.0015464785 -0.00011555188 0.00076481386 6e-45 -0.0006057014
0.0006595477 6e-45 0.0 0.00050361606 -0.0014104191 6e-45 0.0 -0.0009674442
-0.001974368 6e-45 -0.00215311 0.0 6.469072e-29 -0.0010382885 0.0006171734 0.0019870312
6e-45 0.0027242145 -0.00024330088 -6.693497e-05 0.0006950945 -0.0008545848 0.0 -0.0013520228
00000000: 2457 c7ba a6fe 6eba 0cdc a339 35b3 caba
00000010: 7154 f2b8 ca7d 483a 0400 0000 efc7 1eba
00000020: 7fe5 2c3a 0400 0000 0000 0000 1a05 043a
00000030: d0dd b8ba 0400 0000 0000 0000 159c 7dba
00000040: 6664 01bb 0400 0000 311b 0dbb 0000 0000
00000050: ae02 a410 2e17 88ba cec9 213a da38 023b
00000060: 0400 0000 bc88 323b 951e 7fb9 705f 8cb8
00000070: 0137 363a 3706 60ba 0000 0000 5b36 b1ba

exp_avg_sq f4 [32]
9.860428e-06 3.864897e-06 1.2223834e-06 1.2843806e-05 7.658252e-08 4.3375353e-06 1.3320945e-14 1.7162952e-06
1.6119787e-06 1.2782549e-37 0.0 4.511091e-06 7.927331e-06 9.710121e-34 0.0 4.432123e-06
1.6182894e-05 6.7065447e-18 2.0800318e-05 0.0 5.699949e-10 4.204686e-06 2.3566568e-06 9.299555e-06
3.6595705e-12 2.9440382e-05 1.0023783e-05 1.1364294e-06 3.5801354e-06 3.7847299e-06 0.0 8.9343075e-06
00000000: 376e 2537 36af 8136 c610 a435 ba7b 5737
00000010: b075 a433 258b 9136 04f8 6f28 745b e635
00000020: 2b5b d835 affc 2d02 0000 0000 fa5d 9736
00000030: a1ff 0437 4956 a108 0000 0000 a6b7 9436
00000040: 80c0 8737 866d f722 587c ae37 0000 0000
00000050: d3ad 1c30 fa15 8d36 0e27 1e36 4905 1c37
00000060: 7bc2 802c bdf6 f637 d22b 2837 6b87 9835
00000070: 4242 7036 2afd 7d36 0000 0000 8fe4 1537

exp_avg f4 [32, 32]
6e-45 6e-45 0.0 6e-45 0.0 6e-45 0.0 6e-45
6e-45 0.0 0.0 6e-45 6e-45 0.0 0.0 6e-45
6e-45 0.0 6e-45 0.0 6e-45 6e-45 0.0 6e-45
6e-45 6e-45 6e-45 0.0 6e-45 6e-45 0.0 6e-45
-0.0066622407 -0.003968426 -0.0017978859 -0.0051884656 -0.0001002312 -0.0024788156 -6e-45 -0.0029654356
-0.0018486605 0.0 0.0 -0.0016999928 -0.0056740968 6e-45 0.0 -0.0043933475
-0.0063455906 -6e-45 -0.0038876194 0.0 -6e-45 -0.004075069 -0.005420371 -0.0013135867
-6e-45 -0.0049055237 0.00011960135 -0.00010026071 -0.008716089 -0.0031259204 0.0 -0.003962227
6e-45 6e-45 6e-45 6e-45 6e-45 6e-45 -6e-45 6e-45
6e-45 -6e-45 0.0 6e-45 6e-45 6e-45 0.0 6e-45
6e-45 -6e-45 6e-45 0.0 -6e-45 6e-45 6e-45 6e-45
6e-45 6e-45 6e-45 6e-45 6e-45 6e-45 0.0 6e-45
-1.6870668e-05 -2.1734642e-05 3.426925e-18 0.00011672094 6.4335995e-36 0.0004060181 -6e-45 -4.7011622e-07
0.0003485162 6e-45 0.0 0.00045566124 0.0001648196 -6e-45 0.0 2.3802895e-06
6.487159e-05 6e-45 3.0313651e-05 0.0 1.185958e-36 0.000109560424 6e-45 0.00021272813
6e-45 0.0011626254 0.0008166282 2.123326e-18 2.2790244e-05 6e-45 0.0 0.00018806227
0.0 0.0 0.0 6e-45 0.0 6e-45 0.0 0.0
6e-45 0.0 0.0 6e-45 6e-45 0.0 0.0 0.0
6e-45 0.0 6e-45 0.0 0.0 6e-45 0.0 6e-45
0.0 6e-45 6e-45 0.0 0.0 0.0 0.0 6e-45
0.0 0.0 0.0 0.0 0.0 0.0 0.0 0.0
0.0 0.0 0.0 0.0 0.0 0.0 0.0 0.0
0.0 0.0 0.0 0.0 0.0 0.0 0.0 0.0
0.0 0.0 0.0 0.0 0.0 0.0 0.0 0.0
6e-45 6e-45 0.0 6e-45 6e-45 6e-45 6e-45 6e-45
6e-45 0.0 0.0 6e-45 6e-45 6e-45 0.0 6e-45
6e-45 6e-45 6e-45 0.0 6e-45 6e-45 6e-45 6e-45
6e-45 6e-45 0.0 6e-45 6e-45 6e-45 0.0 6e-45
-0.0030304343 -0.0030689249 -0.0037636366 -0.005636542 -0.0018911476 -0.00422695 6e-45 -0.0017560455
-0.00060983823 0.0 0.0 -0.0006236282 -0.0017238919 6e-45 0.0 -0.0038639144
-0.0031627826 -6e-45 -0.0037504 0.0 -6.469103e-29 -0.00105556 -0.000603874 -0.003870026
-6e-45 -0.003906583 8.080882e-05 0.0015389966 -0.0046829116 -0.0027006005 0.0 -0.0032979548
00000000: 0400 0000 0400 0000 0000 0000 0400 0000
00000010: 0000 0000 0400 0000 0000 0000 0400 0000
00000020: 0400 0000 0000 0000 0000 0000 0400 0000
00000030: 0400 0000 0000 0000 0000 0000 0400 0000
00000040: 0400 0000 0000 0000 0400 0000 0000 0000
00000050: 0400 0000 0400 0000 0000 0000 0400 0000
00000060: 0400 0000 0400 0000 0400 0000 0000 0000
00000070: 0400 0000 0400 0000 0000 0000 0400 0000
00000080: ed4e dabb 9209 82bb 0aa7 ebba 0104 aabb
00000090: 3733 d2b8 a073 22bb 0400 0080 c157 42bb
000000a0: c14e f2ba 0000 0000 0000 0000 4bd2 deba
000000b0: c6ed b9bb 0400 0000 0000 0000 12f6 8fbb
000000c0: acee cfbb 0400 0080 6ec7 7ebb 0000 0000
000000d0: 0400 0080 2888 85bb 5e9d b1bb a82c acba
000000e0: 0400 0080 84be a0bb 7cd2 fa38 0f43 d2b8
000000f0: edcd 0ebc 3edc 4cbb 0000 0000 92d5 81bb
00000100: 0400 0000 0400 0000 0400 0000 0400 0000
00000110: 0400 0000 0400 0000 0400 0080 0400 0000
00000120: 0400 0000 0400 0080 0000 0000 0400 0000
00000130: 0400 0000 0400 0000 0000 0000 0400 0000
00000140: 0400 0000 0400 0080 0400 0000 0000 0000
00000150: 0400 0080 0400 0000 0400 0000 0400 0000
00000160: 0400 0000 0400 0000 0400 0000 0400 0000
00000170: 0400 0000 0400 0000 0000 0000 0400 0000
00000180: 7c85 8db7 ca52 b6b7 c8dc 7c22 14c8 f438
00000190: d9d3 0805 d4de d439 0400 0080 4864 fcb4
000001a0: 0db9 b639 0400 0000 0000 0000 d1e5 ee39
000001b0: 6dd3 2c39 0400 0080 0000 0000 10bd 1f36
000001c0: ab0b 8838 0400 0000 124a fe37 0000 0000
000001d0: c2c7 c903 cec3 e538 0400 0000 c60f 5f39
000001e0: 0400 0000 3c63 983a fe12 563a 7eac 1c22
000001f0: ad2d bf37 0400 0000 0000 0000 9532 4539
00000200: 0000 0000 0000 0000 0000 0000 0400 0000
00000210: 0000 0000 0400 0000 0000 0000 0000 0000
00000220: 0400 0000 0000 0000 0000 0000 0400 0000
00000230: 0400 0000 0000 0000 0000 0000 0000 0000
00000240: 0400 0000 0000 0000 0400 0000 0000 0000
00000250: 0000 0000 0400 0000 0000 0000 0400 0000
00000260: 0000 0000 0400 0000 0400 0000 0000 0000
00000270: 0000 0000 0000 0000 0000 0000 0400 0000
00000280: 0000 0000 0000 0000 0000 0000 0000 0000
00000290: 0000 0000 0000 0000 0000 0000 0000 0000
000002a0: 0000 0000 0000 0000 0000 0000 0000 0000
000002b0: 0000 0000 0000 0000 0000 0000 0000 0000
000002c0: 0000 0000 0000 0000 0000 0000 0000 0000
000002d0: 0000 0000 0000 0000 0000 0000 0000 0000
000002e0: 0000 0000 0000 0000 0000 0000 0000 0000
000002f0: 0000 0000 0000 0000 0000 0000 0000 0000
00000300: 0400 0000 0400 0000 0000 0000 0400 0000
00000310: 0400 0000 0400 0000 0400 0000 0400 0000
00000320: 0400 0000 0000 0000 0000 0000 0400 0000
00000330: 0400 0000 0400 0000 0000 0000 0400 0000
00000340: 0400 0000 0400 0000 0400 0000 0000 0000
00000350: 0400 0000 0400 0000 0400 0000 0400 0000
00000360: 0400 0000 0400 0000 0000 0000 0400 0000
00000370: 0400 0000 0400 0000 0000 0000 0400 0000
00000380: 409a 46bb 0420 49bb 58a7 76bb beb2 b8bb
00000390: 62e0 f7ba 3a82 8abb 0400 0000 1c2b e6ba
000003a0: 8ddd 1fba 0000 0000 0000 0000 fb7a 23ba
000003b0: 37f4 e1ba 0400 0000 0000 0000 ba39 7dbb
000003c0: b046 4fbb 0400 0080 45c9 75bb 0000 0000
000003d0: e102 a490 b75a 8aba 4c4d 1eba 43a0 7dbb
000003e0: 0400 0080 cb02 80bb e877 a938 28b8 c93a
000003f0: 1c73 99bb 8ffc 30bb 0000 0000 8022 58bb

exp_avg_sq f4 [32, 32]
1.4013557e-21 3.4478318e-22 0.0 3.053248e-22 0.0 2.8962865e-21 0.0 1.3342686e-22
3.471267e-21 0.0 0.0 1.441523e-21 1.971109e-21 0.0 0.0 1.8443868e-23
1.2036598e-21 0.0 2.6048422e-22 0.0 2.286445e-21 2.9435321e-21 0.0 9.66544e-22
1.0466798e-21 1.3020325e-20 1.0017071e-21 0.0 1.2889846e-21 4.3978905e-24 0.0 1.4391139e-23
0.00017255392 5.0324332e-05 2.8732362e-05 7.679394e-05 2.1832907e-06 2.3092836e-05 3.3158745e-19 2.6350837e-05
4.680449e-05 0.0 0.0 5.0582712e-05 0.00015671815 1.8526044e-33 0.0 5.383602e-05
0.00014951624 1.4377233e-19 6.8060464e-05 0.0 3.4455282e-15 9.458793e-05 9.107116e-05 2.1455788e-05
9.684848e-12 0.00016065319 2.5790916e-06 4.341734e-06 0.00017533757 2.145404e-05 0.0 3.526241e-05
6.643908e-11 3.0769054e-11 5.847868e-11 4.6458157e-11 4.908611e-11 2.9718344e-14 3.4513474e-18 5.3703257e-12
9.531058e-13 6.383764e-39 0.0 4.3497357e-15 1.3415533e-11 5.6516716e-32 0.0 3.5114373e-11
4.6009765e-11 1.4183158e-18 4.8530725e-11 0.0 4.7666123e-15 2.8915902e-12 1.8247995e-13 1.6405801e-12
1.7760519e-14 2.5480434e-11 7.934013e-16 5.1824745e-15 1.9160583e-11 2.0896193e-11 0.0 2.1165382e-11
2.0932602e-07 6.0734465e-08 3.776672e-08 1.1282485e-06 7.953714e-09 4.6555947e-06 2.762393e-13 5.6376013e-08
3.0753072e-06 8.2438316e-38 0.0 4.78149e-06 1.3896336e-06 6.4018106e-33 0.0 2.1019365e-07
6.2895305e-07 7.315574e-19 6.035286e-07 0.0 1.1776202e-09 7.485826e-07 5.659142e-09 3.3593808e-06
9.061147e-13 3.410782e-05 1.6477155e-05 2.7106596e-08 2.7721723e-07 3.5540997e-09 0.0 4.2771265e-07
0.0 0.0 0.0 8.0177144e-18 0.0 1.1457992e-16 0.0 0.0
3.2068882e-16 0.0 0.0 5.3131538e-17 7.046168e-18 0.0 0.0 0.0
1.5553719e-17 0.0 5.90419e-17 0.0 0.0 4.3046405e-18 0.0 1.2923143e-16
0.0 4.8456006e-15 2.4093003e-15 0.0 0.0 0.0 0.0 9.78196e-19
0.0 0.0 0.0 0.0 0.0 0.0 0.0 0.0
0.0 0.0 0.0 0.0 0.0 0.0 0.0 0.0
0.0 0.0 0.0 0.0 0.0 0.0 0.0 0.0
0.0 0.0 0.0 0.0 0.0 0.0 0.0 0.0
2.2003625e-19 9.1168285e-21 0.0 3.261628e-22 2.4808537e-30 2.4798388e-20 4.0788605e-31 1.6973683e-20
2.5658367e-19 0.0 0.0 1.3751696e-30 6.3139167e-19 3.1260828e-36 0.0 4.9730062e-21
1.5299078e-19 4.545056e-30 4.1528841e-22 0.0 2.1840396e-34 6.815123e-19 8.750412e-31 2.4105354e-32
5.7797955e-34 2.1584002e-19 0.0 1.1730279e-30 4.8465546e-19 2.1433876e-30 0.0 1.9473e-22
0.000105306266 3.338468e-05 5.960206e-05 8.549945e-05 7.2917323e-06 6.70797e-05 7.769859e-13 2.3425342e-05
3.508698e-05 0.0 0.0 4.8556667e-05 0.00010990156 1.1002997e-33 0.0 4.7862693e-05
9.0111724e-05 1.4205196e-17 4.1928288e-05 0.0 5.319066e-09 7.305771e-05 0.00011392938 5.4287797e-05
6.8448537e-12 9.935643e-05 1.3563853e-06 4.699591e-05 0.00023117014 2.9974835e-05 0.0 2.5246587e-05
00000000: 53c4 d31c 9d68 d01b 0000 0000 b98e b81b
00000010: 0000 0000 54d6 5a1d 0000 0000 9d4d 211b
00000020: 0924 831d 0000 0000 0000 0000 38d6 d91c
00000030: cbee 141d 0000 0000 0000 0000 ce60 b219
00000040: 55e4 b51c 0000 0000 fb73 9d1b 0000 0000
00000050: 47c2 2c1d 3168 5e1d 0000 0000 5c0f 921c
00000060: 772b 9e1c 6ef2 751e ab5f 971c 0000 0000
00000070: 2dc9 c21c 9922 aa18 0000 0000 bc2e 8b19
00000080: 97ef 3439 5713 5338 4706 f137 6f0c a138
00000090: a684 1236 7db7 c137 14bc c320 fe0b dd37
000000a0: f04f 4438 0000 0000 0000 0000 c628 5438
000000b0: b554 2439 8ae8 1909 0000 0000 fccd 6138
000000c0: 76c7 1c39 85bc 2920 afbb 8e38 0000 0000
000000d0: c746 7827 825d c638 75fd be38 f4fb b337
000000e0: ae60 2a2d 0375 2839 7514 2d36 36af 9136
000000f0: d2da 3739 33f8 b337 0000 0000 b9e6 1338
00000100: e119 922e e052 072e 9298 802e 3c53 4c2e
00000110: 0ce2 572e ebd6 0529 1caa 7e22 98f3 bc2c
00000120: 4123 862b 5683 4500 0000 0000 3bb7 9c27
00000130: 3002 6c2d cdb9 920b 0000 0000 456f 1a2e
00000140: 645a 4a2e 754e d121 bd70 552e 0000 0000
00000150: 3dbc ab27 427a 4b2c 4474 4d2a 21e4 e62b
00000160: f8f8 9f28 d620 e02d afae 6426 e4b7 ba27
00000170: cc89 a82d 0bce b72d 0000 0000 342c ba2d
00000180: 19c3 6034 206d 8233 f334 2233 536e 9735
00000190: cea4 0832 4137 9c36 4782 9b2a 1522 7233
000001a0: 6061 4e36 1f6b e001 0000 0000 b070 a036
000001b0: 7283 ba35 ddf5 040a 0000 0000 97b1 6134
000001c0: 53d5 2835 eaea 5721 2b02 2235 0000 0000
000001d0: d4d9 a130 34f2 4835 5772 c231 b971 6136
000001e0: 720c 7f2b fe0e 0f38 6c38 8a37 09d8 e832
000001f0: 72d4 9434 623c 7431 0000 0000 61a0 e534
00000200: 0000 0000 0000 0000 0000 0000 96e6 1323
00000210: 0000 0000 061a 0425 0000 0000 0000 0000
00000220: 51dd b825 0000 0000 0000 0000 a606 7524
00000230: 96fa 0123 0000 0000 0000 0000 0000 0000
00000240: 2e75 8f23 0000 0000 3024 8824 0000 0000
00000250: 0000 0000 2ed0 9e22 0000 0000 63fe 1425
00000260: 0000 0000 c794 ae27 bf9b 2d27 0000 0000
00000270: 0000 0000 0000 0000 0000 0000 335b 9021
00000280: 0000 0000 0000 0000 0000 0000 0000 0000
00000290: 0000 0000 0000 0000 0000 0000 0000 0000
000002a0: 0000 0000 0000 0000 0000 0000 0000 0000
000002b0: 0000 0000 0000 0000 0000 0000 0000 0000
000002c0: 0000 0000 0000 0000 0000 0000 0000 0000
000002d0: 0000 0000 0000 0000 0000 0000 0000 0000
000002e0: 0000 0000 0000 0000 0000 0000 0000 0000
000002f0: 0000 0000 0000 0000 0000 0000 0000 0000
00000300: f0e2 8120 4736 2c1e 0000 0000 4027 c51b
00000310: 5145 490e d336 ea1e d95d 040d d94f a01e
00000320: d475 9720 0000 0000 0000 0000 4f22 df0d
00000330: 9b5a 3a21 07f8 8404 0000 0000 f7df bb1d
00000340: a09e 3420 8f5e b80e c506 fb1b 0000 0000
00000350: 8227 9107 9d25 4921 cafb 8d0d 0653 fa0a
00000360: 1011 4008 a5d1 7e20 0000 0000 ac55 be0d
00000370: 880b 0f21 6be4 2d0e 0000 0000 046a 6b1b
00000380: dfd7 dc38 8706 0c38 3afd 7938 2b4e b338
00000390: 81ab f436 24ad 8c38 bcb3 5a2b 8a81 c437
000003a0: 5c2a 1338 0000 0000 0000 0000 53a9 4b38
000003b0: f37a e638 93d1 b608 0000 0000 2dc0 4838
000003c0: 5dfa bc38 1205 8323 28dc 2f38 0000 0000
000003d0: 00c3 b631 8f36 9938 5fed ee38 14b3 6338
000003e0: f6d4 f02c 945d d038 0b0d b635 791d 4538
000003f0: 4366 7239 7872 fb37 0000 0000 a2c8 d337

exp_avg f4 [32]
6e-45 -0.00038378578 6e-45 1.3713909e-05 6e-45 0.0 6e-45 -0.00024748323
-0.00021139384 6e-45 6e-45 6e-45 -0.00015469642 6e-45 0.0 6e-45
-0.00019419243 -0.0001280044 -0.00016174439 6e-45 -8.862568e-07 6e-45 6e-45 0.0
6e-45 6e-45 1.6932094e-05 6e-45 -0.00011734525 -3.4869438e-05 6e-45 -0.0001853461
00000000: 0400 0000 db36 c9b9 0400 0000 ca14 6637
00000010: 0400 0000 0000 0000 0400 0000 a3c0 81b9
00000020: 9aa9 5db9 0400 0000 0400 0000 0400 0000
00000030: 0136 22b9 0400 0000 0000 0000 0400 0000
00000040: 22a0 4bb9 eb38 06b9 ee99 29b9 0400 0000
00000050: 1be7 6db5 0400 0000 0400 0000 0000 0000
00000060: 0400 0000 0400 0000 6509 8e37 0400 0000
00000070: 4017 f6b8 c640 12b8 0400 0000 7759 42b9

exp_avg_sq f4 [32]
3.2569185e-24 5.1414673e-07 2.401456e-13 8.077757e-09 8.3529024e-19 0.0 2.332846e-22 2.9717881e-07
5.8760196e-07 9.357682e-18 7.6347964e-19 2.2243207e-34 1.0274245e-07 1.371835e-39 0.0 2.7169193e-13
1.1311255e-07 5.403078e-07 2.436967e-07 3.1309921e-21 4.541288e-09 2.0657091e-12 1.6820676e-33 0.0
6.871905e-33 2.3328161e-24 1.3430382e-07 3.195488e-20 1.4844903e-07 2.9233544e-07 1.9265425e-33 3.3100133e-07
00000000: ebfd 7b18 e503 0a35 a130 872a 5ac6 0a32
00000010: bf88 7621 0000 0000 0b03 8d1b f28b 9f34
00000020: b3bb 1d35 679e 2c23 e456 6121 dbd4 9307
00000030: 42a3 dc33 1ef0 0e00 0000 0000 eff2 982a
00000040: 48e8 f233 ab09 1135 6bd5 8234 3292 6c1d
00000050: 9709 9c31 825c 112c 9fbd 0b09 0000 0000
00000060: 50b9 0e0a 2f7e 3418 2735 1034 14e7 161f
00000070: 5c65 1f34 47f2 9c34 070d 2009 7ab4 b134

exp_avg f4 [32, 32]
0.0 6e-45 6e-45 6e-45 0.0 0.0 6e-45 6e-45
6e-45 6e-45 6e-45 0.0 6e-45 0.0 0.0 6e-45
0.0 6e-45 6e-45 0.0 6e-45 6e-45 0.0 0.0
6e-45 0.0 6e-45 6e-45 6e-45 0.0 6e-45 6e-45
-6e-45 -0.0006323959 6e-45 -8.209326e-05 -6e-45 0.0 6e-45 -0.0013242139
-0.0020002404 6e-45 -6e-45 -6e-45 -0.0018056816 6e-45 0.0 6e-45
-0.0016307383 -0.0027090202 -4.8442627e-05 6e-45 -1.9709516e-05 6e-45 6e-45 0.0
-6e-45 6e-45 -3.881136e-05 6e-45 -0.0020913186 -0.00015042015 -6e-45 -0.00089888205
0.0 0.0 6e-45 -6e-45 0.0 0.0 0.0 6e-45
6e-45 6e-45 6e-45 0.0 6e-45 0.0 0.0 6e-45
6e-45 -6e-45 6e-45 0.0 6e-45 -6e-45 0.0 0.0
0.0 0.0 6e-45 6e-45 6e-45 6e-45 0.0 6e-45
6e-45 1.6423054e-09 -6e-45 0.00011139904 6e-45 0.0 -6e-45 1.2361166e-05
-8.289405e-05 -6e-45 6e-45 0.0 -8.6331915e-05 -6e-45 0.0 6e-45
-0.0010426427 -0.00042580796 -6e-45 -6e-45 -6e-45 -6e-45 0.0 0.0
0.0 -6e-45 4.954447e-05 6e-45 -0.0001832197 0.0002579515 0.0 2.0207688e-05
-6e-45 -0.00059713825 6e-45 -7.7522156e-05 -6e-45 0.0 6e-45 -0.0012504118
-0.0018887535 6e-45 -6e-45 -6e-45 -0.0017050224 6e-45 0.0 6e-45
-0.0015398944 -0.002558027 -4.5737866e-05 6e-45 -1.8615396e-05 6e-45 6e-45 0.0
-6e-45 6e-45 -3.6655096e-05 6e-45 -0.0019747468 -0.00014207119 6e-45 -0.0008487765
0.0 6e-45 6e-45 -6e-45 0.0 0.0 6e-45 6e-45
6e-45 6e-45 6e-45 6e-45 6e-45 0.0 0.0 6e-45
0.0 6e-45 6e-45 0.0 6e-45 6e-45 -6e-45 0.0
6e-45 6e-45 -6e-45 6e-45 6e-45 0.0 6e-45 6e-45
0.0 0.0 6e-45 6e-45 0.0 0.0 0.0 0.0
0.0 0.0 6e-45 0.0 0.0 0.0 0.0 6e-45
0.0 0.0 0.0 0.0 0.0 0.0 0.0 0.0
0.0 0.0 6e-45 6e-45 6e-45 6e-45 0.0 6e-45
0.0 0.0 0.0 6e-45 0.0 0.0 0.0 6e-45
6e-45 0.0 0.0 0.0 6e-45 0.0 0.0 6e-45
6e-45 6e-45 0.0 0.0 6e-45 0.0 0.0 0.0
0.0 0.0 6e-45 6e-45 6e-45 6e-45 0.0 6e-45
00000000: 0000 0000 0400 0000 0400 0000 0400 0000
00000010: 0000 0000 0000 0000 0400 0000 0400 0000
00000020: 0400 0000 0400 0000 0400 0000 0000 0000
00000030: 0400 0000 0000 0000 0000 0000 0400 0000
00000040: 0000 0000 0400 0000 0400 0000 0000 0000
00000050: 0400 0000 0400 0000 0000 0000 0000 0000
00000060: 0400 0000 0000 0000 0400 0000 0400 0000
00000070: 0400 0000 0000 0000 0400 0000 0400 0000
00000080: 0400 0080 5fc7 25ba 0400 0000 7c29 acb8
00000090: 0400 0080 0000 0000 0400 0000 3f91 adba
000000a0: 7716 03bb 0400 0000 0400 0080 0400 0080
000000b0: 9fac ecba 0400 0000 0000 0000 0400 0000
000000c0: 7fbe d5ba d189 31bb e02e 4bb8 0400 0000
000000d0: dd55 a5b7 0400 0000 0400 0000 0000 0000
000000e0: 0400 0080 0400 0000 61c9 22b8 0400 0000
000000f0: 810e 09bb 1aba 1db9 0400 0080 f4a2 6bba
00000100: 0000 0000 0000 0000 0400 0000 0400 0080
00000110: 0000 0000 0000 0000 0000 0000 0400 0000
00000120: 0400 0000 0400 0000 0400 0000 0000 0000
00000130: 0400 0000 0000 0000 0000 0000 0400 0000
00000140: 0400 0000 0400 0080 0400 0000 0000 0000
00000150: 0400 0000 0400 0080 0000 0000 0000 0000
00000160: 0000 0000 0000 0000 0400 0000 0400 0000
00000170: 0400 0000 0400 0000 0000 0000 0400 0000
00000180: 0400 0000 7cb7 e130 0400 0080 e79e e938
00000190: 0400 0000 0000 0000 0400 0080 ce62 4f37
000001a0: 67d7 adb8 0400 0080 0400 0000 0000 0000
000001b0: 180d b5b8 0400 0080 0000 0000 0400 0000
000001c0: 49a9 88ba fa3e dfb9 0400 0080 0400 0080
000001d0: 0400 0080 0400 0080 0000 0000 0000 0000
000001e0: 0000 0000 0400 0080 f8cd 4f38 0400 0000
000001f0: aa1e 40b9 aa3d 8739 0000 0000 ae83 a937
00000200: 0400 0080 4589 1cba 0400 0000 6493 a2b8
00000210: 0400 0080 0000 0000 0400 0000 dce4 a3ba
00000220: 0d90 f7ba 0400 0000 0400 0080 0400 0080
00000230: 0f7b dfba 0400 0000 0000 0000 0400 0000
00000240: 48d6 c9ba 92a4 27bb a9d6 3fb8 0400 0000
00000250: 4228 9cb7 0400 0000 0400 0000 0000 0000
00000260: 0400 0080 0400 0000 1cbe 19b8 0400 0000
00000270: c16a 01bb f2f8 14b9 0400 0000 6d80 5eba
00000280: 0000 0000 0400 0000 0400 0000 0400 0080
00000290: 0000 0000 0000 0000 0400 0000 0400 0000
000002a0: 0400 0000 0400 0000 0400 0000 0400 0000
000002b0: 0400 0000 0000 0000 0000 0000 0400 0000
000002c0: 0000 0000 0400 0000 0400 0000 0000 0000
000002d0: 0400 0000 0400 0000 0400 0080 0000 0000
000002e0: 0400 0000 0400 0000 0400 0080 0400 0000
000002f0: 0400 0000 0000 0000 0400 0000 0400 0000
00000300: 0000 0000 0000 0000 0400 0000 0400 0000
00000310: 0000 0000 0000 0000 0000 0000 0000 0000
00000320: 0000 0000 0000 0000 0400 0000 0000 0000
00000330: 0000 0000 0000 0000 0000 0000 0400 0000
00000340: 0000 0000 0000 0000 0000 0000 0000 0000
00000350: 0000 0000 0000 0000 0000 0000 0000 0000
00000360: 0000 0000 0000 0000 0400 0000 0400 0000
00000370: 0400 0000 0400 0000 0000 0000 0400 0000
00000380: 0000 0000 0000 0000 0000 0000 0400 0000
00000390: 0000 0000 0000 0000 0000 0000 0400 0000
000003a0: 0400 0000 0000 0000 0000 0000 0000 0000
000003b0: 0400 0000 0000 0000 0000 0000 0400 0000
000003c0: 0400 0000 0400 0000 0000 0000 0000 0000
000003d0: 0400 0000 0000 0000 0000 0000 0000 0000
000003e0: 0000 0000 0000 0000 0400 0000 0400 0000
000003f0: 0400 0000 0400 0000 0000 0000 0400 0000
